best_contrastive.pth (torch, 904651 bytes, 22 tensors)

encoder.0.weight f4 [64, 2, 3]
00000000: f92a 883e b93b 79be 5521 84be 0009 8f3e
00000010: 60d4 3dbf e510 2ebe 2174 163e 3066 103f
00000020: 6524 36bf 7d1a 67bd 2177 6e3c 92b9 a4bd
00000030: 0217 06bf f1b1 303e f53b 35bd f050 fc3e
00000040: 432f 9c3e ec65 e0be 8eed 913e a0d2 39bf
00000050: 453e c83e b557 7dbe 1bc9 a73e 84ca 2b3d
00000060: e2ef 23bf 0a87 06bf b706 dcbe f002 823d
00000070: b18a 0e3e 245e 173e 1c8b 403e fdaf 453e
00000080: f1c1 db3d 068f 72be cf5c eabe a1f3 0bbf
00000090: c769 5e3d e39e 86bc 5c7f aabd 5213 64bd
000000a0: e4dd efbe 3d5f 023f 16b9 a83e c523 d23e
000000b0: bf68 aa3e cbb1 b5be e6e6 d1be 03f0 c2be
000000c0: 99c8 a43e fe92 1f3d 6c8f d9be 1fe9 d33e
000000d0: 02d9 973e 16cc c4be c875 c7be 1f23 3b3f
000000e0: 48b6 afbe 9aa0 21bd 6291 0a3d 6a9f 0c3e
000000f0: db70 dabe 81f4 bbbe 4893 b8be dd2a ad3e
00000100: 5fd4 d23e 02aa dc3e d11e dabc d204 abbd
00000110: 0957 37bd 89d6 62bf 4564 e5be ec77 b1be
00000120: e4e7 8b3e 7bb8 a63d 0de2 a73e cf5c b0bd
00000130: c191 15bf bc5b 01bf b6b1 26bf 7af0 a93e
00000140: 8a46 b23e 7d0a 9cbe 72d5 25be d5a8 cc3e
00000150: 4967 073f 77a0 a9be eb81 83bd b538 e6be
00000160: d335 77be cd76 3f3e f0ca 203f 5b21 7fbc
00000170: 35b0 21bf 9399 783e 8ba8 813c 91c4 60be
00000180: 76e0 9cbd ed40 0d3e 31ad d43c aa9b 0abf
00000190: bdc7 f8bc 1f7e 023f 55fc 9ebe 3bcb a3be
000001a0: b90a c73d e8a8 f7be 3b5c 043e 4376 093f
000001b0: ad37 62be 39e3 d13d 389d 88be cb61 c4be
000001c0: db0f 393e caf1 1a3f 8d8c e6bd f8d8 183e
000001d0: 88d1 8e3e c607 3fbf de0e 20bf d0cb ab3d
000001e0: df52 95bd c2f1 0fbf fe9d 363f 375c 4b3a
000001f0: 3d76 713d 0bdc bcbd 6b86 1ebf 1dfa 31bf
00000200: 55d4 e3be 5cf0 bdbd 5b7a f9bd 880d 6ebd
00000210: d0b3 42bd f6dd fabe f542 11bf a7b4 a73e
00000220: 9ad7 c53e 5e77 1a3e 966d 9a3c a42b 243f
00000230: a85f 35bf e2c7 723e 63ee 433d 77f9 16bc
00000240: 2278 00bf 10e3 da3e 5357 183e 2c74 a1be
00000250: 1f5a ed3e 3f4f 44bd cbe7 ce3e 5e58 df3e
00000260: 0226 07bf 707c 8dbe 09be a9be eb9d 10be
00000270: 57d1 2a3f dddc ecbe ac98 5dbe 334e 21bd
00000280: 60a2 033d b077 1a3d 7c5a b1be dfaa c0be
00000290: 1c7e e9be a98d 6f3e c2c0 153e 6bc8 0d3f
000002a0: 4446 0dbf 3a5a a4be 7fe8 213c 9281 d03e
000002b0: 7cee 94be 177f cd3e ffdf e03e a884 70be
000002c0: 573c efbe c5c2 b53d e56d 34be 4223 1c3f
000002d0: 041d 06bf c9b4 1d3f 6c5d b4be 52b1 63bd
000002e0: bdae 89bd 1511 7dbc 0c95 8ebe 6538 d2be
000002f0: 125f e5bd 57c9 093f 1200 593e 2564 b5be
00000300: 4419 d9bd ab4d 16bf 2794 333f d43b 183c
00000310: 72cf 66bc c6c9 323d d624 d0be 0217 cabe
00000320: 4bc3 8abe 8ea2 b13e a01d aa3e d767 963e
00000330: 68a7 f93e 6c5e e1be 2037 43be 856e 5e3e
00000340: da1a 713e 343a bcbe 1cec 753f 1909 3a3f
00000350: 28c3 f13e 16fb e2bc adda 3fbd fc0e 9bbd
00000360: 0ee0 973e ea00 a83e 1e4f a43e 25bd b43e
00000370: f71e 973e a3c6 b03e eaff d33e 9ffc 3ebe
00000380: 0451 34be 78cc c53e 1607 b4be 6cdb 33be
00000390: 8bc7 863e d3bb 933e 8741 f4be cb89 9bbe
000003a0: e1e2 0abe b181 c43e 244f f4be f60b 823e
000003b0: 54c0 a23e 9ff8 93bc b4e3 db3e 8836 bdbe
000003c0: c75d fa3d 831c 283f 0f5f 36bf bc08 f33d
000003d0: 69cf 003e 4805 87be 8408 ec3e 0f4c ab3e
000003e0: 7b90 3ebf e902 6cbd fcef a53c 781d 183d
000003f0: 5208 9e3e ee59 973c ce20 94be c274 13bf
0.26595286 -0.24339189 -0.2580668 0.27936554 -0.74152184 -0.16998632 0.14692737 0.56405926
-0.71149284 -0.056421746 0.01455477 -0.08043207 -0.5237886 0.1725538 -0.044246633 0.492805
0.30504808 -0.4382776 0.28501552 -0.72587013 0.39110008 -0.24740489 0.3277062 0.04194118
-0.6403791 -0.52549803 -0.42973873 0.063482165 0.13920094 0.14782006 0.18803066 0.19305415
0.10730351 -0.23687372 -0.45773932 -0.54668623 0.054300096 -0.016433185 -0.08325073 -0.055682488
-0.46848977 0.5092657 0.3295371 0.41042915 0.3328304 -0.35487208 -0.40996474 -0.3807374
0.32184294 0.038958542 -0.42492235 0.41388795 0.2965775 -0.38436955 -0.38957047 0.73100466
-0.34318757 -0.039459802 0.033830054 0.13732687 -0.42664227 -0.3670998 -0.36049867 0.33821765
0.4117765 0.43098456 -0.026626023 -0.08350529 -0.044760738 -0.88608605 -0.44803062 -0.34661806
0.27325356 0.081406556 0.3278965 -0.08611452 -0.5842553 -0.505306 -0.65114915 0.33191282
0.34819442 -0.30476752 -0.16194704 0.3997256 0.52891976 -0.33130237 -0.06421264 -0.4496514
-0.24141626 0.18697663 0.6280966 -0.015571917 -0.63159496 0.24277334 0.015827438 -0.21949984
-0.0766 0.13794298 0.02596149 -0.54143775 -0.03036868 0.50973696 -0.3105189 -0.3199099
0.09718842 -0.48371053 0.12925808 0.5369608 -0.22091551 0.102484174 -0.26682448 -0.3835586
0.18072455 0.6052519 -0.11257277 0.14926517 0.27894235 -0.74621236 -0.62522686 0.083884835
-0.07291197 -0.5622827 0.71334827 0.00077575765 0.05895065 -0.09221657 -0.61923856 -0.6952227
-0.44497934 -0.092743605 -0.121815406 -0.058118373 -0.047534764 -0.48997468 -0.56742793 0.32755014
0.38641053 0.15084597 0.018851083 0.6412909 -0.70849085 0.23709062 0.047834765 -0.0092147505
-0.5018331 0.4275136 0.14877062 -0.31533945 0.4635782 -0.047927137 0.4041122 0.43622106
-0.5279237 -0.27634 -0.33152798 -0.14122741 0.6672568 -0.46262255 -0.21640271 -0.039381217
0.032137275 0.0377118 -0.34639347 -0.37630364 -0.45604026 0.23393883 0.14624313 0.5538394
-0.5518534 -0.32100087 0.009882092 0.40723854 -0.290882 0.40136024 0.43920895 -0.23488104
-0.46725723 0.0887504 -0.17620046 0.609913 -0.52388024 0.6160398 -0.35227525 -0.055589028
-0.06722782 -0.015445967 -0.2784809 -0.4105865 -0.11199774 0.53822845 0.21191433 -0.35427967
-0.10600522 -0.5871226 0.7014794 0.009291608 -0.014087545 0.043649457 -0.40653104 -0.3947068
-0.27102122 0.34694332 0.33225727 0.293761 0.48760533 -0.4401735 -0.19063997 0.21721847
0.235454 -0.36763155 0.960634 0.7267013 0.47219205 -0.027707618 -0.046839405 -0.075712174
0.29663128 0.32813197 0.32091612 0.35300556 0.29515812 0.34526548 0.41406184 -0.18651055
-0.1760903 0.3863256 -0.35161656 -0.17564172 0.26324114 0.28854236 -0.47706243 -0.30378565
-0.1356311 0.38380197 -0.4771663 0.2539975 0.3178736 -0.018062888 0.4294716 -0.36955667
0.12224918 0.65668505 -0.712388 0.118669 0.1257912 -0.26371217 0.46100247 0.33456466
-0.7443921 -0.057619963 0.020256035 0.03713748 0.30865723 0.018475499 -0.28931278 -0.57600033

encoder.0.bias f4 [64]
00000000: 7ac0 803e fb78 e8bc 5331 8f3d d3fe 5c3e
00000010: 727e 9d3e 3378 44be 4bca ea3e d98e 283e
00000020: 623b ab3e d003 c0be ef7d a43e 86d4 573e
00000030: 4823 cbbe 8f33 1bbe 811c 87bd db40 d2be
00000040: d566 0c3c 4daf 0abf 2ba1 933e 27f6 95be
00000050: 6ecd a83c 0930 94be e692 76be 986b 813d
00000060: 741c 59be ffb3 b23e afb9 263e 2746 babd
00000070: 5b2e 3abe 7665 58bd 5c80 14be 8458 e43b
00000080: 8940 9fbe e792 fc3d ec9e cc3e 2b03 8c3e
00000090: ddc7 79be 17e5 adbe dfa5 5c3e 3c24 98be
000000a0: cc61 74bc 4260 4b3d 7cbc 713e edc2 2a3e
000000b0: 3072 843e ba33 a93d d2f5 3fbc 627c b43e
000000c0: fe48 3e3d ae73 fc3e 0ac7 95be 71f0 c73e
000000d0: d4cb 6abe f38d 93be e542 633e 163c d5bd
000000e0: f799 cbbe 9137 a53e 45e4 433e 830d 143e
000000f0: 7853 c5bd 49c6 cabe 1cdd 9cbc 7803 bb3e
0.25146848 -0.028378 0.0699183 0.21581583 0.30760533 -0.19186477 0.45857462 0.16460742
0.33443743 -0.3750291 0.3212733 0.21077165 -0.39675355 -0.15156387 -0.065972336 -0.41065106
0.008569439 -0.5417374 0.288339 -0.29289362 0.020605769 -0.28942898 -0.24079475 0.0631935
-0.2120226 0.3490295 0.1628177 -0.09095412 -0.18181746 -0.052831136 -0.1450209 0.0069685597
-0.31103924 0.12332707 0.39964998 0.27346167 -0.24392648 -0.33963844 0.2154765 -0.29715145
-0.014915895 0.049652345 0.23607057 0.16675921 0.25868368 0.08261819 -0.011716323 0.35251147
0.04645633 0.49307007 -0.29253417 0.3905063 -0.22929317 -0.28819236 0.22193487 -0.10411851
-0.39765903 0.32268956 0.19130047 0.1445828 -0.09635061 -0.39604405 -0.019148402 0.36526084

encoder.1.weight f4 [64]
00000000: 4a42 003f d129 813f 1450 203f 1b38 aa3f
00000010: cbd3 353e de95 363f 178e 963f fb5b b13f
00000020: 432d 213f a376 8b3f eecb 493f 0dce 033f
00000030: f88a f73e 77af b63f 3d29 683e a5b3 a03f
00000040: f31e 543f 047c ac3f 1dd1 7b3f 317b 1d3f
00000050: 24da 453f 51d6 473f 3374 503f abc2 463f
00000060: 0955 383f bfe7 303f 0796 a03f 96e6 693f
00000070: 7b79 823f 5d3f 0f3f fbec b93f 1b42 7d3f
00000080: 5c86 863f fb42 5a3f ec9f 6e3f f436 093f
00000090: 27bc 0c3f c43c 593f 1046 653f 00ba 983f
000000a0: 406c 9b3f d159 b23f 7c3b 913f c21d 8b3f
000000b0: 5c10 763f c5a0 d43f 8948 a83f c883 9f3f
000000c0: 8643 4d3f 9301 583f 7f81 993f e5f6 8e3f
000000d0: d295 963f efc2 8b3f fef0 143f d0f4 fa3e
000000e0: 9c4e c03f 2d54 4b3f 96c6 683f 10a1 f13e
000000f0: 9c2a 173f d051 833f 365d 983f 9623 083f
0.5010115 1.0090886 0.6262219 1.3298372 0.17756574 0.7132243 1.1762112 1.3856195
0.6295969 1.089558 0.78826797 0.51486284 0.48348212 1.4272298 0.22671981 1.2554823
0.82859725 1.3475347 0.98365957 0.615161 0.7728598 0.78061396 0.81427306 0.7764079
0.72004753 0.69103616 1.2545785 0.9136747 1.0193323 0.5595606 1.4525446 0.98928994
1.0509753 0.85258454 0.9321277 0.53599477 0.549746 0.84858346 0.8956003 1.1931763
1.214241 1.393366 1.1346278 1.0868456 0.9611871 1.6611563 1.3147136 1.2462091
0.8018116 0.843774 1.1992644 1.1169096 1.1764472 1.0918864 0.58180225 0.49014902
1.502399 0.7942532 0.9092802 0.47193193 0.5904939 1.0259342 1.1903446 0.531793

encoder.1.bias f4 [64]
00000000: 4226 f33d c60f 013f 3575 2a3e 9dea 55ba
00000010: ae77 04bc 4de7 6c3d 95f7 abbd a959 903d
00000020: e4f8 07be 2b2b fb3d b11d 863e 723f 0b3e
00000030: 6c91 f6bc 29de 953f 95c6 b23b d9f3 dabc
00000040: 8036 923f c8c8 ab3e 8b8e 86be 71da b03d
00000050: c294 83be eec9 5ebe c1f9 e13e ab26 5a3d
00000060: 8076 4b3d 5597 c1bc 32bb 54bd 4ca2 c83c
00000070: e0a2 71be fd49 cdbd 08cf 3cbf 9ccc ee3e
00000080: 998f 9c3c 7fe9 143d f4b0 863f 614e 82be
00000090: f442 e0bc b571 1d3f 6a24 713f 9e4e 973f
000000a0: 447c 11bf efd7 43bc 1fdd e63e e260 ecba
000000b0: e127 0b3e 3781 733f 9914 62bb be17 89bf
000000c0: cfe8 6a3e b63e 163f 73b1 3abe 0ea7 c63e
000000d0: f80d 463d 6341 e83e e444 1a3e 3747 c33e
000000e0: b25e e6bd b891 5d3f b6ae 843f 4add 9e3e
000000f0: 2f2a f03d 0783 743f 4617 3b3f fefa 533e
0.118725315 0.50414693 0.16646273 -0.0008160265 -0.0080851745 0.057837773 -0.08396832 0.07048351
-0.13278538 0.12264093 0.26194528 0.13598421 -0.03009864 1.1708423 0.0054558017 -0.026727604
1.1422882 0.3355162 -0.26280627 0.086354144 -0.2569943 -0.21756718 0.4413586 0.053259533
0.049673557 -0.023631731 -0.051936336 0.024491452 -0.23597288 -0.10023878 -0.73753405 0.4664048
0.019111441 0.03635549 1.0522752 -0.25450423 -0.027375676 0.6150163 0.9419619 1.1820867
-0.5683024 -0.011953338 0.45090577 -0.0018034244 0.13589431 0.9511904 -0.003449714 -1.071037
0.22940372 0.5868944 -0.18231754 0.38799328 0.048353165 0.45362386 0.15065342 0.3814027
-0.112485304 0.86550474 1.0365818 0.31028205 0.11726796 0.9551243 0.7308239 0.20701215

encoder.1.running_mean f4 [64]
00000000: 726e 803e b3b5 f1bc 8eea 983d 314b 5e3e
00000010: ecfe a43e 3da1 4dbe 3198 ea3e 2fe0 1a3e
00000020: 453e ac3e 370f c0be ced1 ab3e 1e3d 523e
00000030: bd60 d0be f364 1cbe 9c8c 8dbd ad13 d2be
00000040: c78b ec3b a559 09bf 57d8 953e 1c10 9abe
00000050: f93d a73c 0043 8dbe 5685 69be 170f 833d
00000060: f130 59be f3af af3e 02eb 263e 6238 9fbd
00000070: 3801 31be 92e4 47bd 9a3a 13be 06f5 823c
00000080: 9e10 9fbe a979 0b3e 7f8f cd3e d381 823e
00000090: 7bb8 7dbe 4360 aebe c471 5b3e 7350 98be
000000a0: 0faa 81bc deba 473d e375 723e d03d 2a3e
000000b0: 3696 7b3e 2e92 a43d efa8 31bc 7817 b53e
000000c0: 3230 083d 1ec1 fa3e 48a6 95be 3472 c73e
000000d0: 8fec 68be 308c 95be 37d2 703e 8013 cfbd
000000e0: 7357 cbbe d71a a63e 26b3 433e 5122 143e
000000f0: 03f5 bfbd 809d c9be 8fa7 a2bc dfee b63e
0.25084263 -0.029505586 0.07466613 0.21708371 0.3222574 -0.20081039 0.45819238 0.15124582
0.33641258 -0.37511608 0.33558506 0.20531127 -0.40698805 -0.15272884 -0.06911585 -0.41030636
0.007218811 -0.5365241 0.29266617 -0.30090415 0.020415293 -0.2759018 -0.2280477 0.063993625
-0.21210076 0.34313926 0.16300586 -0.07774426 -0.17285621 -0.048801966 -0.14377823 0.015985977
-0.31067365 0.13620628 0.4014854 0.25489673 -0.24777405 -0.34057817 0.21430117 -0.29748878
-0.01582816 0.048762195 0.23677783 0.16625142 0.2456902 0.08035694 -0.0108435 0.35369468
0.033249088 0.48975462 -0.29228425 0.38954318 -0.2274649 -0.29208517 0.2351769 -0.10111141
-0.39715156 0.32442352 0.19111308 0.14466216 -0.09372904 -0.39377975 -0.019855289 0.3572912

encoder.1.running_var f4 [64]
00000000: a3a1 153f 4376 ca3e 57de 003f ad10 f73e
00000010: 7ba1 853f 58bb 813f 9358 723e aade 923f
00000020: cdc2 a93e 2217 c93e 609a a03f 4ed8 ef3f
00000030: 8182 853f 66f0 cb3e f908 ed3e 345b c03e
00000040: a276 8e3e bf9a cf3e ba98 d73e a13a 9f3f
00000050: 3c6b cf3e 8ba6 ad3f 46f4 6f3f ef6a f43e
00000060: 510a a23e 0ac0 2a3f a4ba ac3e ecc0 823f
00000070: 3d11 203f 2490 0e3f bf86 ca3e 7e9d 0e3f
00000080: 1103 c73e 0357 713f f5b0 a73e 2ee8 f23f
00000090: 56ab 893f 17ab 673e 775b b23e 07ec ab3e
000000a0: 1957 e63e 07c0 d43e 9272 fc3e e316 cc3e
000000b0: aed5 8f3f 3744 ba3e b059 e83e 5ca5 d33e
000000c0: 715b 6b3f 4e6e c43e 434b 5f3e a3b3 9e3e
000000d0: 3d0f aa3e 1e08 f43e 4ae3 6f3f 8700 dd3e
000000e0: 7643 a23e 0e51 a03e 735b d73e 4d71 b33e
000000f0: abd8 f63f 1b5a ac3e 5a90 e03e 9174 e33e
0.58449763 0.39543352 0.50339264 0.4825491 1.0439905 1.0135298 0.23666601 1.1474202
0.33156434 0.3927546 1.2547112 1.8737886 1.0430452 0.39831847 0.46295908 0.37569582
0.27824885 0.4054775 0.4210871 1.2439767 0.405115 1.356645 0.93732107 0.47737834
0.31648496 0.6669928 0.33736145 1.0215125 0.62526304 0.5568869 0.39555928 0.55709064
0.38869527 0.94273394 0.32752195 1.8977106 1.0755413 0.2262386 0.34835407 0.33578512
0.44988325 0.41552755 0.4930616 0.3986121 1.1237085 0.3638017 0.45380926 0.41337097
0.91936404 0.38365406 0.21806054 0.30996427 0.3321475 0.47662443 0.9370619 0.43164465
0.31692094 0.3131184 0.42061958 0.3504738 1.9284872 0.33662495 0.43860132 0.4442487

encoder.4.weight f4 [128, 64, 3]
00000000: 7ec7 17bd 2ed1 443c feeb b43d f363 7dbf
00000010: b8a2 ed3e 00a6 d9be 0b8a e03d 6cc3 363e
00000020: e4b5 56be 14ac c63d d14e bfbb 7740 093f
00000030: 2086 583e 8ba0 07be d993 20be cccc cdbd
00000040: 8953 2e3e f302 423c cf6e fdbc 94a2 6b3e
00000050: b569 373d 9d23 36bd cea3 9cbc 7e56 a3bd
00000060: bb0b 83bd 20e8 bcbd 7798 12bf 6028 a4be
00000070: fc5d 083f 837f 91be 912e 123e 0e83 89bc
00000080: 468c 36be 2560 debd fe6a 6a3c fe25 5a3e
00000090: 4264 6dbe 1e04 29be 5dfb 0dbc 44a1 983d
000000a0: e9cc 84bb 86a3 023e 1fcf 73be 81b6 c6bd
000000b0: 62e4 5f3d 06f3 32bf bf0a a83c 7315 51bf
000000c0: d262 b13c d7a5 76bc 28c2 29be 8891 b2bd
000000d0: 0d55 ffbe 797e 92bd c862 a43d 9ff3 fdbd
000000e0: 002d 76be 3b2b 053d 855b a6be 55e4 6c3e
000000f0: 261e 153e 6503 41bf 6326 193f 22af 42be
00000100: 0f4d eabe 3c0d aabd b79b 3e3e e217 3f3d
00000110: 82a4 003d f618 09bf 152b be3e ed91 ecbe
00000120: 1552 84bd 23f1 183e d0dc 31be b333 16bf
00000130: fb8b 283e f4eb e6be 43c1 d0be ae27 163e
00000140: fd45 54bd 2497 653e 1661 3d3a 7a0b 22be
00000150: 4733 ef3d e18d bc3d 6511 d43c 98e7 8dbd
00000160: 4228 793d 2d66 c3be 0d3b 7cbf 4aa3 87bd
00000170: 727f 84bf d7a5 c03d efe6 3dbe b082 72bd
00000180: 9667 fb3d fb6e 27bf e48c 0a3f 20c1 8b3e
00000190: 1891 ae3d bd3b a5bd 5340 8fbe ecba 653e
000001a0: 91a9 b4be 611a 76be 8d72 00be 89e8 30be
000001b0: 1fb1 973d 4cdf 5c3e dd76 94bd 2a94 84be
000001c0: 9533 163e 76b3 67be b9c4 61bf d430 bc3e
000001d0: b13f 1fbf 66d5 ff3d 291e 9a3e e0c7 bbbd
000001e0: 524c 8ebf f6c9 b7be aeab 8abf fc2e 3cbf
000001f0: 2eee ed3e 22f6 a5be 0ee5 8ebe f443 30bd
00000200: a9e5 adbd 1986 99bd e3e7 b6bd 0c90 f83d
00000210: 9cb1 63be 861f e4bd 52c0 49be 44f4 ef3d
00000220: 7832 23be 87d7 743e 7532 963e 594a feba
00000230: 2bcb 243e e1e3 90be 7f3c 5ebe ecb1 a5be
00000240: 6d73 23be 2550 123e 39a8 cfbd 137c f13d
00000250: 01b3 423e 4eb5 d23d 7d81 4cbe c48c 41bd
00000260: d24b 82be 91ff 0a3e a751 2dbe 1564 c83e
00000270: 5890 ad3d f91b 793d f37d 443e 293e 21bd
00000280: 3d52 e53e efd7 e1be db2d 0e3e 2ffb b53d
00000290: e16a f4bc f576 ab3d 87a4 11be 33a4 813d
000002a0: e03c ca3d ec15 cc3e fa63 093e 5d1d 04be
000002b0: 15a0 173e 80ae 673e 6121 8b3e 8e39 d2be
000002c0: 1d9b e83e 0608 54be e2b2 353d 8a81 553d
000002d0: 79d5 41bd 3195 3bbc 4cef 86bd 662f 1cbd
000002e0: a09e d33e 8980 98be 2a71 dbbe e05b 903e
000002f0: d53a d4be 785b 0cbe 6b4e 153d 61fe ad3c
00000300: 87a5 3abe a6ce 3abf 23e6 873e 0d01 12bf
00000310: 8798 333f fb2f 19bf b28c 4dbe f51d ee3d
00000320: c164 8abe 71b0 13be dec2 c2bc 4987 56be
00000330: 3065 babd 3b94 2cbd 8515 7b3b 92f0 98be
00000340: 45e2 a23d 96ac 5d3e 9dfe 9fbc 8529 46be
00000350: 6134 06be ce9e a4be ef1b 983d a10c 593e
00000360: 7686 97be ea70 db3b 36d5 b6bd 4eda 0dbe
00000370: 7c5a 013f 0140 3bbf 806c 04be 11c0 f5bc
00000380: b94f 18bd 8a19 83be d3a2 05bf f3ec 0abd
00000390: 03b3 27be f1fc 30bd 0604 de3d 108b 4ebe
000003a0: 2e54 173e b752 8fbe 22c8 403e 706f 26bf
000003b0: 9e2b b13e be8e 843e 2526 033e 3cc2 103f
000003c0: ba40 42bb 21f9 3a3d a58a 00bf 24af e23d
000003d0: 2b45 25be f51b f1bb 99b5 3bbe d41b babd
000003e0: eccb 8abe f5e5 a2be 8af8 bbbd f061 423d
000003f0: 46c9 febe e573 193e 67ac aebe bb0a 073d
-0.037055485 0.012012763 0.088340744 -0.98980635 0.46413207 -0.4250946 0.109638296 0.17847985
-0.20967823 0.0970079 -0.005838253 0.5361399 0.21144915 -0.13244836 -0.156814 -0.100488275
0.17024054 0.011841523 -0.030936627 0.23011237 0.044778544 -0.044467557 -0.019121077 -0.079754815
-0.06398722 -0.09223962 -0.5726389 -0.32062054 0.5326841 -0.28417596 0.14275576 -0.016786125
-0.17826948 -0.10858182 0.0143077355 0.21303555 -0.23182777 -0.16505477 -0.008665887 0.07452634
-0.0040527475 0.12757692 -0.23809479 -0.097027786 0.054661162 -0.69902074 0.020512937 -0.81673354
0.021653567 -0.015054188 -0.16577971 -0.08719164 -0.49869576 -0.07153029 0.080266535 -0.12399983
-0.24040604 0.03251193 -0.324917 0.23133977 0.14562282 -0.75395805 0.598242 -0.1901212
-0.45761916 -0.083033055 0.18614088 0.046653636 0.031406887 -0.5355371 0.37142244 -0.46205083
-0.064609684 0.14935736 -0.1736939 -0.58672637 0.16459648 -0.45101893 -0.40772447 0.14663574
-0.05182456 0.22420937 0.0007224245 -0.1582469 0.11679702 0.09206749 0.0258872 -0.069289386
0.06082941 -0.3816389 -0.98527604 -0.06622942 -1.0351393 0.094066314 -0.18545125 -0.059206665
0.12275617 -0.6540372 0.5412123 0.2729578 0.08523768 -0.08068035 -0.27978763 0.22434586
-0.3528562 -0.240335 -0.12543698 -0.17276205 0.0740683 0.21569556 -0.07249234 -0.2589429
0.14668114 -0.22627053 -0.881908 0.36756003 -0.6220656 0.124918744 0.30101135 -0.091689825
-1.1117041 -0.3589627 -1.0833642 -0.7350919 0.4647078 -0.32414347 -0.2790913 -0.043033555
-0.0849107 -0.0749628 -0.08930948 0.1213685 -0.22235721 -0.11138825 -0.1970227 0.11716512
-0.15937221 0.23910342 0.2933537 -0.001940082 0.16093127 -0.28298858 -0.21702765 -0.32362306
-0.15962 0.14288385 -0.10139508 0.117912434 0.19013597 0.102884874 -0.19971271 -0.047253385
-0.2544847 0.13574053 -0.16925679 0.39138857 0.08474797 0.060817692 0.19188671 -0.03936592
0.44789305 -0.44110057 0.1388468 0.088858 -0.02983612 0.08372299 -0.14222918 0.06330147
0.09874892 0.39860475 0.13417044 -0.12901826 0.1480716 0.2262516 0.27173904 -0.41059536
0.45430842 -0.20706186 0.04436005 0.05212549 -0.047322724 -0.011449144 -0.06588611 -0.03813114
0.4133196 -0.29785565 -0.42859775 0.28195095 -0.41451135 -0.13706768 0.03645174 0.021239461
-0.18227206 -0.7297157 0.26542768 -0.57032853 0.70154613 -0.5983884 -0.20073202 0.116268076
-0.27029994 -0.14422776 -0.02377456 -0.20950045 -0.09101331 -0.04213355 0.0038312387 -0.2987104
0.07953314 0.21647868 -0.019530589 -0.19351776 -0.13105918 -0.32152408 0.07427203 0.21196224
-0.29594773 0.00669681 -0.089273855 -0.13852808 0.50528693 -0.7314454 -0.12932014 -0.029998811
-0.037185404 -0.25605422 -0.52201575 -0.03391738 -0.16376881 -0.043209974 0.10840611 -0.20170236
0.14778206 -0.27992794 0.18826345 -0.6501379 0.3460359 0.25890154 0.1280752 0.5654638
-0.002964063 0.045647744 -0.50211555 0.11068562 -0.16139667 -0.007358069 -0.18330993 -0.09087339
-0.27108705 -0.31816068 -0.091782644 0.04745668 -0.49762934 0.14985617 -0.34115908 0.032969218

encoder.4.bias f4 [128]
00000000: 3774 8cbd bb10 1f3a 4a3d 87bd 2909 80bd
00000010: 8f49 423c 9979 6a3d bbda c33c 433c 08bc
00000020: f414 673d 767a e037 c5a7 ba3c 5bd8 483c
00000030: 8a91 6a3d 67f2 adbb 5a1d a13c 211f 6dbd
00000040: 14bc 37bd 7601 8e3d ab48 fdbb 723d 223d
00000050: 2aa4 513d ef32 e4bc 352b 88bd 8141 b5bc
00000060: eb1e 23bd c489 4e3b 767e 473d 87c7 613c
00000070: 43d4 4ebc 1374 613d 67db 703d 2213 303d
00000080: 238a 7c3d cf3f 57bd c5d5 043d b49f d33c
00000090: e175 89bc 2d05 68bd 94ca 7d3d 44d3 9dbd
000000a0: 6b7a 693d 5f65 803c 0d25 48bd 8699 d33c
000000b0: 7eac 4f3d 9853 96bd 87c1 5ebd add4 8d3d
000000c0: fdac a33d 4d03 b8bc 7575 af3d 44f4 e63c
000000d0: 85f5 37bc 1efe 8d3d de4f 0ebd 8b08 ab3b
000000e0: e19c 903d 399a 173d aaa9 f93c 280b 68bd
000000f0: 444c 5fbd 4224 1abd c3eb 133d 9ee3 4c3b
00000100: faec 853d 3751 b7bb 6a51 343d df66 bb3d
00000110: 8cd3 9fbd d840 1dbc 80f6 483d 94a0 7b3d
00000120: e167 e03a 6046 a63c 0e15 16bc c005 043c
00000130: 7781 d4ba 992b a73a 525b b0bc 9c83 83bd
00000140: 0c07 65bd d4a4 c5bc ba7d 8a3c 127b 23bd
00000150: a939 50bd b256 a1bb 8061 d0bc d12b 783d
00000160: 2a82 c6bc edb8 93ba c6d7 20bd 89d9 99bc
00000170: aa83 8b3d ea54 4d3c e2fe 42bd d73c 52bd
00000180: 398a eebb fee5 163d edff 4d3d b098 47bd
00000190: dd69 363a 758e 7c3d ae06 f6bb 7faf 5abd
000001a0: adef 243c 2ca7 64bd 6278 213b ea20 183c
000001b0: 4889 983c 2467 20bc e234 f6bb b738 47bd
000001c0: 668b 7e3d 5d6f 763d 346e 23bd 7d36 6d3c
000001d0: e9e2 84bd 0bf1 a2bd 2110 14bd 5d47 fd3c
000001e0: 787c 1abd e585 1cba 41f1 09bd cc79 1e3d
000001f0: dc05 a9bc 6408 17bd 06fe 2b3d 5ca2 6abd
-0.06858104 0.00060678617 -0.06603487 -0.06251747 0.011858358 0.05724487 0.02390801 -0.008315149
0.056416467 2.6759906e-05 0.022785077 0.012258614 0.057267703 -0.0053084376 0.019667316 -0.057891015
-0.0448571 0.069338724 -0.00772961 0.03960938 0.05118195 -0.027856318 -0.06648866 -0.022125961
-0.039824408 0.003151522 0.048704587 0.013780481 -0.012623849 0.055042338 0.05880299 0.042986996
0.061655175 -0.052551087 0.03243043 0.025832988 -0.016779842 -0.05664556 0.06196077 -0.07706311
0.057001512 0.015673338 -0.04886346 0.025830042 0.05070161 -0.07340163 -0.05438378 0.0692533
0.07991979 -0.022462511 0.08567325 0.028192647 -0.01122797 0.06933235 -0.034744136 0.0052195243
0.07061172 0.037012313 0.03047641 -0.056651264 -0.054516092 -0.037632234 0.03611351 0.00312636
0.0653934 -0.0055943984 0.044022955 0.091504805 -0.07804021 -0.0095979795 0.049063206 0.061432436
0.0017120802 0.02029723 -0.009160293 0.0080580115 -0.00162129 0.0012754082 -0.02152792 -0.06421587
-0.055914924 -0.024126448 0.016905654 -0.03991229 -0.05083624 -0.004923665 -0.025437117 0.06058866
-0.024231989 -0.0011270322 -0.039268278 -0.018780487 0.06812222 0.012532452 -0.047606356 -0.051327553
-0.007279661 0.03684043 0.050292898 -0.0487296 0.0006958524 0.061659295 -0.0075081205 -0.053390022
0.010066909 -0.05582349 0.0024638404 0.009285191 0.018620148 -0.009790216 -0.0075136283 -0.048638072
0.06214466 0.060164798 -0.03990002 0.014478323 -0.06488592 -0.079561315 -0.036148194 0.030917818
-0.03771636 -0.00059708796 -0.033677343 0.038690373 -0.020632677 -0.036873236 0.041990303 -0.057283744

encoder.5.weight f4 [128]
00000000: 5732 863f bc50 803f b0fb af3f 4d88 893f
00000010: 256a 573f 44d3 6a3f eb5d 2d3f ce2d 9d3f
00000020: 29ba 433f d718 6f3f a014 9d3f 010f 823f
00000030: dde8 403f 7a2d 9b3f 3079 963f ff2a 3f3f
00000040: b92f 5e3f 07b5 8f3f b387 403f 61d0 513f
00000050: 8a49 973f a3ec 7c3f a24c 2f3f d95e 723f
00000060: 26bd 943f 342f a93f fa62 763f af28 7f3f
00000070: 1829 6f3f 40b2 a83f e404 7d3f 9df0 573f
00000080: 44c8 ac3f 89f7 5d3f f347 603f 7bf5 993f
00000090: 5627 9a3f b939 823f 1657 c33f 3427 b03f
000000a0: 68a9 8f3f 7ad9 2e3f 94ea 4d3f 3ebc 143f
000000b0: 8fb6 863f 4df2 653f b603 483f 044a 2a3f
000000c0: 1231 b83f 15bf 9f3f 4a51 423f df98 9e3f
000000d0: ed34 7f3f 27eb 7e3f 7f81 a43f 246d 573f
000000e0: 545a 8f3f d0b4 6f3f 6e43 863f 08c8 853f
000000f0: dfee 2d3f 55f5 5b3f c6ab 813f 1c0b c63f
00000100: a313 753f 7928 723f 19a4 303f 059a 6f3f
00000110: 1ca8 b13f 18a5 823f aa2a 9a3f b2dd 683f
00000120: c060 423f a59e 993f 7855 4c3f 8232 3c3f
00000130: 0596 1f3f 1b93 643f 21bf e53e 4fcc 983f
00000140: c16e ac3f 768e a43f d62d 473f 50f6 963f
00000150: 4ac8 b43f 3050 b63f ff0a 463f 9a72 963f
00000160: 4866 a83f ce96 103f 9bbd 3a3f 5d84 613f
00000170: ea6d 533f 391f 323f b51f 5f3f 804c 873f
00000180: 1277 2e3f b1c7 d63f bfbc a33f 7233 813f
00000190: 5042 8c3f 0132 1b3f cce1 733f 3c1b c33f
000001a0: 9cfc 903f 73a9 3f3f e031 ca3f 7da9 8c3f
000001b0: 60a8 453f 72d0 8d3f 18c5 7e3f d962 3b3f
000001c0: ea7e a93f 9b1f 743f aa06 7a3f e0e5 a93f
000001d0: b362 963f 7b40 1d3f 5928 823f 0e85 6c3f
000001e0: 9c09 943f 7dac c83f 5709 2c3f c1da 8e3f
000001f0: 8289 a43f 1c48 733f 0e0b 873f 7676 aa3f
1.0484113 1.0024638 1.3748684 1.0744721 0.8414634 0.91728616 0.6772143 1.2279603
0.7645593 0.9339728 1.2271919 1.0160829 0.7535532 1.2123253 1.1755733 0.7467498
0.8679157 1.122712 0.7520706 0.81958586 1.1819317 0.9879858 0.6847631 0.94675976
1.1620224 1.321753 0.96244776 0.99671453 0.9342208 1.3179398 0.9883559 0.8435152
1.3498616 0.86705834 0.87609786 1.202804 1.2043254 1.0173866 1.5260952 1.3761964
1.1223574 0.6830059 0.8043606 0.58099735 1.0524462 0.89822847 0.7813066 0.6651919
1.4389975 1.2480189 0.7590529 1.2390403 0.99690133 0.99577564 1.2852019 0.8415091
1.1199441 0.9363527 1.0489328 1.045167 0.67942613 0.8592122 1.0130546 1.547214
0.9573309 0.94593006 0.69000393 0.9359439 1.3879428 1.0206633 1.204427 0.9096328
0.7592888 1.200154 0.79817915 0.7351457 0.62338287 0.89286965 0.44872382 1.193735
1.34713 1.2855976 0.77804315 1.1793919 1.4123623 1.4243221 0.7736053 1.1753724
1.3156214 0.5648011 0.72945565 0.88092595 0.8258959 0.6957889 0.87157756 1.0570221
0.68150437 1.6779691 1.2791976 1.0093825 1.0957737 0.60623175 0.95266414 1.5242686
1.132709 0.74867934 1.5796471 1.0989224 0.77210045 1.1079237 0.9951949 0.73197705
1.3241856 0.95360726 0.9766642 1.3273277 1.1748871 0.61426514 1.0168563 0.92390525
1.1565433 1.5677639 0.6720175 1.1160508 1.2854464 0.95031905 1.0550249 1.3317401

encoder.5.bias f4 [128]
00000000: 0fe1 bd3d 49c9 8fbe e53c ea3d 87ac 8dbe
00000010: ce4d bbbe 70db 83be e8df 0abf bbd5 7cbe
00000020: e6cf 4bbe 6cbe 35be 9511 c8bd 61c3 35bf
00000030: 521a 74be 538c 8ebe d2be 26bb e391 14be
00000040: 8f68 87be 5a13 15bf 0ca9 07bf ac28 a3be
00000050: bf64 0dbf 8edb e1be 3431 89be 3791 b6bd
00000060: ea5f f43d 31e5 f5bd c49e 90be bc86 b7be
00000070: 9f04 04be e393 b8be 075a 48be f873 f8bd
00000080: 177f 7fbe dff4 15be 9b94 0fbe 6d7f c1be
00000090: e008 b03e 7fd1 18bf 4ed1 57be 15c2 dcbd
000000a0: 90cc 4ebe 9a43 3bbe 7e50 b4be 33b3 e8bd
000000b0: e1ad 833c a658 6a3e 2292 9fbe c6a1 ccbe
000000c0: 571e 69be 100e 41bd e180 c63c 4eab 10be
000000d0: b121 83be f7e2 b0be b54c e7be 1062 1bbf
000000e0: 237a 71ba 38f3 04bf 3806 e9be e72a cabe
000000f0: b21b 2abe 5445 3cbe f0bf e2be e077 81be
00000100: c334 8ebe 65c0 e3be 53b6 f5be fc73 b8be
00000110: d1c8 98bd 7ef1 85be d55f 023e d06f 92be
00000120: 33a8 61be 9797 1cbe d619 e8bd a585 66be
00000130: 6ba9 bfbe f8f6 01be 4575 37be 58f1 b4be
00000140: 6e2a e8bd 57dd a0be ae01 99bd 3840 bebd
00000150: d1cb bbbb 1106 98be 30f2 23be b5a2 8fbd
00000160: 2475 a5be 76da 5abe 4c83 94be cec8 96be
00000170: 721b 04bf ff1c d8be 36d8 08bf d255 98be
00000180: 05ec 8dbe 7b52 cdbe d36b 53be 7838 f9be
00000190: 30a5 6ebd c54b 96be 75b9 00bf ca32 a4be
000001a0: 7a6c e6be 7bca 42be 8619 05bc 87f1 93be
000001b0: 6efa f3be fb25 61bd c0d6 fcbe acb5 a1be
000001c0: 7e16 eebd af3f a6bd ef03 8abd f266 75be
000001d0: eb90 413c 713e bcbe ac4a 64bd 73ae 06bf
000001e0: ae18 0bbf 1bb9 ac3e 394c c9be 2546 15be
000001f0: 94ce 4bbc 0fa3 d4be 4d72 ecbd 4476 cabe
0.09271442 -0.28083256 0.11437396 -0.2767069 -0.36582798 -0.25753355 -0.54247904 -0.24690907
-0.19903526 -0.17748421 -0.097689785 -0.7100125 -0.23838165 -0.27841434 -0.0025443328 -0.14508776
-0.2644696 -0.58232653 -0.5299232 -0.31866968 -0.5523185 -0.4411282 -0.26795352 -0.08914416
0.11932357 -0.120066054 -0.2824613 -0.35844982 -0.12892388 -0.3605033 -0.19565593 -0.12131494
-0.24950825 -0.14644192 -0.14021532 -0.3779253 0.3438177 -0.59694666 -0.21075937 -0.10779206
-0.20195222 -0.18287507 -0.3521766 -0.113623045 0.016074123 0.22885379 -0.31166178 -0.39967173
-0.2276548 -0.04713255 0.024231376 -0.14127848 -0.25611642 -0.3454816 -0.4517571 -0.60696507
-0.000921162 -0.5193362 -0.45512557 -0.39485857 -0.16612127 -0.18385822 -0.44287062 -0.2528677
-0.2777463 -0.44482723 -0.47990665 -0.3602599 -0.07460178 -0.26160806 0.1273187 -0.2860093
-0.22036819 -0.15292202 -0.11333053 -0.22511919 -0.37433943 -0.12691867 -0.17915829 -0.3534038
-0.11336218 -0.3141887 -0.074710235 -0.092895925 -0.005731084 -0.29692128 -0.16010356 -0.07013456
-0.32315934 -0.21372399 -0.29006422 -0.29450077 -0.5160438 -0.42209622 -0.5345491 -0.29752976
-0.2771913 -0.4010199 -0.206466 -0.48675895 -0.058263004 -0.29354683 -0.50282985 -0.3207
-0.45004636 -0.19022553 -0.008123761 -0.28895208 -0.47652 -0.05496786 -0.4938259 -0.31583917
-0.11625384 -0.081176154 -0.067390315 -0.23965052 0.011814336 -0.3676639 -0.055735275 -0.5260994
-0.54334533 0.33734974 -0.39315966 -0.1457754 -0.012439389 -0.41530654 -0.11545239 -0.39543355

encoder.5.running_mean f4 [128]
00000000: 5d44 b4c0 635a cec0 c67e 2ac1 43f7 22c1
00000010: 3174 abc0 0084 e6c0 ca5e d5c0 be39 b9c0
00000020: 3020 2ec1 6d9f 3ec1 840e e2c0 f7f4 1fc1
00000030: 2844 b7c0 6285 09c1 eb34 81c0 69b3 51c1
00000040: 2dc5 40c0 1fd8 9dc0 f09c 15c1 5dfe 8bc0
00000050: 30f5 64c1 60a6 dcc0 db0d 35c1 6f1d b0c0
00000060: 7368 e9c0 a666 0cc1 1243 9fc0 a113 b4c0
00000070: 329a 07c1 08f3 f0c0 4e70 85c0 4b4a f0c0
00000080: 64e4 8cc0 3abc e4c0 9e6f a0c0 158d 1fc1
00000090: 3a2a bdc0 f1ab 5dc1 af5e 3ec1 05a0 0dc0
000000a0: a4b4 c5c0 145b 33c0 4947 2bc1 e921 f6c0
000000b0: e249 bac0 2e10 83c0 fc33 37c1 f2b6 20c1
000000c0: b7e7 04c1 2266 ccc0 9a4b d2c0 3448 89c0
000000d0: d254 29c0 307c 03c1 a1f6 2cc0 e603 46c1
000000e0: 42d9 13c1 7b42 50c1 4864 05c1 e7f8 42c1
000000f0: 1705 30c1 297f 41c0 50fb 35c1 e8f3 d5c0
00000100: d613 f0c0 85e3 68c1 e52c c9bf 4505 fcc0
00000110: c40c 6cc0 5f5c cdc0 383d 9ac0 8fbb c4c0
00000120: 6cd2 1bc1 225e 40c1 dbdc 34c1 a9aa 0cc1
00000130: 3000 adc0 8414 5cc0 8e9e 0ac1 e2e8 25c1
00000140: 004a 0cc1 6606 b7c0 cb34 2fc0 3f5d eac0
00000150: 9636 b4c0 cbab 4fc1 9456 07c1 b939 cfc0
00000160: 1d78 ccc0 b624 67c0 8771 a9c0 4e52 34c1
00000170: d881 39c1 e2a5 c2c0 4c27 6fc1 e4ba 98bf
00000180: ef67 45c1 8ab0 f7c0 69c8 c4c0 872c c9c0
00000190: 442c 15c1 31cc 6ec0 ce83 42c1 3817 18c1
000001a0: 1157 e4c0 e46a d1bf 1bc4 bdc0 7e58 fac0
000001b0: 41d4 1fc1 65bf 43c1 8592 48c1 0898 25c1
000001c0: 2657 14c1 de5a 93c0 3c34 0cc1 0560 a1c0
000001d0: fa79 a8c0 1f26 5ec0 9571 f1c0 a6c5 2cc1
000001e0: a06e 7cc1 1d7c 03c1 b465 3ec1 e47b 27c1
000001f0: 3b5f 92c0 05ec c2c0 012e 8ac0 eb25 a9c0
-5.633345 -6.4485335 -10.655951 -10.185367 -5.3579335 -7.2036133 -6.667821 -5.7882986
-10.882858 -11.913922 -7.064272 -9.997306 -5.72707 -8.595064 -4.0377097 -13.106301
-3.0120347 -4.932632 -9.350815 -4.3748 -14.30986 -6.8953094 -11.315883 -5.503593
-7.294 -8.775061 -4.9769373 -5.627396 -8.475145 -7.529667 -4.169959 -7.509069
-4.4028797 -7.147977 -5.013625 -9.971944 -5.9114046 -13.854478 -11.898116 -2.2128918
-6.178301 -2.802434 -10.704904 -7.6916394 -5.821519 -4.095725 -11.4501915 -10.044664
-8.306571 -6.3874674 -6.5717287 -4.290064 -2.645802 -8.217819 -2.702553 -12.375952
-9.240541 -13.016231 -8.336983 -12.185767 -11.001243 -3.0233862 -11.373856 -6.6860237
-7.5024214 -14.555547 -1.5716826 -7.8756433 -3.6882792 -6.417526 -4.819973 -6.1478953
-9.738873 -12.022982 -11.30392 -8.791665 -5.406273 -3.4387522 -8.66371 -10.369356
-8.768066 -5.719531 -2.7375972 -7.3238826 -5.6316633 -12.979442 -8.458637 -6.475796
-6.3896623 -3.6116157 -5.2951083 -11.270094 -11.5942 -6.0827494 -14.947094 -1.1932034
-12.337874 -7.7403 -6.149464 -6.2866855 -9.323307 -3.7312129 -12.157179 -9.505669
-7.135628 -1.6360745 -5.9301887 -7.8233023 -9.98932 -12.234227 -12.535771 -10.349617
-9.271276 -4.604842 -8.762753 -5.042971 -5.2648897 -3.4710767 -7.545115 -10.798254
-15.777008 -8.217801 -11.89983 -10.467747 -4.574125 -6.091311 -4.3181157 -5.2858787

encoder.5.running_var f4 [128]
00000000: 1730 9f42 d4ec 0642 e6b0 ae42 485a 7242
00000010: b899 1942 5fb0 4c42 d1eb 8642 f2d0 2c42
00000020: 05cf 9642 9d33 a842 18e2 3742 f168 4042
00000030: e073 1242 e36b 7542 0892 2a42 8982 c242
00000040: bf09 f741 a5d7 f041 bfcc 8a42 a2aa 5542
00000050: b9ef 2142 3d28 9d41 87cd b442 6517 1742
00000060: 7c33 4e42 756f 6942 e271 c541 2ced 0c42
00000070: 138b 4842 8745 1f42 941f 5042 60fb 9842
00000080: 0f53 ef41 4966 4c42 975b a941 2c39 9542
00000090: 4bf5 8142 b472 8a42 aab7 a242 1bd4 e841
000000a0: 901e e341 1cae 1142 a2d2 a442 3bb1 9c42
000000b0: dec6 8742 e3d9 8d42 54dd 9842 5f57 8a42
000000c0: 2061 4f42 5a69 1342 9813 3842 a811 1c42
000000d0: 24b5 0542 edf3 2942 75ab 9e41 b8d0 4942
000000e0: d14d 8a42 bb5d a242 a8a8 3e42 6622 ae42
000000f0: 8d8f 8542 7a6f f941 2d74 7242 dc2c c741
00000100: 3518 3d42 8497 be42 a03b 0c42 e48f 5a42
00000110: 6b09 c341 26bc 8342 d76b 2942 5ebb 2742
00000120: 0153 9542 3574 bb42 28b8 0443 9b01 4242
00000130: d3b8 5d42 03b1 d342 bdfb 6942 6a86 5742
00000140: b9cb 9642 c59d 1d42 764a 4542 5548 6c42
00000150: 5044 3142 8bd3 8842 a65d e841 ceeb 0442
00000160: 804b 2c42 357e 6842 83d3 5742 651a 8242
00000170: 46d4 8642 42fe c341 5727 3142 257c cd41
00000180: 4378 2842 2af9 d441 4b98 1842 f49f 8242
00000190: edfa 7342 d2d8 4442 ad1a 9c42 1134 6942
000001a0: d4d2 3a42 54ec 0142 7006 9a42 11ee 3642
000001b0: 44a7 9c42 3fe4 da42 4e01 8b42 3515 9042
000001c0: 5258 9e42 e22c 8342 11e5 b042 193a e841
000001d0: 9a75 3e42 ae4e e541 3376 4e42 97b8 6442
000001e0: 5670 4542 f569 7542 113a 3542 23e3 9042
000001f0: c6f0 3942 1a50 ef41 621b 3242 54ed 1b42
79.593925 33.731277 87.345505 60.588165 38.400116 51.172237 67.46058 43.20405
75.404335 84.10081 45.970795 48.10248 36.61316 61.35536 42.64261 97.25495
30.879759 30.105295 69.399895 53.416634 40.484104 19.644648 90.40142 37.772846
51.550278 58.358845 24.680607 35.231613 50.135815 39.817898 52.030838 76.49097
29.915556 51.099888 21.169722 74.611664 64.97909 69.22403 81.35872 29.103567
28.389923 36.42003 82.41139 78.34615 67.88841 70.92556 76.43228 69.17065
51.84485 36.852882 46.019135 39.017242 33.426895 42.48821 19.83372 50.453827
69.151985 81.18307 47.664703 87.067184 66.78037 31.179432 60.613453 24.896904
47.27364 95.29593 35.058228 54.64052 24.379599 65.86748 42.355312 41.932976
74.66212 93.72697 132.71936 48.501568 55.430492 105.845726 58.49584 53.881264
75.397896 39.40407 49.322716 59.070637 44.31671 68.41317 29.045727 33.230278
43.07373 58.12325 53.956554 65.05155 67.4146 24.49915 44.288418 25.685617
42.117443 26.621662 38.148724 65.31241 60.995045 49.21174 78.0521 58.300846
46.705887 32.48079 77.01257 45.732487 78.32669 109.44579 69.50255 72.04142
79.1725 65.58766 88.447395 29.028368 47.614845 28.663418 51.61543 57.180264
49.359703 61.353474 45.306705 72.44363 46.48513 29.914112 44.52674 38.981766

encoder.8.weight f4 [256, 128, 3]
00000000: 0e1a d1be 0c1a 2e3e f24f 813d a712 b9be
00000010: c361 7e3e ad55 113e 1a1d 843e adee 9d3d
00000020: 2508 003d 0561 203c 541c 75be cc4c 5b3e
00000030: b0cc db3d e525 493e 89df f9bd db05 883d
00000040: b30e c23e 61a3 bf3e 5738 a73e 1282 f8be
00000050: d79d 2fbb 72f2 263e bb91 8b3d 679a 4fbe
00000060: 133d 7cbe f9b7 883d d642 da3e 97b0 843e
00000070: 4b16 da3c 29ff ea3d f66f a8be dfc1 963d
00000080: 870d 87be bb6f dbbe d26e f33e 1e34 d1bd
00000090: a005 9b3c f558 4d3c cafc 123e 8428 88be
000000a0: 5ed3 adbc 656f f33e dfd3 d63e 95d9 dd3e
000000b0: 28d4 2a3e 021d 2e3e 6a02 46be 65f9 d1bd
000000c0: 5579 753e 675c 7a3e 8c0b bcbd 2d20 93be
000000d0: 32f1 dc3d 3611 b13e e1d1 adbe 4318 ad3d
000000e0: 67eb 243e 5bed 05be ef8e 433f 5f37 25bf
000000f0: a8f6 c8be 7b8a d53d a0b9 85bc 357c bc3d
00000100: df8a b0be 711a 013f 53fb 8ebc b8b9 c0be
00000110: 934c 0d3d 1175 8dbd df68 0f3e ff79 d8be
00000120: 9886 0a3e 4941 af3d 34a7 1a3e 6fe1 e63c
00000130: 4969 6fbf 90bc c53c 1189 213e 4be9 203e
00000140: fdf6 b43e 46d2 34bf 4345 313e 49bf acbd
00000150: 3b2e 4abd 751e ca3e c65c c4bd dd73 103e
00000160: 6d46 1d3f 8cdb febc b6d9 fb3d 2c6c f53d
00000170: 22c1 3d3e a09f 4fbe be71 2ebe 3fa1 d73d
00000180: 254c 86bd 044a 9e3e 1472 53bd 096a 853d
00000190: ccc7 58be 0bb7 493f e507 10be 374a 92be
000001a0: a3e6 ac3c dfbf 04be 038f f6be 52bb 563e
000001b0: 8c39 653a 611c 90bd 1599 a0bd 6719 b5be
000001c0: 2e55 013e 3ba7 bf3d 5cb5 edbe 87b3 33be
000001d0: 6694 943e 3246 b13c b1cc 573f 0f80 febd
000001e0: e37e e3bd 6db1 e8bd f47c c23c 86e9 3a3d
000001f0: af5e 4c3c 2deb 733e a11d d7bd d44f 233e
00000200: d461 be3d 2bc7 8ebe 8172 9ebe d842 4e3e
00000210: 8fa1 1cbe fa09 d2be 2354 edbd f640 2ebd
00000220: d4de d4bd 4a47 833e 133f b7be 4b9b 16be
00000230: 5426 fdbd b4ea 16be a415 5cbc bf75 783e
00000240: 75da 403e dddb 333c f848 e4be b6b8 bdbc
00000250: fd76 d7be a7cf 2f3f c9cc a7be 3a24 213e
00000260: b098 e33d 70ef c5be 59cc 22be 6df2 b33e
00000270: ec6d 933c 686f 7d3e b0f6 9f3e ec3d 12be
00000280: c5c2 71bc 6983 a6be c600 eb3d 3734 453e
00000290: 3bbe ef3d aed5 6abe cad4 933e 394a 61bd
000002a0: e3f9 1ebd d439 52be e72b df3e 2413 37bf
000002b0: b0eb 7cbd ea8c fb3d ec03 49be d256 323f
000002c0: bd59 41be 0bfd acbe d9ab 98bd afd4 333c
000002d0: cd55 dbbd 6ef2 c0be 89a6 873e 7508 a5bd
000002e0: 3660 943e 242d 253d 1d3b c5bd fce2 7c3d
000002f0: 5729 84be 172e 64be 7750 3c3f 6a86 0abf
00000300: b092 08be 77e9 453e 72e1 c7be 66d8 bdbe
00000310: ba35 a53d 0b28 8cbc 3aed 02be 5ec3 f53e
00000320: 6882 57bf 9366 aabe 52f2 97be f695 7a3e
00000330: 29aa a63d bb8f c7be 472f 93be 1ac1 bcbd
00000340: 7fdd 66be cfc2 d33e 482d 81be 33f2 7c3e
00000350: 6d2e 4d3e e208 15be ed7d 543f a106 cbbe
00000360: cc72 153e 85b7 09bf 5bc0 793e 5d36 de3c
00000370: a7fd f5be a7cc cd3e fabf 0c3e 1e73 bebc
00000380: 8692 923d 7fc4 223b 8b75 c5be 9318 cc3e
00000390: 3c10 823e 6dab 5a3e d962 b73d fc13 8cbe
000003a0: be28 f6bc 57cb 2c3c ccf0 b5be 6dda dcbe
000003b0: d584 0dbe d2f5 7cbe fbb2 45bd 5d1c 9a3e
000003c0: 32a1 c0be 685e c3be e87d 9c3e 2dd2 68be
000003d0: 46fb 90bd 77d5 04bd d105 b8be d70d 033f
000003e0: a2b7 1a3c 60e7 193e 4fd0 4cbe e341 a6be
000003f0: f4a0 4d3c 798b b43e 0324 34bd 0232 85be
-0.4084019 0.17002124 0.063140765 -0.36147043 0.2484198 0.14192839 0.25803453 0.077115394
0.031257767 0.009788756 -0.23936588 0.21416014 0.107324004 0.19643362 -0.12200839 0.06641742
0.3790184 0.37429336 0.3266017 -0.48536736 -0.002679696 0.16303423 0.06814905 -0.20273744
-0.24632673 0.06675715 0.42629117 0.25915977 0.026621958 0.11474449 -0.3289792 0.07361197
-0.26377508 -0.4285868 0.47545487 -0.10215019 0.01892358 0.012533416 0.14354244 -0.2659341
-0.021218952 0.47545925 0.4195852 0.43330064 0.16682494 0.17003253 -0.19336858 -0.10252646
0.23972066 0.24449311 -0.0918189 -0.28735486 0.10788192 0.34583443 -0.33949187 0.08451893
0.16105424 -0.13078825 0.76389974 -0.64537615 -0.39250684 0.10426804 -0.016323864 0.09203378
-0.3448095 0.5043097 -0.017453825 -0.37641692 0.034496855 -0.06907094 0.14004849 -0.42280576
0.13527906 0.08557374 0.15102845 0.028183667 -0.9352003 0.024137765 0.15774943 0.15713994
0.35344687 -0.7063335 0.17311577 -0.08434922 -0.049360495 0.39476362 -0.09588008 0.14106698
0.61435586 -0.031110547 0.122973844 0.11983523 0.18530706 -0.20275736 -0.17035577 0.10528802
-0.06557492 0.30915844 -0.051622465 0.06514365 -0.21169966 0.78794926 -0.14065512 -0.28572246
0.02110607 -0.12963818 -0.48155984 0.20969895 0.0008744232 -0.07036663 -0.07841698 -0.35370943
0.1263015 0.093580686 -0.4642743 -0.17548953 0.2901947 0.021639917 0.8429671 -0.12426769
-0.11108186 -0.11361966 0.023741223 0.04563286 0.012473746 0.23820181 -0.10503698 0.15948421
0.09296003 -0.27886328 -0.30946735 0.20142686 -0.15296005 -0.41023237 -0.115883134 -0.04254242
-0.103940636 0.25640327 -0.3579031 -0.14707677 -0.12360826 -0.1473797 -0.013432894 0.24263667
0.18833335 0.010977712 -0.4458692 -0.023159366 -0.42082968 0.6867623 -0.32773426 0.15736476
0.11113107 -0.3865924 -0.15898265 0.35145894 0.01799675 0.2474953 0.31242895 -0.14281434
-0.014755909 -0.32522133 0.11474757 0.192582 0.117062055 -0.22933075 0.28873283 -0.055002425
-0.03881253 -0.20529872 0.43588182 -0.7151358 -0.061748207 0.122827366 -0.19630402 0.6966373
-0.18881889 -0.33786806 -0.07454652 0.010976001 -0.107097246 -0.3768496 0.26494244 -0.08058254
0.28979653 0.040326253 -0.096304156 0.061739907 -0.2581279 -0.22283207 0.7356028 -0.5411135
-0.13337207 0.19327341 -0.3903919 -0.3707916 0.08066888 -0.017108938 -0.12785807 0.48000616
-0.8418336 -0.33281383 -0.29677063 0.24471268 0.08137924 -0.38976845 -0.28747007 -0.09216519
-0.22545432 0.41359565 -0.2522986 0.24701767 0.20037241 -0.1455417 0.8300465 -0.39653495
0.14594573 -0.53795654 0.24389784 0.027125532 -0.48045084 0.401952 0.13745108 -0.023248252
0.071568534 0.002483636 -0.3856624 0.398625 0.2540301 0.21354456 0.089544006 -0.27358997
-0.030048724 0.010546527 -0.35535276 -0.43135396 -0.13820203 -0.24703148 -0.048266392 0.30099764
-0.37622982 -0.38157964 0.3056481 -0.22736426 -0.070791766 -0.03243014 -0.35941938 0.5119299
0.009443196 0.15029669 -0.20001338 -0.32472143 0.012550581 0.3526266 -0.043979656 -0.26014715

encoder.8.bias f4 [256]
00000000: 7180 1d3c eafc 33bd 45dd 623d b97e 66ba
00000010: ce59 453d bfb8 9cbc e908 08bd e82e 5ebc
00000020: 981f 4e3d 4a20 12bc b1dc 1dbc 7382 ef3b
00000030: 4e24 dc3c 2f14 2f3d 7241 3bbb a793 9dbc
00000040: a3d1 01bd 3513 f53c ef81 703c bfa7 03bd
00000050: 1f95 f43c f468 3bbd 7820 b43c 1434 a1bc
00000060: ec53 043c 55f0 40bd 170d 233b 2c95 433d
00000070: a9f8 c03c 0231 063c bdb4 99bc 07e8 01bd
00000080: 6711 c1bc a97a f7bc ef07 183d 4daf ae3b
00000090: 9b85 16bb d33c 1bbd 5f1e 1d3d 68f1 353d
000000a0: 1707 4ebc d808 3f3d d3e0 d2bb b659 333d
000000b0: d43c 433c 393b 2a3d a187 bfbc 0cf1 e2bc
000000c0: fd44 833c bbd7 10bd d220 d0bc 9f0b ff3c
000000d0: cc63 0abd b1fb 2bbd 7d82 393d 0827 823c
000000e0: f23b 2dbc 3460 eb3c eff5 273d d859 ee3c
000000f0: 0933 31ba 9649 833d 9706 9f3c 07f5 e8bc
00000100: 4594 21bd 71f0 1a3d 3203 35bc 8241 ff3c
00000110: 18ea 04bd 1a97 79bc 81ab 613d ad76 9cbc
00000120: f67e 323d 4a1c 1bbd 4084 633d 8a8d ee3a
00000130: a2ad 3e3c 6c0d 4fbb e953 473d b7c6 083d
00000140: c1b2 1a3d aac7 cfbc c45e 533d d52a 34bd
00000150: 0a19 a23c 9f89 74bc 73c0 143d 25dd 2b3d
00000160: 74dc 7fbc b191 0e3c f3b9 983c 1b4c e6bc
00000170: 9d45 423d 77e5 bbbc 9712 cfbc 17b1 3a3d
00000180: 1e9b 3fba af15 79bc 8f74 23bc 3098 0f3d
00000190: a42d 7ebc 8c49 113c 10ef 6cbb 6a5c 4dbd
000001a0: 92f8 f1bb 2afc 1a3d 26f6 88bc afea cfbc
000001b0: 293e 5d3d ea9a 18bb a11e 2cbc 15a4 01bd
000001c0: 9880 d43c 6a87 17bc 30cd c4bc af96 2cbd
000001d0: c502 b93c c324 453d 3d9c e33b 51e1 10bc
000001e0: c715 98bc 3287 b1bb 6086 603b a184 be3c
000001f0: 8a99 7039 be89 493d 1a3d b43b 374a 203d
00000200: 8552 49bd 1edb 0bbc 1656 443d a45c 27bd
00000210: 23c4 8c3c 54b8 e23c 20a1 24bd ce1a 133c
00000220: 2216 173d 39b5 5c3c 3088 3c3d 3039 593d
00000230: 65ba 713b bb5b 393d 44a0 143c a26e a23b
00000240: 9163 673c bd19 2dbd f79b c33b bd70 e7ba
00000250: 9195 38bd 4e62 163d bfc8 62bc 4e2e 5fbc
00000260: 7dd5 233c a874 efbc a8a8 e0bc f2b9 18bd
00000270: 1828 b3bc 2cdb febc 4dee 07bb 76af afbc
00000280: a06e be3c 1669 54bd 2953 ea3c b43d 473d
00000290: eaa1 1dbd ba11 413d be99 943c 14a3 0b3d
000002a0: 3c67 6e3b 8697 3f3d f814 dabb 6666 4f3d
000002b0: c4f4 06bd 8296 c63c 0fb9 21bd b7b0 e63a
000002c0: 7017 0d3d 9d0a 753c 1ee2 3e3d 7254 89bc
000002d0: ea94 81bc bee9 febb 216d fd3c 47f5 5f3c
000002e0: 15c2 073c 97ac 0c3d 309b 1f3d 6090 453d
000002f0: ba3e 19bd f1e7 1bbd 0d85 76bc e691 36bc
00000300: 93c0 e0bc 58b9 09bd 0803 0c3d 49e3 1a3d
00000310: f728 063d 58bb ff3c 9b9f 4539 60f5 04bc
00000320: 809b e1ba a0b1 133d 0f54 27bc b028 283d
00000330: 221f 40bd 7dc7 f33c 09d2 d93c 7a0a ec3c
00000340: 8446 87bb c044 31bc 0889 163d 989c 1e3c
00000350: 2203 2bbd e432 c13b e49c 3bbd 4a66 263d
00000360: f026 cdbc 76a4 a7bb a8db 5c3d ec10 fdbc
00000370: 7f51 25bd 6134 b4bc 61f9 a0bc 15d1 0c3d
00000380: 1f73 1a3d ec78 e4bc ac6b 89bb b62e 21bd
00000390: d937 013d 0626 35bc 4b86 a8bc f49d 27bd
000003a0: fee4 bf3c 7e40 ff3c 401d 173d 2923 d9bb
000003b0: 8ea4 efbc 5c37 003d 78b8 133d e41a bbbc
000003c0: 4611 383d 20b9 01bd 000d 263d 654b 77bb
000003d0: 1b1b 203d 032d c7bc e808 3b3d 49d5 bd3c
000003e0: d426 593d 84f8 2c3d 9bba 45bd df1e 963c
000003f0: 79a6 33bc 229b 77bc e269 263d e1ec 91bc
0.009613142 -0.04394237 0.0553868 -0.0008792687 0.048181348 -0.019131063 -0.033211622 -0.013560988
0.0503231 -0.008918831 -0.009635136 0.007309252 0.02687278 0.042743858 -0.0028572944 -0.019235445
-0.031694066 0.029916385 0.014679416 -0.032142397 0.029856263 -0.045754388 0.021988139 -0.019678153
0.008076649 -0.0471042 0.0024879628 0.047749683 0.02355607 0.008190395 -0.01876294 -0.03171542
-0.023567868 -0.030209856 0.03711694 0.005330956 -0.0022967819 -0.037899803 0.038359042 0.044419676
-0.012574933 0.046639293 -0.0064354925 0.043786727 0.011916358 0.041560385 -0.023380103 -0.02770283
0.016024107 -0.035361987 -0.025406275 0.031133471 -0.03378658 -0.04198808 0.04529046 0.015887752
-0.010573374 0.028732397 0.041006025 0.029095575 -0.0006759619 0.0641052 0.019412322 -0.02843715
-0.03944804 0.03782696 -0.011048125 0.031159166 -0.03244981 -0.015233779 0.0550952 -0.019099558
0.04357811 -0.037868775 0.055546045 0.0018200141 0.011638077 -0.0031593693 0.048664007 0.033392634
0.03776813 -0.025363762 0.051604047 -0.04398616 0.01978733 -0.01492539 0.036316346 0.041958947
-0.015616525 0.008701728 0.018643355 -0.028112462 0.04742967 -0.022936566 -0.025277419 0.045579042
-0.0007309186 -0.015202924 -0.00997652 0.035057247 -0.015513811 0.008867633 -0.0036153235 -0.05013696
-0.007384368 0.03783814 -0.016718935 -0.02538046 0.05401436 -0.0023285695 -0.010505349 -0.03165062
0.025940225 -0.009248594 -0.024023622 -0.04213589 0.022584328 0.04813076 0.0069461153 -0.008842782
-0.018565072 -0.005417728 0.0034259781 0.023256602 0.00022945381 0.049203627 0.005500448 0.039133277
-0.049150962 -0.008536128 0.04793366 -0.040859833 0.017183369 0.027675785 -0.040192723 0.008978559
0.036886342 0.013470941 0.046028316 0.053033054 0.0036884781 0.045253497 0.009071413 0.004957036
0.01412286 -0.042260874 0.00596952 -0.00176575 -0.045064513 0.036714844 -0.013841807 -0.01362188
0.00999963 -0.02923043 -0.027424172 -0.037286706 -0.021869704 -0.031110369 -0.0020741404 -0.021445971
0.02324611 -0.05185803 0.028604107 0.04864283 -0.03848449 0.047136046 0.018139716 0.03409107
0.003637745 0.046775363 -0.0066553317 0.050634764 -0.03294827 0.02424169 -0.039483126 0.0017600273
0.03444618 0.014956144 0.04660236 -0.0167639 -0.015818078 -0.007779329 0.030935826 0.0136693185
0.008286019 0.034344282 0.038966358 0.04823339 -0.037413336 -0.038062993 -0.01504637 -0.011143183
-0.027435577 -0.033624023 0.03418258 0.037814412 0.03275391 0.031217262 0.00018846842 -0.008115143
-0.001721248 0.03605807 -0.010212912 0.041054428 -0.04690469 0.02975821 0.02658941 0.02881359
-0.004128279 -0.010819614 0.036751777 0.00968089 -0.041751035 0.005895959 -0.04580392 0.040624894
-0.02504298 -0.005116041 0.053920418 -0.030891858 -0.040360924 -0.021997632 -0.019650163 0.034379084
0.037707444 -0.027889691 -0.0041937437 -0.039351188 0.0315474 -0.011056429 -0.020571848 -0.04092212
0.023424622 0.031158682 0.03689313 -0.006626506 -0.02925327 0.031302795 0.036064595 -0.02283997
0.04493835 -0.03167069 0.04053974 -0.0037734148 0.03908835 -0.024313455 0.04566279 0.023172991
0.053015545 0.04222919 -0.048273664 0.018325267 -0.010964983 -0.01511267 0.04062832 -0.017813148
