discriminator_epoch50.pth (torch, 507936 bytes, 15 tensors)

features.0.weight f4 [64, 2, 3]
00000000: 0ee1 02be 985d 42be 48a4 183d f8c5 30be
00000010: 50dd c5bd 782f 52be c10d 03bf f2de b9bd
00000020: 0ba4 a63d 6322 2cbe 931d b83d 19c2 cb3d
00000030: 8d85 a5bd 6a53 f5bd 5a44 103e f473 35bc
00000040: 74f9 4ebe 33fa 42be c3e9 c23d df9a d5be
00000050: 0be6 fe3d 5e2b 90bd 918c de3b a5e7 cfbd
00000060: 6451 583e c874 5abd 22b8 9c3e 16f2 3a3e
00000070: cb96 44be 25c8 6cbd a045 203e 6c8f 863e
00000080: d141 133e 5999 8c3d f0a5 dc3c e7d6 9fbd
00000090: b0cf 99be dc0a 2d3e 0c40 b8be fa34 793e
000000a0: 1fa1 84bc c2b6 6a3d 7966 adbd 2edf 99be
000000b0: f447 ba3e b5f5 6b3e 5e2f 8a3e 318f a4be
000000c0: a3e9 873e 3ab8 07be 171b 083e 99d9 8d3d
000000d0: 407e 543d 9fa0 823d f4d4 b6be ce7f a13d
000000e0: 2f78 7b3e adb5 cc3d 10ba 5d3d 425b ae3d
000000f0: a9dc a43b 2777 ed3d ad2f 66bc 2563 41bc
00000100: c2df 9f3e 142d e7be 4726 f83c 1d05 0e3e
00000110: 4960 96be f976 2bbe 85c7 a9bc 5a0d 9b3e
00000120: 2154 66bd bb5e 34be a144 6abd 7d26 583d
00000130: dbb8 323e f7f8 9c3e 25d6 3a3e 41b3 403e
00000140: b639 99be 835e 1f3e 683b 893e cb8b 4cbe
00000150: 8378 323e ffc0 2bbe 2c48 673e 9209 84bd
00000160: 1095 c3bd 24b6 99bd f02e 9c3e 36cb be3c
00000170: 3ae4 843d ced8 76bd 93b1 1abd a44c 2e3e
00000180: a98e 73be cd29 d03d 87a7 48be cbb0 833e
00000190: 8515 b43c 5d95 5abd e616 b7be 6a67 37bb
000001a0: 2aa6 3bbb 5440 f6bc 5f76 15be 0aa8 04bd
000001b0: 8902 803b 02ad 3fbe 1392 83be 2327 8f3e
000001c0: 67b2 043d 1c70 55bc e0b8 10be b352 46bd
000001d0: 8351 b73b 25fd 0f3c ccbd 8c3e 3304 abbe
000001e0: d16c 983e 3e21 b53e d810 cdbe 0c8c 0dbd
000001f0: 2206 c1bd 9ec6 a1bd 62f2 983e c4a4 27be
00000200: 448c 0e3e 3aac 063e 5130 1f3d 940f 803e
00000210: b7b0 b2be b869 973e a085 f3be 344a 2a3e
00000220: 7410 65be 12f6 c13d 8ba8 c0be 65c0 df3d
00000230: de0f 753e f21f 863c 3470 fd3d d144 423e
00000240: ea9c c83e 5caa 943e e9fa d83d 19e9 0b3e
00000250: 3419 5bbe adc5 323e e58b 03bf 25f1 943a
00000260: 0abe 543b 23ef c33d 1347 a1ba d6a5 22bb
00000270: 2d19 5c3d 470f 723d b509 d1be ec14 ef3d
00000280: 3d50 e0bd 5744 073e 473f a3bc c019 8c3e
00000290: 9ef8 b5be 8511 bc3c d8f8 283e 73f9 80be
000002a0: a6ab 663e c2bd c73d ea91 46be f2ed 8dbd
000002b0: 27a1 a0b9 d6b2 7ebe e96d fd3b b001 433d
000002c0: 813b 0c3e 9fbc 843e 4b6c 5d3e 975b 45bd
000002d0: e08f b4be 74dc 023e 9e1f d0bd a50c abbd
000002e0: eec2 183e ee7a efbd 3cae 16be 1552 babe
000002f0: 424e 87bd 4a09 32be 2950 edbd a538 45be
00000300: fdd0 c4be 8c73 d2bc 25cf 66be ab2f 693c
00000310: 088d 0e3d 9f95 8a3c e0db 4c3e 4f7c 173e
00000320: 75fb 9abd 48e1 b2bc 7bb0 d13d 49f4 da3c
00000330: aa2c a7be c0b7 cd3c 9d7d 993e 6ce6 b43d
00000340: c985 b33d d742 57be c903 a93e b508 7c3e
00000350: 5bdc 9d3e 06cb 6abc fb75 163d 5c3b 71bd
00000360: 73a3 483e d102 743e 1d30 b0be be64 83be
00000370: 4872 de3d 1007 313e 830e 153d e1a5 833d
00000380: 0aea 313e adce 81be 13fa 97bd aa23 e63d
00000390: 8920 d13c 0616 db3c a603 883d aa32 0cbe
000003a0: d328 aebe 281a 033e f980 bbbe 461f b83e
000003b0: 9216 953e cd09 773d 8890 aabc ef9f 84bd
000003c0: 805f dfbe a8a7 783e bbff ff3d 8ce6 76bc
000003d0: 6652 373e 05da e13d cc0b 843e 0f95 3abe
000003e0: af0d 0b3d 4426 6bbe ae00 ea3c 2ff7 423d
000003f0: b763 0b3e f002 b03e 287c b1be bfe9 8a3d
-0.12781164 -0.18981016 0.037266046 -0.17263019 -0.09661353 -0.2052592 -0.5119286 -0.090757266
0.081367575 -0.16809992 0.08990016 0.099491306 -0.080821134 -0.119788006 0.14088574 -0.011075009
-0.20212346 -0.19040756 0.09517243 -0.4171972 0.12446221 -0.07039522 0.006791659 -0.101516046
0.21124798 -0.053334028 0.30609232 0.18256411 -0.19198148 -0.05780806 0.1565156 0.26281297
0.14380576 0.06865186 0.026934594 -0.07804661 -0.30041265 0.16898674 -0.35986364 0.24336615
-0.01619011 0.057303198 -0.08466811 -0.30053085 0.3638302 0.23042949 0.26989263 -0.32140496
0.26545438 -0.1325387 0.13291584 0.06926269 0.051878214 0.06378292 -0.35709345 0.07885705
0.24557565 0.099955894 0.05413252 0.085135 0.0050311876 0.11594992 -0.014049453 -0.011803423
0.312254 -0.4515158 0.03029169 0.13869138 -0.29370335 -0.16744603 -0.020725021 0.30283624
-0.056232575 -0.17614262 -0.057194356 0.05277108 0.1745333 0.30658695 0.18245752 0.1881838
-0.29926842 0.15563397 0.26803136 -0.19975202 0.17428784 -0.16772841 0.22586125 -0.06447138
-0.09549916 -0.07505444 0.3050456 0.023290258 0.06488843 -0.060265355 -0.037767004 0.17021424
-0.2378489 0.10164223 -0.19595157 0.2572082 0.021982918 -0.0533651 -0.35759658 -0.0027985224
-0.0028632977 -0.03005997 -0.14595936 -0.032386817 0.003906552 -0.18718341 -0.25697383 0.27959546
0.0323967 -0.013027217 -0.14133024 -0.048418712 0.0055944338 0.008788382 0.27488554 -0.3340164
0.2977052 0.35376924 -0.40051913 -0.034557387 -0.09424998 -0.07899211 0.29872423 -0.16371447
0.13920695 0.13151637 0.038864437 0.25011885 -0.34900448 0.29572845 -0.47562885 0.16629869
-0.22369558 0.09470762 -0.37628588 0.10925368 0.23931834 0.016372655 0.12374917 0.18971564
0.39182216 0.29036224 0.10594732 0.13663138 -0.21396333 0.1745822 -0.5138534 0.001136337
0.0032461905 0.09567096 -0.0012304507 -0.0024818084 0.053734947 0.0590966 -0.40827718 0.116739124
-0.10952804 0.13209663 -0.019927634 0.27363396 -0.35541242 0.022957573 0.16501176 -0.25190315
0.22526416 0.0975299 -0.193916 -0.0693015 -0.00030637646 -0.24872908 0.0077340496 0.04760903
0.13694574 0.25925156 0.21623342 -0.04818305 -0.35266018 0.12779409 -0.101622805 -0.08352021
0.1491811 -0.11693369 -0.14714903 -0.3639075 -0.06606723 -0.17386356 -0.11587555 -0.1925989
-0.38440695 -0.025689863 -0.22539957 0.014232556 0.034802467 0.016917048 0.2000575 0.14793514
-0.07567493 -0.021835938 0.10238739 0.026727812 -0.32651263 0.025112033 0.29978648 0.08833012
0.08765752 -0.21021591 0.330107 0.24612696 0.3083218 -0.014330631 0.03673361 -0.0588945
0.19593601 0.238292 -0.34411708 -0.25662798 0.10861641 0.1728785 0.036390793 0.06428123
0.17374435 -0.25352994 -0.07420745 0.11237271 0.02552821 0.0267439 0.06641321 -0.13691202
-0.3401552 0.12802947 -0.36621836 0.3596136 0.29118782 0.06031208 -0.020820871 -0.064758174
-0.43627548 0.24282706 0.124999486 -0.015069615 0.17902526 0.11027912 0.2579025 -0.18220924
0.033948597 -0.22963816 0.028564777 0.047599014 0.13612257 0.3437724 -0.34665036 0.06782865

features.0.bias f4 [64]
00000000: 9f00 e23e ee8f b83d aad0 df3e 47f1 27bf
00000010: f094 d4be 9130 373e 4ea6 50bd 8bfd b93d
00000020: bd84 d43e 0e7f 8bbc c8c0 53be d9fd 25bf
00000030: f2de 09bf b584 31be f2d7 b13e 747e fbbe
00000040: 0f06 f1be 898d 85be 6df4 7ebe 4cd6 813e
00000050: c24c 483d a805 b9be be8f a73e caa8 ec3d
00000060: c22e 9abe 0536 1dbf 6044 22bf ba42 03bf
00000070: 485c 34be 8f5c ba3e 3499 02bf 4a18 02bf
00000080: c774 11be 3bdd 8b3e 2361 99bd 3f7e f3be
00000090: 13e8 d9be bc92 c83e 1be4 b0be 891e 9bbc
000000a0: 68bb cf3e b2d9 e8be a141 62bc 8d2a ccbc
000000b0: 035f 273e 888d ebbd 5cbf 0e3f 391a 033f
000000c0: 3abe ed3e 6b71 b93e cd32 10bf da7f 14bf
000000d0: f695 a5be ef2f 19bf 3ea0 3ebe e4ff 803d
000000e0: 7465 a1be bd1a bdbe 8c70 86be 0cc2 08bf
000000f0: 2ca4 1abe c011 ac3e 8123 923e 4120 13bf
0.441411 0.090118274 0.43713886 -0.65602535 -0.4151988 0.1788962 -0.05093985 0.090815626
0.4150752 -0.017028358 -0.20679009 -0.64840466 -0.5385581 -0.1733578 0.34735066 -0.49119914
-0.47074935 -0.26084545 -0.24897929 0.25358808 0.048901327 -0.36137128 0.32726854 0.115556315
-0.30113798 -0.6141055 -0.6338558 -0.5127369 -0.17613328 0.36398742 -0.5101502 -0.5081831
-0.14204703 0.27317223 -0.074892305 -0.47557256 -0.4255987 0.3917445 -0.3454903 -0.018935459
0.40572667 -0.45478588 -0.013809592 -0.024922634 0.16344838 -0.11501604 0.5576074 0.5121189
0.46434194 0.36219344 -0.56327516 -0.58007586 -0.32340974 -0.59838766 -0.18615815 0.06298807
-0.31522715 -0.36934462 -0.2625774 -0.5342109 -0.15101689 0.33607292 0.28542712 -0.5747109

features.3.weight f4 [128, 64, 3]
00000000: 8c7b cfbc 5ae9 fa3b dd40 023d 0e83 343c
00000010: 6afa d13d 2b1b 7bbc 9ae5 18bc 78e2 4abd
00000020: c1cf febc d798 df3c 246d f8bd 2a78 d4bc
00000030: 13ac 84bd 403c 853c f920 433d a7b4 b6bd
00000040: fef7 cabc bc95 ddbc 5eea 0fbd cd14 ccbd
00000050: c686 42bd 4aa7 32bc 8258 e3bd ccdb 96bc
00000060: a0bb cfbc f117 fd3c b060 97bc 9b6e a8bc
00000070: 878b 3dbb a575 22bd 0440 56bb ee86 3d3d
00000080: 75f9 903c 520b bdbd 7a14 e33c 1ff4 633d
00000090: 657b 90bc d2f2 e6bc d108 1f3c f793 04bd
000000a0: c553 06bd b819 5c3d fe2a c03c c26d 51bc
000000b0: 4045 82bc 181c e63c 5fc6 793b 9fea 51bd
000000c0: d16c 25bd 4cdb e63c 2961 34bc 445b 493d
000000d0: b097 3b3c 82bf 01bd 6d96 35bc 256e 543c
000000e0: 513d 5d3c e45f f13d 23fe 78bb 1bb5 9d3c
000000f0: 0c82 ef3c 005d 15bd 34b0 323d e939 603d
00000100: 05ee 3fbd 5669 1c3c 88db 1f3d 761c aabd
00000110: 1208 6ebc c7f8 f43c 04c6 7e3d e605 c0bd
00000120: 19b0 88bd 5d45 a6bb 72b5 0a3d c76d 19bd
00000130: 92f1 1abb bbe9 9bbb 2992 cdbc 7932 353d
00000140: 5cf2 273d 1268 013d a97e 793b e73c 4ebd
00000150: 97fa 08bc 5126 d43b a8f5 2abd 326f 76bd
00000160: 8d1a dabc cd24 323d 2c8a 78bd 1b51 21bc
00000170: a958 0e3d 63bf da3b 2199 9e3b f39d 093c
00000180: 7f5d 84bd 5944 a7bc 3160 98bd 97e1 2d3d
00000190: f58d a6bc e023 b33d 0471 b43c 34e7 713d
000001a0: 94c1 88bb 23c9 82bd 653e 4a3c d535 aabd
000001b0: 0275 503c 9ca8 8a3d 2fb2 b9ba 7542 f9bc
000001c0: c680 773c e2fb 783d 6f88 e0bc 288e 553a
000001d0: faa3 753d 8c21 9f3b ab2b 493d e70f d7bd
000001e0: bacf 0c3d b2d5 2fbd d31c a2bd 1b0f 14bd
000001f0: 34c7 7abd 8764 81bc 4367 473b bd60 363d
00000200: deda 863d 8da4 68bd 3580 27bd 09cd dc3c
00000210: 57df 8dbc 7362 70bd 7016 82bc 4820 04bd
00000220: 6897 35bd 9762 f6bd e91f 0dbd e989 6dbd
00000230: 7a4d 9ebd d7b3 943d 8a01 d53c 5745 cb3c
00000240: b305 f4bc 727e 123d 2840 2e3d d660 3cbc
00000250: cd27 393d 859f 90bd eadb 9ebd 2f2b 963d
00000260: 9812 573d 71d1 0a3d 9e15 a93d 9ce8 77bd
00000270: dd28 323d 6fe6 f13d b5d6 d5bd 5255 943d
00000280: d94e bdbd 4b8f 63bb bedf 853d 68e6 90bd
00000290: 4b7c 0f3c 05d9 0e3d a059 3abb 5669 ca3c
000002a0: 2ef8 17bd 99a8 a0bd 3b56 62bd e9aa 03bc
000002b0: cf6f 51bc c5ef 9ebd c94c 83bd efaa 413d
000002c0: 3cd2 f93a fadb cb3c 32cc 0b3c b5c6 0fbd
000002d0: e6b7 583d df15 8ebc 1e1f 38bd 020f c2bc
000002e0: 2931 373b cd55 8f3c 851d f23c f225 0c3d
000002f0: a25d 16bd b030 b1bd 8a7a 91bc e2f6 9fbd
00000300: d31c 913b 8eb8 c3bc ea9b 9b3c 7f75 193c
00000310: 3132 18bc e747 1abd 5827 c4bc 7594 1a3c
00000320: 6eaa 293b 652c b03a 5265 3a3d 226e a73b
00000330: 887b 5a3c 9f82 2abc 8205 5b39 27e4 f13b
00000340: cc91 a7bb f9e9 2abc 66d2 213d 7c5f 6a3a
00000350: 5c3b 8f3c bcb3 48bd b3db 01bc ae52 a83c
00000360: 483b 3cbd 6fbc 3ebd 72f7 2a3d 43a9 9cbc
00000370: f5ef 223c b8db 50bd 7d99 773d f0af dcbb
00000380: c853 35bd 5e34 b13c 25ab 093e 1dcf b23c
00000390: 33fe 493c 12b3 403d 6ba6 b83c b953 0f3d
000003a0: 0afd 06bd ad2e 69bd f788 fb3b 007f e83c
000003b0: bb78 a33c fbfa 9b3d 4053 f03d 1c27 c53b
000003c0: 500a eabc 949d 67bd 766e 0f3d 73c8 593d
000003d0: 0e23 e9bc dcea c7ba 3b6d 32bd 8fbe 99bd
000003e0: c932 503c 9a38 8abb 6da5 ecbc ee5d a53c
000003f0: 9dae 1a3a a5e4 5cbc bff7 793c ec18 65bc
-0.025327466 0.007657212 0.03180014 0.011017574 0.10252841 -0.015326302 -0.009332085 -0.049532384
-0.031104924 0.02729456 -0.12130192 -0.025936205 -0.06478133 0.016264081 0.047638867 -0.089211755
-0.024776455 -0.027048938 -0.03513562 -0.09964905 -0.04749181 -0.010904143 -0.11100866 -0.018415354
-0.025358021 0.030895205 -0.018478721 -0.020560553 -0.0028922276 -0.039662976 -0.0032691965 0.046271257
0.017697075 -0.09230675 0.027719725 0.055652734 -0.017636964 -0.028191958 0.009706692 -0.032367673
-0.032794733 0.053735465 0.023458 -0.012782516 -0.015902162 0.028089568 0.0038112623 -0.051249143
-0.04038698 0.02818074 -0.011009493 0.049159303 0.011449739 -0.031676777 -0.011083228 0.012965714
0.0135033885 0.11785868 -0.0037993274 0.019251397 0.029236816 -0.036465645 0.04362507 0.054742727
-0.046857852 0.009546598 0.03902772 -0.0830621 -0.014528291 0.029903783 0.06220056 -0.09376125
-0.06674213 -0.0050741867 0.033864446 -0.037458207 -0.0023642522 -0.0047580875 -0.025094109 0.044237588
0.041002616 0.03159339 0.003806988 -0.05035105 -0.0083605265 0.0064742942 -0.041738182 -0.060164638
-0.026623989 0.043492127 -0.060678646 -0.009845997 0.03475252 0.006675647 0.0048400317 0.008399474
-0.064631455 -0.020418333 -0.07440222 0.042451467 -0.020331362 0.08747077 0.022026546 0.059058383
-0.004173467 -0.0638602 0.012343978 -0.08311049 0.012723209 0.06770441 -0.0014167483 -0.030427197
0.015106386 0.06078709 -0.027408807 0.0008146488 0.059970833 0.004856294 0.04911391 -0.1050108
0.03437779 -0.042928405 -0.07915654 -0.03614722 -0.06122513 -0.015795005 0.003042654 0.04452585
0.06584714 -0.056797553 -0.040893752 0.026953237 -0.01731841 -0.05868764 -0.01587984 -0.03225735
-0.044333845 -0.12030523 -0.03445426 -0.05799285 -0.07729621 0.07260864 0.02600171 0.024813337
-0.029787874 0.03576512 0.042541653 -0.011497697 0.045203973 -0.07061676 -0.07756789 0.07332455
0.052507967 0.033891145 0.08256076 -0.060524568 0.043496 0.1181153 -0.10441343 0.07242836
-0.092435546 -0.003472286 0.06536816 -0.070751965 0.008757661 0.034874935 -0.0028434768 0.024708431
-0.037101917 -0.078446575 -0.055258017 -0.008036354 -0.012783005 -0.07760576 -0.0641113 0.047282156
0.0019059847 0.024885166 0.008532571 -0.03510161 0.052909754 -0.017344413 -0.04495155 -0.023688797
0.0027952886 0.017496968 0.029555092 0.034215875 -0.03671039 -0.086518645 -0.017758626 -0.07810761
0.004428485 -0.023891713 0.018995244 0.009366392 -0.00928931 -0.037666228 -0.023944542 0.009434809
0.0025888938 0.0013440965 0.045506783 0.0051095644 0.013335116 -0.010407119 0.0002088752 0.007381934
-0.005113816 -0.01043176 0.039507292 0.000894062 0.01748436 -0.048999533 -0.0079259155 0.020547237
-0.045954973 -0.046566423 0.04173989 -0.019123679 0.0099449055 -0.05099079 0.060449112 -0.0067348406
-0.044269353 0.021631416 0.13444193 0.021827275 0.012328672 0.047045775 0.022540292 0.034991954
-0.03295616 -0.05692928 0.0076762396 0.02838087 0.01995503 0.0761623 0.11734629 0.006016625
-0.02856937 -0.056546763 0.035017453 0.05316968 -0.028459098 -0.0015252489 -0.0435612 -0.07507049
0.012707421 -0.004218173 -0.028887475 0.02018639 0.0005900653 -0.0134822475 0.015256821 -0.013982993

features.3.bias f4 [128]
00000000: 6f59 ac3d 8721 be3d aa50 eb3c 3214 2a3d
00000010: 30b5 973d 49fd 99bd a499 073d 762a 6c3d
00000020: 837e 39bd 97e5 ed3c c1d5 6abd 266d a63d
00000030: cf4e bd3b 6d41 ccbc 6d82 adbd 801d fdba
00000040: afe1 babe a68b c3bc 13f9 e63c 117a 273d
00000050: a244 003d 343a 28bc a585 6cbb 85c3 acbd
00000060: c710 4a3d fde7 6ebd 9ec5 06bd 5c08 f8bd
00000070: 13d0 bebd 2a38 353a edac 543d 8485 95bd
00000080: 2a86 febc fd56 92bc 3f7d be3d 4a0e 0a3d
00000090: 4041 6cbd 755a e03c d724 2cbd 136b 933b
000000a0: af2c 0dbd 4810 263d 4003 9dbc 7f9b 563c
000000b0: 0c63 16bd 3792 953d 3d60 80bd b97f 2bbd
000000c0: ac80 06bd 3b2e 633d 359f 023d 63e0 543b
000000d0: 7705 9e3d 650a c0bd 06b3 8fbd 219d 663d
000000e0: 5c1f 203c 7239 debc cf27 84bc acc4 f43c
000000f0: 88ff 68bd 5360 ca3c ec1d 823c ae64 f83c
00000100: 837a 0d3d e4e9 193c 4c26 b33c 59d9 273d
00000110: b428 ff3d c150 113e e5ef 32bd 4cfa 0ebd
00000120: 2c78 473d 982a 30bb 2a5c a1bc 111d b1bd
00000130: fa5d 5f3d e0ce bebc 06ae 68bd 0e3c fd3b
00000140: 1690 cb3d ceb5 b0bc 4b2f b4bd b86a d93c
00000150: d65d 343e 473c efbd 2070 a63b b8d0 9a3d
00000160: b8f6 103d e315 89bd da00 59bb f656 153c
00000170: d7a2 5a3d d27c 3a3d a2ad 3dba be19 0abd
00000180: 4889 01bd 21a4 4d3d 433d d7bd 31ae 16bd
00000190: a391 cebd 69a3 71bc 8cb5 cbbd 5cdb 9b3d
000001a0: 988e 063c 2d43 cb3c 703a 893a 8c0b 71bd
000001b0: db65 22bc e4ed a7bd b83e 33bd 4e4a ac3b
000001c0: 450f c53d 7dc2 cb3c 9556 17bd 9c34 0abd
000001d0: b7e6 7d3c 217c 9f3c 0587 893d c888 0e3d
000001e0: a7dc 0abd 36a2 6c3d cdfc 403d 9a00 01bd
000001f0: be07 803d 7b81 05bd a24a 0dbd f26e 91bc
0.084154956 0.092837386 0.028724987 0.041523166 0.07407606 -0.075190134 0.033105507 0.05765768
-0.045286667 0.029040141 -0.057332758 0.08126287 0.005777217 -0.024933541 -0.08472142 -0.001931116
-0.36500308 -0.0238703 0.02819494 0.040887896 0.031315453 -0.010267783 -0.00360904 -0.0843573
0.049332406 -0.05832671 -0.032903306 -0.121109694 -0.09317031 0.0006912971 0.051922727 -0.07300857
-0.031069834 -0.017863745 0.093012325 0.033705033 -0.057679415 0.027386883 -0.04202732 0.004498848
-0.03446644 0.04054287 -0.019166589 0.013098597 -0.036715552 0.07303279 -0.06268356 -0.041869853
-0.032837555 0.05546401 0.031890113 0.0032482378 0.07715886 -0.093769826 -0.07016568 0.056302194
0.009773102 -0.027127001 -0.016132263 0.029878937 -0.05688432 0.024704134 0.015883408 0.030321445
0.034540664 0.009394143 0.021868847 0.040978763 0.124589354 0.14190961 -0.043685813 -0.03490667
0.04869859 -0.0026880857 -0.019697268 -0.08648122 0.054532982 -0.023292005 -0.056806587 0.0077281063
0.099395916 -0.021571066 -0.08798083 0.026540145 0.1761392 -0.11681419 0.0050792843 0.07559341
0.03539154 -0.06693628 -0.003311208 0.009114971 0.053377952 0.045529194 -0.0007235651 -0.033715956
-0.031625062 0.050205354 -0.105097316 -0.036787216 -0.10086372 -0.014748433 -0.09946737 0.07610199
0.008212708 0.024812305 0.0010469686 -0.058848903 -0.00991198 -0.08199671 -0.043760985 0.0052578812
0.09622053 0.024873013 -0.036947805 -0.03374158 0.015496901 0.019468369 0.06715206 0.034798414
-0.033901837 0.057771884 0.04711609 -0.031494714 0.06251477 -0.032594185 -0.034495004 -0.017753098

features.4.weight f4 [128]
00000000: 7066 6e3f 6ee5 883f 9dff 563f bf49 583f
00000010: 4acf 753f 82aa 833f 06e5 733f 9ba8 8a3f
00000020: 021f 593f ce02 7d3f ece0 803f 43e2 633f
00000030: 650c 683f 61c9 853f e632 853f bda9 703f
00000040: bae6 9e3f dd9b 6f3f 8fa3 723f 9b76 703f
00000050: da96 693f 7c37 663f 8086 4a3f 7313 8d3f
00000060: 8da9 863f e7ce 723f c654 823f bba2 803f
00000070: e8c2 6c3f 66e9 743f 70fe 653f ac88 743f
00000080: 17c0 873f 25fa 633f cd86 773f de2e 773f
00000090: 67eb 6b3f 6b45 843f 02c3 873f 5852 7c3f
000000a0: 76dd 693f 1576 6b3f 20b2 6a3f e099 783f
000000b0: 2026 663f e46d 703f fd58 623f 3e39 6a3f
000000c0: 175d 683f 8c99 5a3f f813 563f d5f5 7e3f
000000d0: 313c 873f e39f 873f 7fe9 823f a068 743f
000000e0: d403 5d3f d05e 6d3f 2218 8d3f bf2e 813f
000000f0: a658 783f 7e17 803f 3650 843f 6cc0 5d3f
00000100: 28f4 5a3f a1af 643f 3911 7c3f 5505 773f
00000110: ad1a 833f 97b1 8f3f 4c91 793f a53d 863f
00000120: c0cb 623f 8fa9 753f 3d7a 673f c3fa 8c3f
00000130: 4b1f 7f3f 0ea9 803f 7365 5a3f 8b1f 6d3f
00000140: 725b 823f f074 863f 11be 8f3f 257b 5e3f
00000150: 4b43 793f 1f85 873f 444b 833f 9961 5a3f
00000160: 79b8 633f 5e2b 713f ad0e 603f ba5c 8c3f
00000170: 8ce1 613f cd36 683f 4b52 673f c376 653f
00000180: 862f 603f b5aa 5a3f ff57 8e3f 2d7f 723f
00000190: 1520 6e3f 00af 723f 4cd3 8f3f 5f33 6c3f
000001a0: 80f1 593f 6530 743f d8bc 593f 120d 823f
000001b0: 3aae 653f f1ff 8e3f 9ed0 763f d223 853f
000001c0: c357 7d3f ea9c 6f3f 550d 863f b4ea 723f
000001d0: 269e 8c3f 07f0 6a3f 5b43 693f 0001 6c3f
000001e0: 3539 753f b708 753f f9c2 703f 7e17 663f
000001f0: 4ef1 693f e569 8f3f 0b57 7b3f 7cb9 7b3f
0.9312506 1.0695016 0.83983785 0.8448753 0.96019423 1.028641 0.9527134 1.0832704
0.8481294 0.98832405 1.0068641 0.89017123 0.9064391 1.0452081 1.0406158 0.94009
1.2414162 0.93597203 0.9478082 0.9393098 0.91245806 0.8992841 0.7911148 1.102156
1.0520493 0.9484696 1.0182121 1.0049661 0.92484903 0.9566864 0.89841366 0.95521045
1.0605496 0.89053565 0.96690065 0.9655589 0.9215607 1.0333685 1.0606387 0.98563147
0.9135355 0.91977054 0.9167805 0.97109795 0.89901924 0.9391768 0.88417035 0.91493595
0.90767044 0.85390544 0.8362422 0.9959386 1.0565244 1.0595669 1.0227507 0.95472145
0.86333966 0.927228 1.102299 1.0092391 0.97010267 1.0007169 1.0336978 0.8662174
0.855288 0.8933049 0.9846378 0.9649251 1.0242516 1.1226071 0.9748733 1.0487562
0.8859215 0.9596185 0.90420896 1.1014026 0.99657124 1.0051591 0.8531105 0.92626256
1.0184157 1.0504436 1.1229879 0.86906654 0.97368306 1.05875 1.0257344 0.8530517
0.8895336 0.942068 0.87522393 1.0965798 0.8823478 0.9070862 0.90359944 0.8963434
0.87572515 0.8541673 1.1120604 0.94725305 0.93017703 0.9479828 1.1236358 0.92265886
0.85134125 0.95386344 0.8505378 1.0160239 0.89718974 1.1171857 0.96412075 1.0401556
0.9896204 0.93598807 1.0472819 0.9488938 1.0985763 0.917725 0.911184 0.92189026
0.95790416 0.9571642 0.94047505 0.89879596 0.91383827 1.1204191 0.9817969 0.983299

features.4.bias f4 [128]
00000000: 60cc 57bd cae4 edbe 38d0 60be 57f6 60be
00000010: bce8 dfbe 8ca0 863d 0b7c 3c3d d58e ecbe
00000020: 8802 8abe 9174 8cbe cd5c 85bd 35da 9bbe
00000030: 4216 58bd e5ff d8bd ca7a 433d 2106 79bd
00000040: 1ce5 f3bd 570c c5be e5df 5cbe f1a3 edbe
00000050: bf50 e1bd 85f3 3ebe b5ae 41be cbdf 123d
00000060: 65cf cfbe 9cdb 8abe b441 b83d 29ce 27be
00000070: f48e 5cbe 8e7e 9bbe 9786 bdbe 7a7f 3f3c
00000080: 3ae2 16be 91ee a9bd 8c87 4abe 86cd af3d
00000090: ea11 85be c0d3 18bf 1aec 1dbe a5b5 0e3e
000000a0: 6c20 08bf 9ed3 1cbe 25c5 4fbd 7cd6 593d
000000b0: bea6 92bd a7a9 d2be 645f 12be a1af c5bc
000000c0: aa0f 90be 523a 14be 723d 10be dc28 b6be
000000d0: 88f8 dfbe b92b b8be c6f7 073c 427e ebbe
000000e0: 02d0 043d 0159 063e e09a bbbd e356 01bf
000000f0: f7ca cfbe 453e 96be 6a05 81be 3b23 3abe
00000100: ac4f 7bbe 43b2 81bd 3b69 15be 96bb f5be
00000110: 3b62 22bf 3915 40bf b729 163d da5b 83bd
00000120: 3dc7 aebd b587 b2bb e0f5 b9bd c97e 0fbe
00000130: 2321 5e3c 2c91 073e 9028 5fbe 1a18 7cbe
00000140: f9e7 c3be 36d6 29be 4a34 8abe 2214 91bd
00000150: ca71 01bf cbff 90be a204 f6bc f879 99be
00000160: 8626 8fbe abf2 33bd a211 02be fedb 85bd
00000170: 05bb b1be 31a5 14be c09d 533d b271 b8be
00000180: 179a 81be 079b d7be 2845 d6bd efff 743d
00000190: 2ddb 80be 6da5 bebb e15b 79bd f3a7 273e
000001a0: b734 dcbd 0ddd cbbe dd88 88be 35c1 01bd
000001b0: 1d7d 00be df6b 06be 796e 71be 51d3 8bbe
000001c0: 1fc0 dabd 81b9 26be 605e f3bd 0601 6ebe
000001d0: b14c 65bd ca74 393c cd34 a0bd b89b 893c
000001e0: c517 9cbe 213c 7cbe ce9e 43bd 3ee2 a9be
000001f0: 6305 2dbc 3a29 cbbc fdab 8dbe 13d2 4ebe
-0.05268514 -0.46463615 -0.21954429 -0.21968971 -0.4373225 0.06573591 0.046016734 -0.46202722
-0.26955056 -0.27432683 -0.06511841 -0.30439916 -0.0527556 -0.10595683 0.047724523 -0.06079686
-0.119089335 -0.38485977 -0.21569784 -0.4641414 -0.11001729 -0.18647583 -0.18914302 0.035857957
-0.40587917 -0.27120674 0.08996907 -0.16387238 -0.21538907 -0.3036999 -0.37016746 0.011688108
-0.14734736 -0.08297456 -0.1977827 0.08584122 -0.2599023 -0.59698105 -0.15422097 0.1393648
-0.5317447 -0.153151 -0.05072512 0.053183064 -0.0716071 -0.4114506 -0.14294201 -0.024131598
-0.2813695 -0.14475372 -0.1408594 -0.35578048 -0.43744302 -0.35970858 0.00829882 -0.45994765
0.032424934 0.1311989 -0.091603994 -0.50523204 -0.40584537 -0.29344383 -0.25199443 -0.18177502
-0.24542111 -0.06332829 -0.14590923 -0.4799468 -0.6343114 -0.75032383 0.036660876 -0.06414004
-0.085340954 -0.0054483064 -0.090801 -0.14013208 0.013557705 0.13238972 -0.21792817 -0.24618569
-0.3826292 -0.16585621 -0.26993018 -0.07083918 -0.50564253 -0.28320155 -0.030031506 -0.29975867
-0.2795908 -0.043932598 -0.12702039 -0.06536101 -0.34712997 -0.1451614 0.051664114 -0.36024243
-0.25312874 -0.42110464 -0.10462409 0.05981439 -0.25167218 -0.00581806 -0.06087864 0.16372661
-0.10752242 -0.39817086 -0.26666918 -0.031678397 -0.12547727 -0.13127087 -0.23577298 -0.2730966
-0.106811754 -0.16281702 -0.11883235 -0.23242578 -0.05598134 0.011319349 -0.07822571 0.016797885
-0.30486885 -0.24632312 -0.04775887 -0.33180422 -0.010560366 -0.024799932 -0.2767028 -0.20197324

features.4.running_mean f4 [128]
00000000: d3ad 17be 3888 01be 7b3a 7dbd 1c8e 50bf
00000010: c8f4 cfbe f7c4 cbbe 34f9 f43e fb55 a3be
00000020: 5c92 f7be 9189 8abe 2bbe 583d 8607 733c
00000030: 8a7f 563d 84c6 56bf f737 63bf 52d6 9c3d
00000040: ff1d 39bf b6bd 27be bcaa 03bf 617f cabe
00000050: 92ba 553f f18c 4d3d 9c56 d4bd ecdb bbbe
00000060: 40b9 113c 15bd f6be af82 89be 5a68 08bf
00000070: 363b 0cbf d7eb bd3c 7818 9abd 49e8 4c3b
00000080: 8de8 26bf 8d0a a73d d8ed 2bbe 9580 553e
00000090: ec96 fabe 22ac 7abb 6be1 59bd ac74 9ebe
000000a0: fc16 40be 766c 6bbd 595d 39bf 7965 d2be
000000b0: 6a58 c63e 993a f8bd d68b 82be c55a fd3e
000000c0: b2b9 7ebe 87c6 943d 9e4c b2be fc0b b6be
000000d0: c169 10be d3a6 b4be 9612 d5be b5a1 c33d
000000e0: 519f c4bd 4efe 433d 1eab 09bf 9e3c 03bf
000000f0: 10b2 e0be bd92 3cbe a3aa e6bd ec98 9f3d
00000100: 323e cabe f3ca fa3e 0c3d 31bf edb3 a0be
00000110: 935b 98bc eec9 72be f0b4 b1be 7691 8abe
00000120: fdb1 083f 4142 8d3e 6c77 02bf 98a2 18bf
00000130: 55ba 3dbf 542a ad3e dccb 94be 5308 87be
00000140: d376 a3be 1f55 a1be 119d bebe db4f 6a3f
00000150: 4d2c 2bbe cb25 23bf daf8 b03d 299a 86bd
00000160: 53f6 5ebe ded4 7c3d 2ba3 bf3d e4ed 21bf
00000170: 10b9 66be 1d6a bc3e 568c e2be 4483 75be
00000180: 842f c33d 6b1b 07bf 35e2 95be a0f1 afbd
00000190: a0e3 07bf 595d 4c3f ebea 31bf 2f37 e83c
000001a0: 8779 c6bc 5db6 2dbe 91ab 46be 2ab3 07be
000001b0: 6303 a9be bfb2 52bf fd43 2bbe c1b9 acbe
000001c0: ade0 bcbd 3861 b6be 1c13 cebe acb4 96be
000001d0: 5e82 4abf 2d96 a5be c665 4e3e 71a9 663e
000001e0: a9dc 58be 0905 86bd 0f2b bfbe 41db 2dbf
000001f0: 4bab 30bf 17f3 30bf badb bfbe e296 25be
-0.14812402 -0.1264962 -0.06182335 -0.8146684 -0.4061644 -0.3979871 0.47846377 -0.31901535
-0.4835385 -0.2705808 0.052915733 0.014833337 0.052367724 -0.8389666 -0.8875727 0.07658066
-0.72311395 -0.16380963 -0.51432395 -0.39550307 0.8348781 0.05018324 -0.10368082 -0.36691225
0.008894265 -0.48191133 -0.26857516 -0.5328423 -0.5477785 0.023183746 -0.07524198 0.0031266382
-0.65198594 0.08156309 -0.16789949 0.20849831 -0.4894327 -0.0038249572 -0.05319349 -0.3094839
-0.18758768 -0.057476483 -0.7240806 -0.41093042 0.3873933 -0.121205516 -0.2549731 0.49483314
-0.24875525 0.072644286 -0.3482408 -0.35556018 -0.14102842 -0.35283527 -0.41615742 0.095523275
-0.096007 0.047849946 -0.5377673 -0.5126437 -0.4388585 -0.18415351 -0.11263015 0.077928394
-0.39500576 0.48982963 -0.69233775 -0.31387272 -0.018598353 -0.23709843 -0.34708357 -0.27064103
0.5339659 0.2758961 -0.50963473 -0.596231 -0.74112445 0.33821356 -0.29061782 -0.26373538
-0.31926593 -0.31510255 -0.37229207 0.915281 -0.16716118 -0.6372954 0.08641215 -0.065723725
-0.21773653 0.061726443 0.09357294 -0.6325362 -0.22531533 0.36799708 -0.44247693 -0.23975855
0.09530547 -0.5277621 -0.29274145 -0.08591008 -0.53081703 0.7982994 -0.6949908 0.028346626
-0.02422787 -0.16964097 -0.19401385 -0.1325194 -0.33010396 -0.82303995 -0.16725154 -0.3373547
-0.09222541 -0.35621047 -0.40248954 -0.29434717 -0.79105175 -0.32341138 0.20156011 0.22525574
-0.21177925 -0.06543929 -0.3733754 -0.6791268 -0.6901137 -0.69120926 -0.37472326 -0.16170838

features.4.running_var f4 [128]
00000000: ab17 4b3d c112 2b3c e748 523d 379d 443e
00000010: 955b 883c 5a77 2f3d 3475 9f3c dbe1 133c
00000020: 2425 f33c d6d7 8e3c 2c1f a43d b2ed 4f3d
00000030: 08a0 a33d 35d3 973d aa28 193d ca83 013d
00000040: d997 013d ffe8 c23c 1b7e d93c 979c 013d
00000050: 7760 7e3e 332f 0c3d dffd c73d 79e9 353d
00000060: fda9 d23c 9acd 8f3d e990 343d 4701 f43c
00000070: da28 4e3d a5a8 f83c 1e73 5e3c 4f03 923c
00000080: 3837 c63d 74f4 e43c 5062 5e3c 2c67 a33c
00000090: 55ca a33c ba6f 813c da1f d03d bf8e 1d3d
000000a0: e95c 843c 8bee 6f3d c8f4 cc3d e203 9f3c
000000b0: 29e9 c43d ec7d 9d3c 3414 8b3d 973f 333d
000000c0: 650e 153d 8065 633d 357e 643d cb4d 0a3d
000000d0: 50f5 2a3c 548d 423c deb4 463d d6b8 823c
000000e0: db8b bb3d 9b22 203d c4c2 133d ead9 ab3c
000000f0: 8777 a03c b165 073d c9fc 493c 3364 7e3d
00000100: b3bf 0b3d 7fcc 383d ecfc d43d ff94 643c
00000110: 8f4d 693c 7a6e 853c ba26 d83c 2b8c 433d
00000120: bd3f d93d f784 ea3c 9b0f ec3d 57eb 783d
00000130: e2c3 573d 9894 b23c 470a db3d 7c25 a23c
00000140: a0af 7a3c cce1 fd3c a3c5 5b3d 6292 fb3d
00000150: 0543 9a3c 9e37 0d3d 999c 9c3d 097f 3e3d
00000160: d23f 9d3d b4db e03c a7b4 923d f224 a33d
00000170: 97ec e03c 471c ea3d b963 ed3c 0c77 cb3c
00000180: 641c aa3d 4e9c bf3c d64c 2e3d ef04 273d
00000190: d794 543d dc96 c43c 045e 233d e0cf f23c
000001a0: d839 823d 6cd0 573c b50e 693d c8ec 653d
000001b0: b00c 6f3d c8a8 673d ceb4 803d 7f65 c03d
000001c0: f0c8 1c3d 6c04 633d c00a 213d aec4 f73c
000001d0: 93fc 8b3d baa1 2d3d 0cb8 533d 0474 f43c
000001e0: 5965 ad3c 350e df3c 4ded ee3c 2d4c 6b3d
000001f0: ba80 823d f490 373d 5773 753c eb59 5a3d
0.04958312 0.010441483 0.051339056 0.19200598 0.016645232 0.042838432 0.019465066 0.009026016
0.029680796 0.017436903 0.08013758 0.050763793 0.07989508 0.074133314 0.037392296 0.031619824
0.031638954 0.023792742 0.02654939 0.031643476 0.24841486 0.0342247 0.09765219 0.04441211
0.025715822 0.07021637 0.04408351 0.029785765 0.050331928 0.030353853 0.013577251 0.017823843
0.09678501 0.027948596 0.013573244 0.019946657 0.01999394 0.015800346 0.10162325 0.03846621
0.016157584 0.0585771 0.10007626 0.019411031 0.09614784 0.019225083 0.06790963 0.043761816
0.03639068 0.05551672 0.055784423 0.033765595 0.010434464 0.011874516 0.048512332 0.015957277
0.09157535 0.039095502 0.036074415 0.020977933 0.019588245 0.033055965 0.012328335 0.062107276
0.034118365 0.045116898 0.103998035 0.013951539 0.014239683 0.01628803 0.026385654 0.047741096
0.1060786 0.028627856 0.11526414 0.060771313 0.052677043 0.02179937 0.106953196 0.019793265
0.015300661 0.030991457 0.053655278 0.1228378 0.018830786 0.03447687 0.07647056 0.04650787
0.076781884 0.027448513 0.07163363 0.07966031 0.027456565 0.11431175 0.028978216 0.02483704
0.08306196 0.023389962 0.042553745 0.04077619 0.051899757 0.023997717 0.039884582 0.029640138
0.06358689 0.01317225 0.05689879 0.056134015 0.05836171 0.056557447 0.06284486 0.09394359
0.038277566 0.05542414 0.039316893 0.030245151 0.06835284 0.042390563 0.051689193 0.029840477
0.02116649 0.027228454 0.029165888 0.057445694 0.06372209 0.044815972 0.014981112 0.05330841

features.7.weight f4 [256, 128, 3]
00000000: f083 403b b68a 573d 36cd 913c 4af4 22bd
00000010: fca9 81bd a00d 093c 500b 1c3c ba72 02bd
00000020: 680d e1bc d174 e9bc 481e 123d 6b74 173c
00000030: 474f 09bd 35f4 4e3c 7ced ee3c e053 d03c
00000040: 104d 083d 1450 02bd 8788 d6bc 1538 ffbc
00000050: c109 883c 0eae 90bd 5d49 8cbd 1802 dc3c
00000060: cd62 ffbc aaed 543c 00ae 9b3c 34d5 1f3c
00000070: b42b 7c3d 4534 c73c 54ff a8bd eb81 30bd
00000080: aed0 e5bc f15c 24bd 7703 09bd ced1 b83c
00000090: d7ba a23c 4a90 8c3c a3f2 76bc dc26 7eb9
000000a0: 1d92 f33d 39a7 01bd 48d0 683d 2b63 913d
000000b0: 91ab 163d 5c16 0dbb d34e acbc bbde 1abd
000000c0: 1412 35bd b0f8 473e 86fd fcbc 30ca 523c
000000d0: 87e2 1dbd c4ec be3c 261e 4e3d bb89 9d3c
000000e0: 7655 833c 4a63 4fbd 7963 2cbd f0be 113d
000000f0: c94c 943c cc15 9ebc e542 0a3b 3c36 3e3c
00000100: 6b31 c7bc a0f5 3fbc e92d 233c 1c02 0e3c
00000110: 486c 263a 0118 0cbb 0a2a 0d3c a724 e43b
00000120: 7d8b 01bd 38a1 06bd d5a2 f3bb e77b 79bb
00000130: 0a38 d43c 0112 dd3a ac9a c8bc 4c76 6abd
00000140: 2859 2abc 3c87 723c 4e06 e63a bfe3 ffbc
00000150: 4e41 713c 43a8 4fbc eaa5 243d 9852 643d
00000160: 7ac0 9cbc 2058 b73b ef3a cc3c 294b 0bbc
00000170: 8223 d4bc aeec 73bb 073c 233d 0659 a1bc
00000180: ffd7 5cbd 973f caba b1bc ccbc 2471 3dbd
00000190: ee36 a139 65ba dabb 8853 953c 036c c63c
000001a0: 0f15 073c 854a b7ba ef55 6abd b0be b9bc
000001b0: 48d6 8cbc d82f 82bd 3e64 ebbc 775c 78bb
000001c0: 6487 d83b c356 cebb af86 babd 30e4 21bd
000001d0: be8e 24bd 7dad c83c 2471 cc3d f2e1 8339
000001e0: f6fd 1cbd ed2e 52bb 473d 0e3d 0be7 30bc
000001f0: ff0b f13c 511d 8dbb 08af 0c3d db0b 863d
00000200: 348c e1bc b1e2 9a3d 2c7a 7e3d 113e de3c
00000210: 9a31 3cbd 0dab aabb 0266 2fbc ed7d eb3b
00000220: 57a4 4b3c bf00 c33a 08ed 4bbc f4d8 31bd
00000230: d7f1 44bc b230 99bd 26d6 1abd 065f 4abd
00000240: f811 38bc 44d7 9bbc 386b db3c 43a0 b8bc
00000250: 571f 68bd 20ab 123c 79af 8bbc c9f2 c43b
00000260: ed49 aa3c efbc 7fbb 1798 373d 7556 c3bc
00000270: 9c5b 8bbc 2342 2cbd 6f15 e23c 2194 32bd
00000280: 8126 06bd 7b39 e6bb 88f5 cbbb fc28 203d
00000290: ba2e 313c 9780 afbb 388f e0bc 59f2 03bc
000002a0: ff1e 233d 28bc 10bd db93 4dbb 5c71 eb3c
000002b0: 457f 243d d2bd 383d b708 763d 5b59 113e
000002c0: 0d9a 1b3c 58a7 dcb9 2811 613c 911f 293c
000002d0: 98ee 17bc c08d dbbc b249 06bd 7146 50bd
000002e0: 511d edbc dc94 48bc a67a 08bd 5489 b0bd
000002f0: ea2a b2bc a6e1 a5bb 3e5b 61bc 226a c5bc
00000300: 5f4b 073d cf40 d0ba cd2b 75bb d794 e13c
00000310: ef49 80bc 17aa ebbb fced 3f3b aefe d93c
00000320: 464a 633b 0921 7e3c 9af5 cdbb 1480 26bd
00000330: edaf d1ba 0214 1cbd 1d98 d83c fd74 6abd
00000340: a6bd 9fbc ba32 853d 1023 103d e3e5 a63d
00000350: 5b16 d0bb 77b6 babb c3b5 9abc d6e8 623b
00000360: c7ab c5bc 4c09 123c f9d6 37bc accc 8cbd
00000370: 6c90 acbd 445d f4bc 1473 70bc df12 c83c
00000380: 6196 b339 cdef c3bd aafa 85bb 8827 95bc
00000390: bba3 8c3d 2507 8a3c 77c6 373d 1eeb b53d
000003a0: 2134 183d 9fd6 003c 8a3c 953c 09c9 cdbc
000003b0: fd3a d8bc 769a 8d3b 5fd1 1cbb 4da3 9aba
000003c0: 2bb8 03bd 2ef7 70bb 70e4 34bc 307b 5abc
000003d0: f9a1 1ebd a41c f0bc d508 b1bc f2b2 113e
000003e0: 3945 14bc 6302 513c 341f 30bd 73a7 9ebc
000003f0: 0ffb 033d 0b9a 16bd 38eb b13c 1bb7 85bd
0.0029375516 0.05262252 0.017798048 -0.039783753 -0.0633125 0.008365065 0.0095241815 -0.031847693
-0.027472213 -0.028498085 0.03567341 0.009244065 -0.03352287 0.012631466 0.029165976 0.02543062
0.033276618 -0.03181465 -0.026188148 -0.031154672 0.016606214 -0.07064448 -0.068499304 0.026856467
-0.031175042 0.012996117 0.019003868 0.009755421 0.061565116 0.024316916 -0.08251825 -0.04309265
-0.028053608 -0.0401277 -0.03345057 0.02256098 0.019864483 0.017158646 -0.015072498 -0.00024237804
0.11893103 -0.031653617 0.056839257 0.07098993 0.036784712 -0.002152822 -0.02103368 -0.03781007
-0.044206694 0.1952846 -0.030882608 0.012865588 -0.03854611 0.023306258 0.05032172 0.019230714
0.016031962 -0.0506318 -0.042087052 0.035582483 0.01810302 -0.019297503 0.0021097 0.01160961
-0.024315557 -0.011716276 0.009959676 0.008667495 0.00063485326 -0.0021376612 0.00861598 0.006962377
-0.031627167 -0.032868594 -0.0074351826 -0.0038068236 0.025905628 0.0016866327 -0.024487816 -0.057241723
-0.010397233 0.01480275 0.0017549486 -0.031236527 0.0147250425 -0.012674394 0.04019729 0.05574283
-0.019134749 0.005595222 0.024930445 -0.008501806 -0.025895838 -0.003721993 0.03985217 -0.01969577
-0.053916927 -0.0015430328 -0.024992319 -0.046250477 0.0003074924 -0.006675052 0.018228307 0.024221426
0.008244767 -0.0013984 -0.05721086 -0.022673935 -0.017192021 -0.06356782 -0.028734323 -0.003789691
0.0066079367 -0.006296964 -0.0910772 -0.039524257 -0.040175192 0.024496788 0.09982517 0.0002515461
-0.038328134 -0.0032071427 0.034726407 -0.010797272 0.029424665 -0.0043064733 0.03434661 0.0654523
-0.027532674 0.07562769 0.06212823 0.027129205 -0.04594574 -0.005208379 -0.010705473 0.0071866424
0.012429318 0.0014877542 -0.012446649 -0.043419793 -0.01202055 -0.07479991 -0.037801884 -0.049407028
-0.011234753 -0.019023545 0.026784524 -0.022537356 -0.056670513 0.008951932 -0.017051445 0.0060103876
0.020787204 -0.0039022525 0.04482278 -0.023844937 -0.017011456 -0.04205526 0.027598111 -0.043598298
-0.032751564 -0.007025895 -0.006224338 0.039101586 0.010814363 -0.0053559053 -0.027412042 -0.008053386
0.039824482 -0.03533569 -0.0031368646 0.028740577 0.040160436 0.0451029 0.060066905 0.14194243
0.009497178 -0.0004208635 0.0137370005 0.010322467 -0.009273194 -0.02680099 -0.032785125 -0.05084843
-0.028944643 -0.012242522 -0.03332009 -0.08619943 -0.021748979 -0.0050623 -0.013754664 -0.02409846
0.033030864 -0.0015888455 -0.003741014 0.027536793 -0.015660254 -0.007191907 0.0029286137 0.026610699
0.0034681722 0.015510806 -0.0062853815 -0.04064949 -0.0015997865 -0.03810502 0.02643972 -0.057240475
-0.019499611 0.06503816 0.03518969 0.08149316 -0.006350321 -0.005698021 -0.018885499 0.0034623644
-0.024129761 0.008913349 -0.011220687 -0.068749756 -0.08425984 -0.029829629 -0.014675874 0.024423061
0.00034253582 -0.09567223 -0.0040887194 -0.018207327 0.068671666 0.01684911 0.044867005 0.08882736
0.03715909 0.00786367 0.018217344 -0.025120275 -0.026395315 0.0043213917 -0.0023928506 -0.0011797935
-0.032158058 -0.0036768424 -0.011040792 -0.013335034 -0.038728688 -0.029310532 -0.021610657 0.14228418
-0.009049707 0.012756917 -0.042998508 -0.019366955 0.03222185 -0.036768 0.021718606 -0.06529065

features.7.bias f4 [256]
00000000: e500 59bd ff7e 2bbd e03a e9bc 33b0 91bc
00000010: 8429 2ebd 257d f23b 17b4 85bd b337 08bd
00000020: 3a96 f13c 2977 9cbb d4e6 d1bd beaa 42bd
00000030: cdc0 d5bb 7d2d 80bd 8081 8fbd fd60 91bd
00000040: a1b7 20bd ad71 23bd 640a d43c d127 bebc
00000050: 5af4 be3b 1867 87bc 42f4 e3bc 95af 32bd
00000060: c2be 04bd bdb3 15bd 5b92 9bbd c917 3ebd
00000070: 2938 25bd eaa8 ed3c 6f0b 77bd 8398 3e3c
00000080: 2cfa d6bc 2e0a e8bc fbeb 983c d5c9 7bbd
00000090: 0486 73bc 0d8d bf3c d031 653d e0e9 42bc
000000a0: f124 32bd 72ba 5ebb dfdb 74bd ddb7 d0bc
000000b0: e25c 39bc 7e78 e5bc a2de afbd 5e6d 10bd
000000c0: c323 edbc 5074 adbc 492b 823b 7428 98bc
000000d0: 4207 babc 59d8 6dbd dd6a 7fbd db23 803c
000000e0: e763 e23c 243c 50bd 9451 8abd dc3a 08bd
000000f0: b2db 4d3c 55f0 a03c a336 bbbd dc91 6cbc
00000100: d7a2 f23c e31e 0e3c 0ac3 1ebd f1ea be3c
00000110: d315 e73c 380f 933c e254 ffbc e1d1 d13c
00000120: 724e afbc 3fbb e1bc a22a 09bd 912c 4abd
00000130: 680a 91bc 806c 143d 565f 3abc 19f0 d03c
00000140: ec04 f53c 230a 193d 38ed 203d fee5 c3bd
00000150: 7f67 853c 3b43 08bd c819 d9bc 3bc8 df3c
00000160: b0a2 d5bc 757f 0dbd 5525 a0bc bf95 2fbd
00000170: c2cd e33b 80c0 0b3d 8d5c 683c 5264 9d39
00000180: 1ff2 aeb9 d42a 81bd 3a79 a9bd b769 d33c
00000190: eac7 35bd 88df 47bd e787 6bbd 17da 7abc
000001a0: 4788 2c3d 1048 b5bd 5eeb 05bd 0f48 85bd
000001b0: 0363 3dbd 30e9 89bd 4253 fb3c 297a 063c
000001c0: 26de 0cbd 08f3 ccbd 3c6e 52bc 0264 ccbd
000001d0: 3226 0b3d ccf9 9a3a b71c e7bc 2553 9fbc
000001e0: 53e5 013d 6eda 043c 18e6 1fbc a92e 99bd
000001f0: 3f8e fcbc 8283 6f3d b425 d63c 5e88 063d
00000200: 9aca 5cbd 3759 eeba 2b4d 773c c1b7 81bd
00000210: 8a29 f1bd b48f 88bc 3eb2 65bd 0b5b 3bbd
00000220: a1a8 5abd 1a7a 2dbc f937 10bd 52fd 5dbb
00000230: 6cdd 093d bd6e 0abb 0eaf 403b 9be3 35bc
00000240: ef2f f1bc 23b4 17bd 7816 d0bd 0d13 5bbd
00000250: 4f04 57bd d1c5 64bc 3165 643d d5e1 26bd
00000260: 47d2 9e3a 499f b03c 62a0 68bc f786 13bd
00000270: 86b3 e4b9 931c ddbc f03d b9ba fc51 f2bc
00000280: 2911 4c3c 8240 06bd 94bb 1d3d 0f62 3ebd
00000290: fb8c 11bc f6e1 30bd 5490 e3bc 8ac5 263c
000002a0: e8c6 42bd 716c 62bc 8be9 913c 2427 03bd
000002b0: f390 03bd 75e2 5abc 8eef 00bd 54e3 4ebc
000002c0: 22e3 06bd 93e8 903c c584 61bc aec0 dc3c
000002d0: 230d 02bd b2e0 6c3c 674e cbbc 0a33 17bd
000002e0: 5866 7abc f546 363d a9b6 843c 5c6f ad3c
000002f0: b000 563c 2a42 4cbd 6a1b 23bd 8958 9e3b
00000300: fd83 35bd ad56 2ebd d8ce 47bd 9d7f 063d
00000310: 80ed 9cbb 0d61 0fbc d353 303c 346f 01bd
00000320: 6a0a b5bd ec2b dfbd c18b 3ebd 0b12 42bd
00000330: 14ed b0bd 6e43 d9bd 13da b23c 7030 0b3d
00000340: a5f1 313d cf44 4abc 7b83 30bd 4c61 2cbd
00000350: c24a 31bd 38c0 93bc 1225 03bd e369 11bd
00000360: 538f 4abc df22 46bd 4ca7 14bc f109 29bd
00000370: f72a 89bd d306 c33c f0e8 82bc 1091 80bb
00000380: 2cbd 63bd 4183 16bb 8dee bebc 4e74 243d
00000390: 07ab 6dba b003 4a3c 2e05 b33c 95ae 1abc
000003a0: e24c 8dbd fe73 ddbc ff10 86bc 112b 5abd
000003b0: f6d7 a53c a669 dfbc 818a 2fbd 58cb 8dbc
000003c0: dc9a c63c 9be6 a83b 04f4 28bd 9db1 6cbc
000003d0: bdac c5bc d184 37bd a3c6 84bd 60e9 1a3d
000003e0: 4821 8abc 28d2 e2bd 9294 56bd cc0c 4bbd
000003f0: e0ac 6d3b 7aec 4bbd 3249 92bc 497a d93c
-0.05297937 -0.04186916 -0.028470457 -0.017784214 -0.04252006 0.0074001723 -0.0652849 -0.033256244
0.029490579 -0.004774947 -0.10249105 -0.047526114 -0.006523228 -0.06258676 -0.07007122 -0.07098577
-0.039237622 -0.03990333 0.02588386 -0.023212345 0.005827469 -0.016528651 -0.027826432 -0.04362448
-0.032408483 -0.036548365 -0.075962745 -0.046409402 -0.04033676 0.029011209 -0.06031364 0.011633041
-0.026242338 -0.028325167 0.018667212 -0.06147178 -0.014863495 0.023382688 0.055955708 -0.01189658
-0.04349226 -0.0033985642 -0.059779998 -0.025478298 -0.011313649 -0.028011557 -0.08587386 -0.03526055
-0.028947717 -0.021173626 0.003972445 -0.018573977 -0.022708539 -0.058067653 -0.062357772 0.015642097
0.027635528 -0.050838605 -0.06753841 -0.033259258 0.0125645865 0.01964585 -0.091412805 -0.014439072
0.029618664 0.008674356 -0.038760222 0.023305388 0.028208649 0.017951593 -0.031168405 0.025612773
-0.02139971 -0.027555106 -0.033487923 -0.049358908 -0.017705157 0.036236286 -0.011375269 0.025505112
0.029909573 0.037363183 0.03928873 -0.09565352 0.016284702 -0.03326724 -0.026501551 0.027317157
-0.026078552 -0.03454538 -0.019549051 -0.04286742 0.0069520185 0.03411913 0.014182222 0.00030020118
-0.0003336826 -0.06306997 -0.08275075 0.025807245 -0.044380106 -0.04879716 -0.057502653 -0.015310786
0.04212215 -0.088516355 -0.032695167 -0.06507885 -0.046237003 -0.0673393 0.030679349 0.008207836
-0.034391545 -0.10007292 -0.012843665 -0.099800125 0.033971973 0.0011823713 -0.028211934 -0.019448826
0.03171284 0.008108718 -0.0097594485 -0.07479603 -0.030829547 0.058475025 0.026141025 0.032844894
-0.053904153 -0.0018184547 0.015094082 -0.063338764 -0.11775501 -0.016670085 -0.056078188 -0.045741122
-0.053383473 -0.010588193 -0.03520963 -0.0033872915 0.03365843 -0.0021123134 0.0029401216 -0.011101629
-0.029441802 -0.037037026 -0.101605356 -0.053484965 -0.052494343 -0.013963179 0.055760566 -0.040742714
0.0012117111 0.021560328 -0.0141983945 -0.036017384 -0.00043621304 -0.026991164 -0.0014132839 -0.029580109
0.012455263 -0.032776363 0.038508967 -0.046480235 -0.00888371 -0.043184243 -0.027778782 0.010178933
-0.047552973 -0.0138198 0.017811557 -0.03201975 -0.032120656 -0.013359656 -0.031478457 -0.012627441
-0.032931454 0.017689025 -0.013764565 0.026947346 -0.03175081 0.014457868 -0.024817659 -0.03691391
-0.01528319 0.044501264 0.01620038 0.021171264 0.013061687 -0.049867786 -0.039821066 0.0048323316
-0.044315327 -0.04256313 -0.048781246 0.032836545 -0.0047890544 -0.008751166 0.010762173 -0.031600192
-0.08839877 -0.10897049 -0.04652 -0.04738049 -0.08638969 -0.10608564 0.021832502 0.03398174
0.04344334 -0.012345507 -0.04309414 -0.042084977 -0.043284185 -0.018035993 -0.032017775 -0.035501372
-0.012363273 -0.0483731 -0.00907309 -0.041269246 -0.06697648 0.023806965 -0.015980214 -0.003923543
-0.05560033 -0.0022966417 -0.02330711 0.04014998 -0.00090663176 0.012329981 0.021853056 -0.009441038
-0.0689943 -0.027032848 -0.016365526 -0.053263728 0.02024458 -0.027272057 -0.042856697 -0.017308876
0.024243765 0.0051544434 -0.041248336 -0.014446643 -0.02413022 -0.044804398 -0.064831994 0.03782022
-0.016861573 -0.110752404 -0.05238778 -0.04957275 0.0036266372 -0.04978607 -0.017857168 0.026547568

features.8.weight f4 [256]
00000000: c0e2 ac3f ac23 b43f c6a9 b03f b146 aa3f
00000010: e855 ab3f 5680 a13f 5492 ae3f c280 a53f
00000020: 69f0 a33f 312a a73f 02b1 b53f 45aa a23f
00000030: ebb9 a33f 6648 b33f 0065 aa3f 52a1 b13f
00000040: 94df bd3f 3a6d b03f 1db5 a93f 179b b43f
00000050: 4482 a73f d3d2 a33f 70e4 a93f 22e9 b33f
00000060: 5189 b03f f04f aa3f 585c b03f 1a1d a53f
00000070: ddb1 a43f 7dc9 b13f fce9 ad3f 7773 b73f
00000080: 1021 ae3f 1b29 b43f 5668 a93f 37d8 a73f
00000090: bb0d b63f a778 ae3f 621e b33f 4990 b43f
000000a0: fdc4 af3f 4650 b33f 88cd aa3f bcf6 a73f
000000b0: 66a1 b13f e111 ac3f a5b1 ae3f a983 b13f
000000c0: cdf5 b33f ba79 ae3f 8fcc a43f 8f74 a43f
000000d0: 6924 aa3f c8c7 a53f 3b0e ad3f 0bc7 a93f
000000e0: 7cfd af3f e9d0 ad3f 867c ad3f 6fea b43f
000000f0: 6ddc a93f d7bd a23f dd0c b43f da32 a53f
00000100: c682 ab3f 09de ae3f 51b3 a83f 6f90 a33f
00000110: b99b a73f 5c04 b13f 16d9 b23f 685d b63f
00000120: 0f93 a03f e069 af3f eb2a a43f e4df ac3f
00000130: 9907 af3f 62f5 a93f 043a ba3f b6b2 b93f
00000140: e647 be3f 3d29 a53f e214 b73f f449 ad3f
00000150: 25fc a33f 55cf b03f b0ea a83f ed79 af3f
00000160: d528 b03f f189 aa3f 4141 bf3f f31c b03f
00000170: 458d a23f 6a03 bf3f fe67 aa3f 67d2 a23f
00000180: 6b65 a83f d3e0 b33f c870 ae3f 4068 9f3f
00000190: a7c9 a13f ee0c ae3f d265 a03f b1fb b33f
000001a0: 41e3 af3f cd0a b23f 218f b33f abb6 b03f
000001b0: 0d6c b53f e2c6 b23f ebec a43f 804d aa3f
000001c0: e5cc b53f f75e b43f c3a8 b33f 8bd0 ae3f
000001d0: 4a00 a43f 72b7 b23f 6975 a83f 4638 a73f
000001e0: 6cf9 a53f 7566 b13f 4c10 b13f be65 af3f
000001f0: dc1d b23f f633 b53f d0ed a93f 14ec a83f
00000200: fe89 a93f fbda a63f a478 bb3f 6a38 b23f
00000210: 0eb3 af3f 5dab b33f 4455 ac3f 7309 ba3f
00000220: 06f2 a43f d680 b83f 3b3f ab3f 4ba0 a13f
00000230: 2698 a23f 4779 b23f 4875 a33f 51ac ad3f
00000240: 0706 a93f 46a3 a33f 5385 ac3f a7e5 b63f
00000250: 2544 b53f 58ad aa3f e6f2 b93f 4c2b ad3f
00000260: f454 a23f 12e1 a43f 5d12 a73f 466b 9f3f
00000270: 8c65 b53f 141b b53f 2cbd a03f bb70 a83f
00000280: 54d6 a23f 56eb ac3f eef0 ba3f ee34 bd3f
00000290: fdee b53f 22a9 ae3f d161 ba3f b476 b03f
000002a0: c5e9 b23f f406 ab3f 2569 a43f cdbe a93f
000002b0: 0386 b53f 72d2 a33f a17d a53f 23f9 aa3f
000002c0: d7ad a53f 5d16 b13f 6ed9 b83f e387 9f3f
000002d0: e940 a33f 3cb2 a43f 8f45 a33f 337b b23f
000002e0: cb97 b43f a70f b53f c0dc a13f 09e9 a93f
000002f0: 13c6 aa3f 69e7 a63f 8b0d b23f 5076 a33f
00000300: 7bc4 ae3f 5be3 aa3f 5257 b33f 29dd aa3f
00000310: ef87 b33f 35e5 a53f 110d b33f 0836 a43f
00000320: bbab b13f 4889 ab3f 2360 b33f c103 a83f
00000330: eac3 af3f b0fa af3f 9918 a93f 6a35 b03f
00000340: a6fd b23f 1166 b33f 9037 a33f 5576 af3f
00000350: 9176 b33f 664a aa3f cad2 a23f 3765 b33f
00000360: 8ce4 ad3f ead6 ac3f 6b8e a83f 5020 a73f
00000370: 3a90 b93f 0c93 b93f 366e a23f c4c6 ae3f
00000380: bb4d ae3f 9cd0 b13f 34e9 b33f 266b b13f
00000390: 9071 b53f 594c ae3f d2d3 a93f 0535 b03f
000003a0: c873 b13f 3bb2 b13f 5f09 a63f 4d83 a53f
000003b0: 19ec bf3f eb4b be3f 54f3 a23f 3fda a93f
000003c0: 5691 a43f 8275 b03f 5d7a ac3f 25c1 a53f
000003d0: 3d20 b03f 228c a93f 7acd b23f 7715 a53f
000003e0: 9707 b43f 94e6 ae3f 4fc5 a23f 7e3a b53f
000003f0: 37f3 a13f cf48 a83f 9a09 b13f c7c7 b73f
1.3506699 1.4073386 1.3801811 1.3302823 1.3385592 1.261729 1.3638406 1.2929919
1.2807742 1.3059751 1.4194643 1.2708212 1.2791113 1.4006469 1.3312073 1.3877356
1.4833856 1.3783333 1.3258396 1.410983 1.3086629 1.2798713 1.3272839 1.4055521
1.3791906 1.3305645 1.3778181 1.2899506 1.286678 1.3889614 1.3587031 1.4332112
1.360384 1.4075044 1.3234966 1.3112859 1.422294 1.363057 1.3993647 1.4106532
1.3731991 1.4008873 1.3343973 1.3122172 1.387738 1.3442956 1.3647963 1.3868304
1.4059387 1.3630898 1.2874926 1.2848071 1.3292361 1.2951593 1.3519968 1.3263868
1.3749232 1.3579379 1.3553627 1.4134043 1.3270394 1.2714185 1.4066426 1.2906144
1.3399284 1.366151 1.3179723 1.2778453 1.3094398 1.3829455 1.3972499 1.4247255
1.2544879 1.3704185 1.2825598 1.3505826 1.3674194 1.327801 1.4548955 1.4507663
1.4865692 1.290321 1.4303248 1.3538194 1.2811323 1.3813273 1.3196621 1.3709084
1.3762461 1.3323346 1.4941789 1.3758835 1.2699362 1.4922917 1.3312986 1.272046
1.315595 1.4052986 1.3628168 1.245369 1.2639664 1.3597696 1.2531073 1.4061185
1.3741227 1.3909546 1.4028054 1.3805746 1.41736 1.3966944 1.2884802 1.3304901
1.4203154 1.4091481 1.4035877 1.3657392 1.2812588 1.3962233 1.3160831 1.3064048
1.2966743 1.3859392 1.3833098 1.3702924 1.3915362 1.4156482 1.32757 1.3197045
1.3245237 1.3035578 1.4646192 1.3923466 1.3726518 1.4036671 1.3463521 1.4534134
1.288636 1.4414318 1.3378671 1.2627043 1.2702682 1.3943261 1.2770166 1.3568212
1.3204964 1.2784202 1.3478187 1.4288834 1.4161421 1.333415 1.4527252 1.3528838
1.2682176 1.2881186 1.3052479 1.2454612 1.4171615 1.4148889 1.2557731 1.3159403
1.2721658 1.3509319 1.4604776 1.4781778 1.4213558 1.3645365 1.4561101 1.3786225
1.3977591 1.3361497 1.2844588 1.3261353 1.4181522 1.2798598 1.2928964 1.335728
1.2943677 1.383495 1.4441354 1.2463344 1.2754184 1.2866893 1.2755603 1.3943847
1.4108824 1.4145402 1.2645493 1.3274242 1.3341697 1.3039371 1.3910383 1.2770481
1.3653711 1.3350633 1.4011023 1.3348743 1.4025859 1.2960573 1.3988363 1.2828989
1.3880533 1.340127 1.4013714 1.3126146 1.3731663 1.3748379 1.3210632 1.3766301
1.3983657 1.4015523 1.2751331 1.3707987 1.4020559 1.3303955 1.2720578 1.4015263
1.3585372 1.3503087 1.3168463 1.3056736 1.449714 1.4498 1.2689884 1.3654408
1.3617471 1.3891788 1.4055543 1.3860824 1.4175282 1.361705 1.3267767 1.376618
1.3863459 1.3882517 1.297161 1.2930695 1.4993926 1.4866918 1.2730508 1.3269728
1.2856853 1.378586 1.3474842 1.2949568 1.3759838 1.324589 1.3968956 1.2897176
1.4064816 1.3664117 1.2716464 1.4158475 1.2652348 1.314722 1.3831055 1.4357842
