model_BD.pth (torch, 548216 bytes, 26 tensors)

weight f4 [32, 2, 3]
00000000: 8a3c a6bd ebe8 aebe f463 b7be 6de8 ebbe
00000010: 0f43 0abf 9ed7 e5be 4d69 b4bc f41e f5be
00000020: 8a0b a7be 5878 3c3d dc3d 42bf 0748 15bb
00000030: 0345 fbbe d2a5 613c ba58 b63f 8587 05bb
00000040: 4155 9139 464e 25bb 3294 073f 8488 803e
00000050: 9c0c 64be b29d 60be 52eb 1d3f 12cb f03e
00000060: 529b 13bd fdd9 ebbe b22b 60be e744 883c
00000070: 95f5 093d 98b8 213f 650c 24bf c965 1cbf
00000080: f700 963d 926e 053f 2b20 2f3c 316f 133d
00000090: 78fe 643e 4e91 89be 576f 083f ac58 21bf
000000a0: ce6b 54be 0ec0 8fbe 06ac 1dbe 7866 3bbe
000000b0: ed68 1c3f 4e18 b4be b8be e4be 51be 0a3f
000000c0: 2a8d 8dbf 853a 7fbc 7774 8c3f 9901 7eb9
000000d0: 254f 573b b952 f9ba 487c 583e 6e27 d73e
000000e0: 7510 d83e c5b0 97be f88f adbd fa4e 53bf
000000f0: 108c 4f3f eb8e 923f c66b a7be 6538 913d
00000100: 4a75 d93d 8287 62bc 8113 9ebe f2b3 27be
00000110: 5119 b9bd 3a48 cbbe e0ca 4e3f 6fe4 a73e
00000120: 76f2 6b3f 3162 4abe e891 383d 5a94 82be
00000130: 0350 97be e2d2 8ebe 0dd0 24bf 3e28 ebbe
00000140: c6ef b8be 194b 123c b44b 33be 1953 853e
00000150: d180 a6bf 607c 5c3f 91dd 533d eacb d9bd
00000160: 9706 d53c 2bc3 79bd 601e 623f 3703 3a3f
00000170: 4366 e63e 90d6 ed3d fadb 273d e40f bf3c
00000180: 93a7 b2bb f418 d9ba b9ce 4b3b 03ec debf
00000190: 2752 8ebc 9b1e ce3e 0646 42bf 3324 4ebf
000001a0: 0ab4 94bc 609b 823c 4d36 b43c 5b7d 313c
000001b0: a2d8 d33d cf25 913d 1308 2e3d 5b3f 073f
000001c0: a2b5 0e3f e1e0 053f b5e6 3a3f d665 013f
000001d0: 1f2c cabd 5c27 ea3d 90a2 123e c90b 06bf
000001e0: d510 afbc 1d13 64ba c2e9 253c 0f4f c440
000001f0: 8436 9e3c 6fcd 203c 9c72 b5be fddf b7be
00000200: 745c 4abf 39eb b43e 73eb 1b3d 00af 19bd
00000210: 86be 513c f811 a83b 01ed 753c d040 79bf
00000220: 2a8d 55bf 5973 77bd c8cd db3e b933 473e
00000230: a5f1 513e 9874 b3be bbbd 2fbf c64f d83d
00000240: d510 ec40 8d0f 55bb 63dd 88bc cdc4 c1bc
00000250: 1620 7f3a 36f8 71bb 4d2f a83e cb79 8c3e
00000260: 7c1a 463f 1795 08be a172 ca3e 7d3b 3c3e
00000270: 81bd e6bc 89e3 e8bd 4b48 62bf d83f acbe
00000280: da33 9b3d 1d72 8d3e fea0 cfbe b33d 94be
00000290: 6a46 babe f44a af3e 8c7e 9e3e 881b f6bd
000002a0: 04ee b1bc 2ca7 893e e069 dbbe f0e8 ee3e
000002b0: a2d4 8bbe 1eed eebe ecec 02be e524 8bbe
000002c0: f9c8 c43e c14b 003e eda6 30bf 901c 1bbf
000002d0: 93c6 94be 45bc 30bf b1d3 273e d501 773e
000002e0: 5ad5 043f f20b 9bbd 0790 d93e dcad 66be
000002f0: b6f1 5bbe 7534 103f 7d4a 4fbd 093c dbbe
-0.08117016 -0.34162077 -0.35818446 -0.46075764 -0.54008573 -0.44891065 -0.022022868 -0.47875178
-0.3262599 0.046013206 -0.7587564 -0.0022778527 -0.4907609 0.013772445 1.4245827 -0.0020374965
0.00027720074 -0.0025223657 0.52960503 0.25104153 -0.22270435 -0.21935156 0.61687195 0.4702993
-0.036036797 -0.4606475 -0.21891668 0.016634418 0.03368147 0.6317229 -0.6408141 -0.6109281
0.07324403 0.5212184 0.010688822 0.035994712 0.22362697 -0.2686867 0.5329489 -0.6302593
-0.20744249 -0.28076214 -0.15397653 -0.18300807 0.61097604 -0.35174793 -0.44676757 0.5419665
-1.1058705 -0.015577917 1.0973042 -0.00024223923 0.003285357 -0.0019021846 0.2114116 0.4202227
0.42200056 -0.29627052 -0.084747255 -0.82542384 0.81073093 1.1449865 -0.32699412 0.070908345
0.10618074 -0.013826253 -0.30874255 -0.16377237 -0.09038032 -0.39703542 0.8077831 0.32791469
0.9216684 -0.1976402 0.045061022 -0.25503808 -0.29553232 -0.27895266 -0.6437996 -0.4592914
-0.36120433 0.0089290375 -0.17509347 0.2603996 -1.3008062 0.8612728 0.051724974 -0.10634597
0.026004119 -0.060977142 0.883276 0.72661155 0.44999894 0.1161319 0.04098127 0.023323007
-0.0054521053 -0.0016563223 0.0031098558 -1.7415775 -0.017373158 0.40257725 -0.758881 -0.80523986
-0.018152256 0.01594323 0.021998549 0.01083311 0.10344054 0.070872895 0.04248817 0.5283105
0.557459 0.5229626 0.7300828 0.50546014 -0.09871697 0.114332885 0.14319825 -0.5236173
-0.02137033 -0.0008700358 0.010126533 6.1346507 0.019313104 0.009814604 -0.35439003 -0.35913077
-0.7904732 0.3533571 0.03806634 -0.03752041 0.012801772 0.005129095 0.015010119 -0.9736452
-0.83418524 -0.06041274 0.42930436 0.19453324 0.20502336 -0.3504989 -0.6864888 0.105620906
7.3770547 -0.003251049 -0.016707128 -0.023653412 0.0009732259 -0.0036921627 0.32848588 0.2743667
0.7738416 -0.13338123 0.3954058 0.18382068 -0.028166534 -0.11371524 -0.8839156 -0.3364246
0.07578249 0.27626124 -0.40552515 -0.28953323 -0.36381847 0.34236872 0.30955923 -0.1201697
-0.02171994 0.26885355 -0.42854214 0.46662092 -0.27310663 -0.4666528 -0.12785691 -0.27176586
0.3843458 0.12528898 -0.6900471 -0.6059046 -0.2905775 -0.69037277 0.16389348 0.24121793
0.5188805 -0.07570638 0.42492697 -0.2252726 -0.21478924 0.56330043 -0.050608147 -0.4281924

bias f4 [32]
00000000: e8fc 9fbe 4cf3 dd3e d860 90be f897 683e
00000010: c1e7 973d f259 dc3e 9055 ecbc ae86 68be
00000020: 6f6a 10bf c23b 83be 7748 ce3e 8ed3 6f3e
00000030: e4d5 98bd 03e8 4fbc 498b 0cbe 3b60 053f
00000040: b626 90be 80ff 3c3d dbb0 023e 5826 1dbe
00000050: d7c4 e83e 2a16 31bc 00c9 063d 7fef 14be
00000060: b611 153f 87f0 e3bd 0403 abbe 5629 ccbe
00000070: 938d c6be b70b d8be 69a9 ad3e 3c28 85be
-0.3124764 0.43349683 -0.28198886 0.22714221 0.074172504 0.43037373 -0.028849393 -0.22707626
-0.56412405 -0.2563153 0.4028966 0.23420545 -0.074626714 -0.012689593 -0.13725008 0.5209996
-0.28154534 0.0461421 0.12762778 -0.15346658 0.45462677 -0.010808507 0.032906532 -0.14544486
0.5823015 -0.11129861 -0.33400738 -0.39875287 -0.38779888 -0.42196438 0.33918312 -0.2600726

weight f4 [64, 32, 3]
00000000: 6abb b2bc ed03 9cbe 76b4 603c b7d6 4b3d
00000010: 1bfd 33be c564 3bbd be8e 8b3e 3452 193f
00000020: 85a5 f4bc 67d3 9ebe 4d4c f6bc 2d33 5e3e
00000030: 1895 863e 4c4c 93be 76df 8d3c 6a0c d2bc
00000040: c370 44be 0f12 b2be d986 dc3c fa81 46be
00000050: 752f 0fbe 5ba2 033e 5e7a e2bb 8e3d e73c
00000060: fa46 16bf 00d0 31be 801c a3bf a634 abbe
00000070: ec46 d63e d58a a7be 68f5 ea3d 3ba4 823e
00000080: d459 ff3d 13e2 23be 2caa 023d aa3d 25be
00000090: ac93 d03d 1511 47be ae9f 753e ca50 dcbe
000000a0: edf9 b0bd 7a74 58bf 4c01 27bd 7a0e 493e
000000b0: 780b 9fbe 13e9 9dba 1382 a23e a147 a5bd
000000c0: f62d 893d 2840 ce3d 0df9 143e aa95 72be
000000d0: 788c 22bf a49e dfbe 4176 da3d bfbd 9a3d
000000e0: 9661 833d 3ef5 e1be 31ee 523e f07b 683e
000000f0: cea0 cf3c cdfb 0f3e ab3d 2c3d d5a9 19bf
00000100: d9c8 41be 722e 15bf 8f61 66be d705 293e
00000110: faf3 1dbd 77d2 96be b780 0dbe 7ec8 f13d
00000120: fef2 c9bd 8039 17bf 8da7 503d 4067 ca3d
00000130: a81d 25be 0586 e83d d026 48bf 3b14 8abc
00000140: f397 dbbd f324 b3bf 8dde 29be 150a 5abf
00000150: 228b 15bf b40f 6bbe dce4 d5bd b5d0 27be
00000160: a075 18bf 847c 24be 721c a3be 1551 b5be
00000170: 8e77 413e 5bd1 073d 9223 3dbe f730 933e
00000180: 07be 033d 9951 c4be 7c8f c7be ae5d 12be
00000190: ab8c 00be 6c45 973d 7893 2cbe 22de 5dbd
000001a0: c4cc aabe 346d 713e a97e 2c3d 75ee 143e
000001b0: 0417 753d 8985 873d 24d1 cfbd a724 a0bf
000001c0: 0059 c33d 5f84 f0be 3cf0 12bd 480f 28bd
000001d0: 2ef7 1cbd e8c3 6abb 9edb b2be 3d08 263d
000001e0: 1b3f 7abe 94c2 57bc f19c 063d f75a 743d
000001f0: 627d 8b3e 212d e73d df8a e43d 12da c43c
00000200: 58d7 96be 573c 97be 2bcb 9dbe 9bed 463e
00000210: b4f5 5e3e b07a 4cbe 9b77 e63d 74a1 53bf
00000220: 7a7b 0cbf e3a2 30be 76f7 94be bec3 82be
00000230: 3368 c0bc 78f5 673e 490e 3a3d 485c e1be
00000240: 6172 213e fc68 f43d 0ba4 043e 2b30 a9bf
00000250: 8dff 4abe 4df5 03bf 3419 2bbe c5b4 e2ba
00000260: a927 0fbe a919 cc3e dae7 8f3e b7ff 223e
00000270: d1d6 b1bd ab9c 4c3e 0782 ec3d f4e8 5fbf
00000280: b422 44bf ec3a 5abf 0f58 1e3e ac6d 43be
00000290: f7ba dfbc 163c e03d ae88 eebd 8f60 f73e
000002a0: 0065 d93e 0d97 733e d7e4 af3e 4874 aa3e
000002b0: 5678 e53e 520d f73e 36d7 a83e 00bf 80be
000002c0: fc1a 07bf 5c02 c4be 1ee9 a2be c6fc bfbe
000002d0: 0ab4 50be 996d 89bd 898d c93e 38cc 05bf
000002e0: bd45 953d 65dc f33d 7dd4 06be 5a62 043e
000002f0: 7c44 66be 7015 e6bd f858 853d 9c0c a43e
00000300: fb6d fdbe a2d0 b83d 6a3d 2abd a6a4 83be
00000310: f931 33bd a7ca b6bc 8e54 4d3f 137f ec3e
00000320: 8bb1 433e 3203 03be 8ba6 103d 5988 5dbe
00000330: 224d 2cbf 2192 563e 64a4 f63b e756 57be
00000340: 1b09 98be f1bb d03d fa88 0dbf b5fe 9abb
00000350: 6acc 28be bda1 8dbe 6a65 2c3d 196f ea3c
00000360: abfd 92be a29e 8abf c3c1 8fbe 71f8 0ebe
00000370: 6578 13bd 14ba 09bc 998f 6c3e 5f80 7c3e
00000380: bbc5 e53d d73e b3bd b31a 513d c4ba 68bd
00000390: 513a a93e f573 733e edf4 c53e b731 763e
000003a0: 613b 3bbf d01b 5d3e c9e6 cf3e 70c1 60be
000003b0: 9af8 8f3e c66d 373e 2a99 e63b 186a 403e
000003c0: 1577 16be 13b5 56bd 7842 743d 3919 bdbe
000003d0: c92f 953d 56a0 fa3d 33d0 b8be 7b0c 693e
000003e0: d0b2 283e 2f2d 743e 6bc5 8d3c f060 e63d
000003f0: de73 5abc 7a5b 393d 8c85 4a3e b7d6 3e3e
-0.021817882 -0.30471745 0.0137149 0.049765315 -0.17577021 -0.0457504 0.2725734 0.59891057
-0.029864082 -0.31020662 -0.03006568 0.2169921 0.26285625 -0.28769147 0.017318469 -0.025640685
-0.1918364 -0.34779403 0.02691977 -0.1938552 -0.13982947 0.12854902 -0.00691156 0.028227594
-0.5870205 -0.17364502 -1.2743073 -0.33438605 0.41850984 -0.32723108 0.11472589 0.25515923
0.12468305 -0.16004209 0.03190057 -0.16136804 0.10184416 -0.1944011 0.23986694 -0.43030387
-0.086414196 -0.8455273 -0.04077272 0.19634429 -0.31063437 -0.0012047611 0.31739864 -0.08070303
0.066982195 0.100708306 0.1454813 -0.23689905 -0.6349559 -0.4367572 0.106670864 0.075557224
0.064150974 -0.44132417 0.20598675 0.22703528 0.025345232 0.14060898 0.042051 -0.6002477
-0.18924274 -0.58273995 -0.22498153 0.16506134 -0.038562752 -0.29457447 -0.13818632 0.11805819
-0.098608 -0.59072113 0.05094104 0.098829746 -0.16124594 0.11353687 -0.78184223 -0.01685535
-0.107223414 -1.3995651 -0.16588803 -0.85171634 -0.58415425 -0.22955209 -0.10444042 -0.16388209
-0.5955448 -0.16063124 -0.3185764 -0.35413423 0.18893263 0.03315864 -0.184706 0.28748295
0.032163646 -0.38343504 -0.38976657 -0.14293548 -0.1255366 0.07386288 -0.1685313 -0.05416692
-0.3335935 0.23576814 0.04211298 0.14544089 0.059836403 0.06617267 -0.10147312 -1.2511185
0.0953846 -0.4697599 -0.035873637 -0.0410302 -0.038321666 -0.0035822336 -0.3493318 0.0405352
-0.24438135 -0.01316895 0.032864515 0.059657063 0.27244097 0.112879045 0.111593 0.024029765
-0.2946117 -0.29538223 -0.30819067 0.19426577 0.21773416 -0.19968677 0.11253282 -0.8266823
-0.5487591 -0.17249636 -0.29095048 -0.25539964 -0.023487186 0.22652233 0.04542378 -0.44015718
0.15766288 0.11934087 0.12953202 -1.3217825 -0.19824047 -0.51546174 -0.16708833 -0.0017296305
-0.13979973 0.39863327 0.28106576 0.1591786 -0.08683551 0.19981639 0.11548238 -0.87464833
-0.7661545 -0.8524616 0.15463279 -0.19084805 -0.027310831 0.109489605 -0.11647163 0.48315856
0.4245987 0.2378809 0.34354278 0.3329184 0.44818372 0.4825235 0.32976693 -0.2514572
-0.5277555 -0.3828305 -0.3181848 -0.37497538 -0.2038118 -0.06710357 0.39365795 -0.5226474
0.07288692 0.11907271 -0.13166995 0.12928143 -0.22487062 -0.11234558 0.0651111 0.3204087
-0.4949797 0.090241686 -0.041562475 -0.25711554 -0.04374883 -0.022313429 0.80207145 0.461907
0.19110696 -0.12794188 0.035315078 -0.21634044 -0.67305195 0.20954181 0.007526921 -0.21029244
-0.29694447 0.10192097 -0.55287135 -0.0047300705 -0.16484228 -0.2766246 0.042088903 0.028617429
-0.28709158 -1.0829661 -0.28077516 -0.1396196 -0.03600349 -0.008406181 0.23101653 0.24658345
0.11219355 -0.0875222 0.051050853 -0.05681874 0.33052304 0.23774703 0.38663426 0.24042402
-0.7313748 0.21592641 0.40605763 -0.2194879 0.28119355 0.17912969 0.0070373015 0.18790472
-0.14693864 -0.05241878 0.059633702 -0.36933306 0.07284505 0.12237613 -0.36096343 0.22758667
0.16474462 0.23845361 0.01730605 0.11248958 -0.013333289 0.045253254 0.19777507 0.18636595

bias f4 [64]
00000000: f11b b4bb 601f 2cbd fd09 cebd 6ada 163e
00000010: 0a5d ce3d df88 3e3e 44ff 14bd 80fb f2bd
00000020: 7ec1 39be 637b a4bb fbe1 dcbd ddd9 43bc
00000030: fb93 2bbd 7404 183c 6f04 b7bd 7971 6a3e
00000040: 4ab7 7dbd b478 8abd d3fb b1bd b183 e93d
00000050: f8d0 903d a6ab 79bb f0df b73d 8787 243e
00000060: 0a09 e7bd 3f15 db3d dcf7 dbbd c1ab b5bd
00000070: 9e0f 1cbd 0643 ffbc f2db 313d 8044 22be
00000080: 05c8 703e 22c5 f83d 8116 d6bd 9b8e 0dbd
00000090: a09c a5bc befb 34bc 4f54 e6bd e068 1d3e
000000a0: 316e 95be 2dc2 473e a72a cb3d e696 8dbd
000000b0: 9d22 08be 4ff8 283c 3957 d5bd 903f 86bd
000000c0: 1f57 28be f14c 9239 b1c9 113b 9bac 0fbe
000000d0: 1346 3dbd e006 343e 0c7c 293e d798 333b
000000e0: a9e1 a03e 7013 c7bd 0803 60be a85a 1dbd
000000f0: a1cf cebb b017 02be b2e6 9d3c 1807 8d3d
-0.005496495 -0.04202211 -0.10060499 0.14731756 0.100763395 0.186069 -0.036376253 -0.11864376
-0.18140218 -0.0050195917 -0.1078529 -0.011953798 -0.041889172 0.009278405 -0.089363925 0.22894849
-0.061942376 -0.067613035 -0.0869061 0.11402071 0.070711076 -0.0038096695 0.089782596 0.16067325
-0.11281021 0.10697412 -0.10740635 -0.0887065 -0.03810083 -0.031159889 0.043422647 -0.15846443
0.23513801 0.12146975 -0.10453511 -0.034559827 -0.020216286 -0.011046348 -0.11246549 0.15372038
-0.29185632 0.19507666 0.09920245 -0.06913547 -0.13294454 0.010313108 -0.10417027 -0.06555092
-0.16439484 0.00027904616 0.0022245462 -0.14030688 -0.046209406 0.17580748 0.16551226 0.0027404332
0.31422165 -0.09720504 -0.21876156 -0.038416535 -0.0063113724 -0.12704349 0.019275043 0.06886119

weight f4 [128, 64, 3]
00000000: 24b6 0e3e 08bd b6be 6571 82be b549 7ebd
00000010: f654 83bb c092 3fbe 1ee1 833e f486 f23c
00000020: d75a 573e bf5e 04bf 9b24 30bc f51c 623d
00000030: 333e 5fbe c1b4 d1be 5ba9 8fbd d726 a53e
00000040: 62d0 0e3e fda2 11bd a55a 273e d819 a33e
00000050: f857 1dbf 1927 913e f862 99bb 3917 d83e
00000060: 6f7e e0bd 7b5d edbe 8b06 03be 23d0 9e3d
00000070: 9508 b33c 4087 b0bd 7e9b 3d3e 1020 dbbc
00000080: 5766 a03e 50dd ccbe 865a 29be 8d76 4bbe
00000090: 13bf 9c3e 7f70 a03e 1108 ab3c c68d efbe
000000a0: f321 fa3d 0c56 2bbd c169 19bf 07b5 57be
000000b0: cd1f 6e3e 3714 f4be 28c7 6cbe c738 c6bd
000000c0: 3434 76bd 3ecf 33be f02f b23d dccb debe
000000d0: 405f 163e c20b 16bc 234a ba3e 0da7 57be
000000e0: 0ace 993e 89b4 9fbe f03b 373d 12fa 983d
000000f0: 1970 633d 93c9 8bbe 5a7f 6abe a13d a5be
00000100: ff89 33be 0424 9cbe 571f 243e 4a68 ea3e
00000110: cf73 6fbe 6126 77be 162c 4dbf 32d9 e13c
00000120: bcb8 7d3e 1d62 873e cdd2 2fbf c99a c33a
00000130: daf3 903e 0575 d03d 2017 1e3d e7e1 43bf
00000140: 1bbf 1fbf 9529 003d 3a70 c5be f13f 973e
00000150: d5f5 933d cca7 4cbf 57b1 4bbf 7a35 a8be
00000160: d023 5bbe 083b d7be 902f 343e 2e7c 0d3e
00000170: b2b6 8cbc 72ac 263e 4443 143e 63d3 84be
00000180: 6725 8b3e 76de 03bd b19e 85be 2bf4 fbbd
00000190: b5de 3abe 0f11 8fbe b3c0 be3e f4a7 913e
000001a0: dfac 1d3f e728 b3be 7336 7b3e 6c6d 4e3e
000001b0: d7cc 1d3f 4e54 8bbd 18b3 9ebd b440 133d
000001c0: 0754 47bd 3ddc 25be 170a f2be 0404 35bf
000001d0: adb8 8bbd f7de b9bd b30c 9ebd 1af4 ab3e
000001e0: 2f56 89be 2b71 dfbb a338 e63c d76f 7dbc
000001f0: be90 9a3e f009 e33e 9123 23be 976c 1ebf
00000200: 9cf8 2dbd f3b7 cdbd d8e0 bbbd a8ac a0be
00000210: 4361 d7be 7a4c e3bc 0996 95bc b474 79bc
00000220: c536 1bbe 368d 01bf 20b6 903e eaab acbd
00000230: 6de7 f63d d555 603e 7499 b0be bc9d 08be
00000240: 608e f63b 4775 aebe 1cb7 e4be 83d4 2c3e
00000250: cb50 15ba 0f93 0ebf 93ec 8a3e eb60 0cbf
00000260: dbd8 8cbd 454d 423e 0283 f8bd 5413 1bbf
00000270: 01e5 0dbe 694e c43d 490d a4bc 1748 7d3d
00000280: 86ad 5b3d 6e84 913e 4629 0a3e a839 c2be
00000290: aa62 1b3c 5e6b 853e 721d 00bd 9013 bcbe
000002a0: 654f 663f 5770 6f3e 5007 e93d 5329 08bc
000002b0: 6931 bf3e 2ecd 8f3d a7be 893e db9b fb3e
000002c0: 283c 833e 5902 323e 88d3 7ebe 3b19 d1be
000002d0: 2969 433e d4e0 d73d 654e 27bf 4f33 8abe
000002e0: ebc8 9dbd 3301 df3e 8feb c83e a659 49be
000002f0: cba9 83bf 94be 383c 09f7 b73d fc53 d4bd
00000300: 3e23 57be 2c86 d33e 229a b43e 2748 883e
00000310: 9f3f 97be 1c94 af3e dbc1 19be f3f0 4e3c
00000320: e553 b43d f049 4e3e 71e4 d53d 7ffb 203e
00000330: 8dab 9d3e 0e58 1ebe a502 3fbe 2ca8 de3e
00000340: 837e d43d 5455 0dbe 3c12 083d 4425 8fbe
00000350: 93e0 a7be e48a 03bf 7673 88be 92ef 8fbe
00000360: b8bc e53e ab27 563e 9605 88bd aa4d e5bd
00000370: 2304 12be 267e fb3d 3b89 88bd a02d f7be
00000380: 204c 123e 40f9 b33e 7659 d03e b1ef 303e
00000390: d0ee 2b3e 7300 423e edd3 a93e 3fc8 793e
000003a0: 3459 c6bd ecd8 68be 6cfe 923d 87e0 6b3e
000003b0: 5aa5 c33e 65f5 91bd c4cb b5bd a8d2 cd3e
000003c0: 6e52 913e 01f2 9e3d 8002 3cbd d4a6 fcbe
000003d0: 1d89 9c3e 4099 553e 4883 863d cc5c abbe
000003e0: afe1 9abd f03d 33be a552 73be 9d72 a43d
000003f0: bef9 24bf 9faf 843d 67d4 243f 2747 273d
0.13936669 -0.35691094 -0.25477138 -0.06208201 -0.004007931 -0.18708324 0.25757688 0.029605366
0.21030746 -0.5170707 -0.010750915 0.055203397 -0.21801071 -0.40958217 -0.07014724 0.32256195
0.13946679 -0.03555583 0.16343172 0.31855655 -0.61462355 0.28350142 -0.0046809874 0.42205217
-0.10961615 -0.46360382 -0.12795465 0.07754543 0.021854678 -0.08619547 0.18516347 -0.026748687
0.3132808 -0.40012598 -0.16538438 -0.19869442 0.30614528 0.31335828 0.02087787 -0.46787852
0.122135065 -0.041830108 -0.5992699 -0.2106515 0.23254319 -0.47671673 -0.23122847 -0.09678798
-0.06010838 -0.17559525 0.087005496 -0.43514907 0.14684772 -0.009158077 0.36384687 -0.21059819
0.30040008 -0.31192425 0.044734895 0.07469572 0.055526827 -0.27302226 -0.22900143 -0.32273582
-0.1753311 -0.30496228 0.1602758 0.4578269 -0.23384021 -0.24135734 -0.80145395 0.027569387
0.24777502 0.26442042 -0.6868103 0.0014923449 0.28311044 0.1017857 0.038596272 -0.76516575
-0.6240098 0.031289656 -0.38562185 0.2954097 0.07224623 -0.7994354 -0.79567474 -0.328533
-0.2140038 -0.42037225 0.17596269 0.13816902 -0.01717696 0.1627672 0.14478785 -0.25942525
0.27176973 -0.032194577 -0.26097634 -0.12302431 -0.18249018 -0.27942702 0.37256393 0.2844845
0.61591905 -0.34992144 0.2453249 0.20158929 0.61640686 -0.06803189 -0.07749003 0.035950378
-0.04866412 -0.16197295 -0.47273323 -0.7070925 -0.068223335 -0.0907573 -0.07717266 0.33584672
-0.26823565 -0.0068189106 0.028103178 -0.015468559 0.30188555 0.4434352 -0.15931536 -0.61884445
-0.04247342 -0.10044851 -0.09173745 -0.31381726 -0.42066392 -0.027746428 -0.018260019 -0.015225578
-0.15157612 -0.50606096 0.2826395 -0.084312275 0.1205586 0.21907742 -0.34492075 -0.13341421
0.0075242966 -0.3407385 -0.4467095 0.16877942 -0.0005695938 -0.55693144 0.27133617 -0.54835385
-0.068772994 0.18974788 -0.12134363 -0.6057637 -0.1385689 0.09585268 -0.020025866 0.06183633
0.05363228 0.28421348 0.13492307 -0.37934613 0.009483973 0.26058477 -0.03127808 -0.36733675
0.89964896 0.23382698 0.11378348 -0.008310634 0.37342384 0.07021557 0.2690327 0.49142346
0.25631833 0.17383708 -0.2488538 -0.40839562 0.19083084 0.105409294 -0.65353996 -0.2699227
-0.07704338 0.43555602 0.39242217 -0.19663104 -1.0286192 0.011275906 0.08982665 -0.10367581
-0.21009538 0.41313303 0.35273844 0.26617548 -0.29540727 0.34292686 -0.15015356 0.012630689
0.08805064 0.20145392 0.10443962 0.15720938 0.30794945 -0.15463278 -0.18653353 0.4348768
0.10375693 -0.13802081 0.033220515 -0.2795812 -0.32788524 -0.51383805 -0.2665059 -0.28112465
0.44870543 0.2091357 -0.066416904 -0.11196454 -0.1425939 0.1227992 -0.066668 -0.48276997
0.14286852 0.351511 0.40693253 0.17278935 0.16790318 0.18945484 0.331695 0.24392794
-0.09684983 -0.22738999 0.07177433 0.23034869 0.3821209 -0.071268834 -0.08876756 0.4019978
0.283832 0.07761002 -0.04590082 -0.4934603 0.3057336 0.20859241 0.06568009 -0.33469236
-0.07562577 -0.17504096 -0.23761995 0.08029673 -0.64443576 0.064788096 0.643866 0.04083934

bias f4 [128]
00000000: c4a3 d6bc 7840 9b3d 84d2 4abd 6165 0f3e
00000010: 6d03 ac3d fce1 b83c 5e48 1bbe 59e8 9d3c
00000020: 3189 663d 90e9 3c3e 2f7d f63c c64a 11bc
00000030: b234 943d 2ec0 a33d acda aa3d c1a8 16bc
00000040: b13c 39bc 7666 57bc 09dc cc3d 4ebe b63d
00000050: 383d ae39 064d 413e b21b 49bd 02c6 833c
00000060: 5a66 af3d 7297 b33d 2aa1 2e3e f554 fc3d
00000070: 4f5e 413e 0669 ce3c 9fc4 803e 18db 41bd
00000080: c35c 673e f772 9fbc c692 2d3d 1ac9 d23b
00000090: 862a f53d 1125 2c3e 2326 c43b c700 1b3e
000000a0: ffa6 c43d bf1a 123e 139b 083e 2f00 b33c
000000b0: 4a64 373d 7918 103c c8a6 7a3d 1fbd 93bc
000000c0: fc6d 033e 7e16 d03d fa53 1f3e a571 853b
000000d0: cfa4 133e 495d 9bbc 4f54 e33d 7ce4 a13d
000000e0: 8afc 15bd abdc ad3c 1198 853d 869d cbbd
000000f0: 91ad 1f3e ffc5 0f3e 43b3 3f3d 41d2 553d
00000100: c326 8b3c d5f5 f23d aa21 dbbc 217c c23c
00000110: b948 03be d9d7 8e3c 2fba 2b3d 4b47 853b
00000120: c5d5 823d f3ac 7d3d 4f4d 003e b01c b0ba
00000130: ef06 93bc 3b3d d3bb 3abf fb3c b1ac 2a3d
00000140: ffdc 0b3e 927a e33d ae36 87bc 668f 1a3e
00000150: 33df 27be 7e3d 723c 9619 dabc 616e 983d
00000160: c7b0 8abc 69fd c63d e171 9cba 4a83 4d3d
00000170: c95a c0bd 7c4b ea3d 28a9 74bd d09a 633c
00000180: 9b9a 9dba 0264 153d 026d ee3d 0940 f0bd
00000190: 3997 87bb b74f e13d b2a3 81be c4c2 d93c
000001a0: 760d 783c e824 7bbc 61bb 25be 8e9d 9d3d
000001b0: 055d 9b3d 8333 9a3d c78e 8bbc fec4 3d3d
000001c0: 8ba3 6a3d 3bbf a33d 4b37 6f3c ecd9 843d
000001d0: a496 39bd a68e 423d 3028 cdbc bd42 0c3e
000001e0: c505 c73b 20a9 c6bc 68b0 543e d361 933c
000001f0: a727 adbd 61c1 0e3d ae6c d03c 2377 5c3d
-0.026201136 0.07580656 -0.04951717 0.14003517 0.08399091 0.022568695 -0.15164325 0.019275831
0.05628318 0.18448472 0.030088989 -0.008867925 0.07236613 0.0799564 0.083424896 -0.0091955075
-0.011305974 -0.013146987 0.10002906 0.089230165 0.00033233478 0.18877038 -0.049098678 0.016085628
0.08564444 0.0876912 0.17053667 0.12320892 0.18883632 0.025196563 0.2515001 -0.047328085
0.2259398 -0.019464 0.042376302 0.0064326646 0.11971001 0.16811015 0.0059859916 0.15137015
0.096021645 0.14268015 0.13340406 0.021850673 0.044773377 0.008794897 0.06119421 -0.018034516
0.12834924 0.1016054 0.15559378 0.0040723854 0.14418338 -0.01896538 0.11100065 0.07904908
-0.036617793 0.021223387 0.06523145 -0.099421546 0.15593554 0.14040373 0.046801817 0.052202467
0.016986256 0.11863295 -0.02674945 0.02374083 -0.1282071 0.017436909 0.041925605 0.0040673367
0.063884296 0.061932515 0.12529491 -0.0013436284 -0.017947642 -0.006446508 0.030730832 0.041668598
0.13658522 0.11107363 -0.016505565 0.15093765 -0.16393737 0.014785169 -0.026623528 0.07442928
-0.016929997 0.09716303 -0.0011935794 0.050174035 -0.09392316 0.11440179 -0.059731632 0.013891891
-0.0012024225 0.036472328 0.11641885 -0.11730964 -0.0041379 0.110015325 -0.25320202 0.02658213
0.015139928 -0.015328623 -0.1618476 0.07696067 0.075861014 0.07529356 -0.017035855 0.046330445
0.057284873 0.07995459 0.014600585 0.06486878 -0.045309678 0.04749932 -0.025043577 0.13697334
0.006073686 -0.024250567 0.20770419 0.017990982 -0.08454829 0.03485239 0.025442448 0.053824555

weight f4 [256, 128, 3]
00000000: ad23 ea3d 6788 263e 0807 b63e dc2e 883c
00000010: 05ef 99be 8c77 9bbe d184 1abe 33ba febe
00000020: 2de5 fdbe 0c9d c7bd b42a 60bd dd53 eabe
00000030: 559f 573d 9303 453e fae7 c23e 6111 5c3d
00000040: f4e7 763e 8113 b4bc 7512 d43d ef02 6d3d
00000050: 7c0b 053e 48fc 9fbe 5bd8 a2be 43a3 74be
00000060: 7d7f 88be 6368 d4be 2007 c9be 3e9e 78bc
00000070: 1967 07be 3e1c a5be 89b5 5f3d 0f25 193e
00000080: 554c 3cbd 9e7e 653d 873f a5be eb23 33be
00000090: d43c fd3e 6cad 493e 8326 513e bd97 933e
000000a0: 34d5 a33e 34ac be3b cfae 6b3e baab 0cbc
000000b0: 0b43 c73d 930b 9abe 4c8c f7bd 509d 273c
000000c0: 3abb f83c d241 9dbe 488e d23c f8b5 dbbc
000000d0: 1c49 4c3d bea3 183e c72f adbc 16d6 bd3d
000000e0: ff1c e93d 6517 6b3e 036b 613e 98a8 e53e
000000f0: 1eeb 293c 37f3 3bbc 71ca 533e be3e 893e
00000100: 0cb4 8f3e 7080 563e 3b4a 513e fdeb a03d
00000110: 9031 92be 7ed4 28be 812d 83be 0405 c3be
00000120: fc34 25be c7fc bcbc 7da1 e53d b857 ce3c
00000130: 1c96 be3d 2184 463e 1110 6f3e f9e2 7c3e
00000140: e44f 903e abd1 ffbd ccee 76bc 3ea0 fdbc
00000150: dc08 533e 336b 393e d6a0 b53e 6a8c 373c
00000160: 1c76 b93d 1255 e43e 811f 0cbe f72c 92bd
00000170: 65a8 80be 2f00 38be 1dd3 babe 2b10 a9bd
00000180: 3f88 f6bc 777d 1ebf 5d0e f4be ef5a 04be
00000190: 2e94 85bd 1a36 973c 4e07 133e 66c9 c93e
000001a0: b995 143f 7ce3 2d3e d3f2 b23e 24fe 4fbd
000001b0: 3cd3 63be f37e e2be 875c 60bf a576 81be
000001c0: 6069 40bf 1b7d d1be d2da 4cbe 933e 3cbe
000001d0: 95f8 7c3e c078 14be d99a 0e3d 11b1 7ebe
000001e0: d97b 723e 1cc8 d23e b8a3 ed3e 060f 48be
000001f0: 24d1 033d bf26 e03d 997e acbe f156 94bd
00000200: 9ee5 8cbd f717 e23e baea 043f 1a0d b23e
00000210: 3f22 153f f9a7 e13e ac17 f93e 159b 22bd
00000220: c755 5c3d cff3 d0bd d159 0cbe 4e07 cd3d
00000230: 6f1c 203e ec36 b83d b8d3 983e 8b08 ea3e
00000240: b8a2 c8bd d64d debc eaf1 933d dbe0 703e
00000250: deb8 873e 1ab5 cbbd 0b1e d6bd 7871 98bd
00000260: eec0 3ebe a287 553e 91c5 cf3e 223f a73e
00000270: c7bf b0bb d60d e73d 4224 2d3e 1135 093d
00000280: dd7f b93e ed33 633f 65e5 343e d3ff bbbd
00000290: 1ada 023e 8259 8c3e e02d 2f3e adab 4bbd
000002a0: f986 af3e 91bc 833e 709e d43d bd76 37be
000002b0: fd06 e3bd fce0 a5be 00f2 abbe 63ef bebe
000002c0: e41b 40be a895 babe 782c 4abf dc5f 20bf
000002d0: 7337 0d3f 28c3 133f 799e 0c3f 966f 233e
000002e0: f226 913e 638a a13e 08fa fd3d d5ae 80bd
000002f0: cfcf 3b3e 87f3 b23e 49d2 1abe 2740 41be
00000300: 2050 943d d2f8 cabd e6a6 ccbd c1ee 02bf
00000310: 8255 36bf af8e 1dbf 4e36 d13e de82 cb3e
00000320: 2e45 213f b263 103f cc97 1c3f 34b7 173f
00000330: 33c6 8b3e 1379 903e d183 a03e 7872 6ebd
00000340: 416e b7bd 282e ff3c 0161 c0be c6ef 9bbe
00000350: 8c69 d03c 4a57 473d 482d 1a3e 2656 873e
00000360: 3c05 0ebe eac7 493e 1ec0 383e 02be ad3d
00000370: f114 36be 2861 0f3e eb3b 063e 424e a3bd
00000380: 04ce 1bbe 4b93 9e3e e835 3c3e 057f b03d
00000390: 1cc2 1b3d 3f6a 4f3d 4576 463d 0589 00bf
000003a0: 7450 0ebf 3c9a efbe 4b14 7b3e c99a f03d
000003b0: a59e 913e a49a 11bd d55a e5be dd81 65bd
000003c0: e6bf a83d 5cff c4bd f99a 4e3e 99e1 2c3e
000003d0: 6f8f ba3d 7791 9e3e 8cd1 e7bd 2fb1 26bb
000003e0: 335f 1fbe e059 0f3e 9549 473d 4c71 e1bc
000003f0: f2c9 aabb dd2c b23d 2052 b73d 2540 4cbf
0.11432586 0.16262971 0.3555224 0.016623907 -0.3006517 -0.30364645 -0.15089728 -0.49751434
-0.4958891 -0.09746751 -0.054728225 -0.45767108 0.052642185 0.19239645 0.3806761 0.05372751
0.2411192 -0.021981956 0.10355083 0.057864126 0.12992662 -0.31247163 -0.3180569 -0.23890404
-0.26659766 -0.4148589 -0.39263248 -0.015174447 -0.13222922 -0.3224811 0.054616485 0.14955543
-0.045971233 0.056028955 -0.3227503 -0.1749417 0.4946047 0.19695061 0.20424847 0.28826705
0.319986 0.005818868 0.23015903 -0.008585865 0.09729584 -0.30086955 -0.120873064 0.010230377
0.030362714 -0.3071428 0.02570261 -0.026820168 0.04987441 0.14906213 -0.021140946 0.09269349
0.11382484 0.22958143 0.22013478 0.4485519 0.010370998 -0.011471561 0.20682694 0.2680568
0.28067052 0.20947433 0.20438473 0.07857511 -0.28553438 -0.1648731 -0.25620654 -0.38089764
-0.16133493 -0.023069752 0.11212442 0.025188312 0.09305975 0.1938634 0.23345973 0.24695958
0.28185952 -0.12491163 -0.015071582 -0.030960198 0.20608848 0.181073 0.3547427 0.011202911
0.09055731 0.44596153 -0.13683893 -0.071374826 -0.25128475 -0.1796882 -0.36489192 -0.08255037
-0.030094264 -0.61910194 -0.47667208 -0.12925313 -0.06522404 0.018458415 0.14358255 0.39411467
0.5804096 0.1698131 0.34950885 -0.050779477 -0.22248548 -0.4423748 -0.87641186 -0.2528583
-0.7516079 -0.4091576 -0.20005348 -0.18383245 0.24704202 -0.14499187 0.034815643 -0.24872233
0.23680057 0.41168296 0.4641397 -0.19536981 0.032181874 0.1094489 -0.33690336 -0.07243145
-0.068797335 0.4415891 0.51920664 0.3477562 0.5825538 0.44073465 0.48650873 -0.03969868
0.05379274 -0.10202753 -0.13706137 0.10011159 0.15635847 0.089948505 0.2984903 0.45709643
-0.09796661 -0.027136724 0.07223876 0.23523276 0.2650823 -0.09946652 -0.10454949 -0.074435174
-0.18628284 0.20852521 0.4058042 0.32665354 -0.0053939554 0.11281936 0.16908363 0.033497874
0.36230364 0.8875111 0.17665632 -0.09179654 0.12778512 0.2741204 0.17107344 -0.04972427
0.34282663 0.25729802 0.10381782 -0.17916389 -0.11085317 -0.32398212 -0.3358307 -0.37292013
-0.1876064 -0.36442304 -0.78974104 -0.6264627 0.55162734 0.5771966 0.5492931 0.15960535
0.28350025 0.31550893 0.12401205 -0.062833466 0.18340991 0.34951422 -0.1511928 -0.18872128
0.07241845 -0.0991074 -0.09992771 -0.5114556 -0.71224225 -0.6154584 0.40861744 0.3974828
0.62996185 0.5640212 0.61169124 0.5926392 0.27299652 0.28217372 0.31350568 -0.058214635
-0.08956576 0.031149939 -0.37574008 -0.3045637 0.025440954 0.04866723 0.15056336 0.26432914
-0.13869184 0.19705167 0.18042037 0.08483507 -0.17781426 0.14001906 0.13108794 -0.07973911
-0.15215307 0.3097175 0.18379939 0.08617977 0.038026914 0.050638434 0.048452634 -0.50209075
-0.5559151 -0.4679736 0.2451946 0.11748273 0.2844135 -0.035547867 -0.44795862 -0.05603205
0.08239727 -0.096190184 0.20176305 0.16882934 0.09109389 0.30970356 -0.11319265 -0.00254352
-0.1556366 0.13999128 0.048654158 -0.027519844 -0.005212062 0.08699963 0.08951211 -0.79785377

bias f4 [256]
00000000: 45cb 093d 9af0 93bc 5dc0 c43c 96be 753d
00000010: b4fd 8b3d de1c a13c bb52 4f3c 4ebd 863d
00000020: 3bf4 e73c 5c74 093b 8c3c 2d3d efd6 a03c
00000030: ee06 133d 3aa5 283d 227d 8bbb 8f4e 1bbc
00000040: bceb e63c 74b0 9abc 6ec7 843d a3a3 2e3d
00000050: 749d 90bc 1ffb d1bb 8106 093d 3fc3 283d
00000060: 2f17 b13d 7739 233c e7b8 923b f689 0e3d
00000070: 84d4 a6bb 46a9 08bd 6040 9abc 31d3 07bd
00000080: 774a 17bd d006 8ebc a4ae 533d 64ae 0a3d
00000090: ed56 713d 3f58 5d3d 2515 9a3b 15c2 5b3c
000000a0: d6af e2bb 39dc 1b3d e389 94bc 7b5f bf39
000000b0: 013e 843d 003a 52bb 8861 cfbc e41e 333d
000000c0: 0a86 443c 67bb 64bc 2a14 803d 8fd6 f83c
000000d0: 5cd6 813d 0129 62bd 284b 5b3a b807 e63c
000000e0: ea74 2c3d 7ccd 543d 1090 acbc 8807 833b
000000f0: bc7c 5a3c ec10 c9bc c5fc 383d 7b74 313c
00000100: 26c4 6b3c a9c0 283d 43ad 1cbc 18a9 463d
00000110: 37b9 3d3d b546 653d 724f c93c 3eb9 5339
00000120: 1ddc b63d f460 b43d 3b41 623d 8a71 963d
00000130: 15a3 253c 3259 b33d c9c8 0f3c 0bdb 663d
00000140: 30fe 53bd 057a fcba 3695 b63c 298a 73bc
00000150: 1e91 d7ba 7973 1e3d 53e0 cfb9 08db d13c
00000160: 6af3 413d c0d2 1e3d 2868 8dbc 3f9f fa3c
00000170: 64eb 553d 7a96 493d 2251 16bd 2c31 a3bb
00000180: bb8d 133d fa5c 243d 86b0 2cbc 6814 bd3c
00000190: 4bd1 143c 2925 523d ebbd b23a ce00 4dbd
000001a0: d4f0 80bc c059 cdbc 95b1 13bd aa08 23bd
000001b0: a8ca c93b 8c01 dd3c 1eeb 9fbc cfaf 46bd
000001c0: 8d01 1f3d f6d3 fdbc 4ba3 433c 599b 6fbc
000001d0: 3cea 683d 30bd 9fbc 9b6d 823d b8ba 3a3c
000001e0: 40e5 aa3d 793c d13c 267e 6a3d 3d1a 573c
000001f0: 0178 1b3d da83 8e3c d787 85bc 1dc1 8fbc
00000200: 686e d33b ebcf 14ba 6cb6 3fbc 1d5e 08bd
00000210: 5202 babc 9d0a 273d d2ac 6d3d f7e8 5f3d
00000220: 84c0 5dbc 9f13 103d c2a5 ce3c 1dbb b53d
00000230: 0123 f13b 08f7 b9ba 861c d9b8 e2b9 8d3d
00000240: 5d4b 903d 756b b03d 1229 483c 50d8 7ebc
00000250: 7599 033d 452e 33bc eabd 61bc db78 bdbc
00000260: 6925 11bd 4afe c53c 0e3b 3dbc 2b40 8e3d
00000270: 8820 033e 7e8a bbbc 7cc0 cbbb d82e 823d
00000280: efc0 98bc 3faf 5b3d 9cb3 ad3b e5ba 073c
00000290: 398f b73b 674a 163d e0cf 043d e19e 95bc
000002a0: f78c 653d e736 503d 7279 6d3d 5435 16bd
000002b0: ed2e 693d b5fa 6d3d 0a39 64bd aa7b edbb
000002c0: d923 923d 6316 9a3d b000 46bc 455c 6b3d
000002d0: ab69 1dbd 9453 bc3c 9876 8e3c 788d 88bb
000002e0: cc4b 483c bb8a 70bc 356a 763d 5bec 963c
000002f0: d186 a6bc f796 313d 766c 40bc 19ad 563c
00000300: 8e44 2e3d b0e4 283a bcb5 dabc 17dc c63c
00000310: 5183 2ebc 5449 183c 4341 36bc 4425 92b6
00000320: b099 d23d 3e76 12bc 5358 61bc c947 3b3c
00000330: 095c 883d 4eef 9f3c 0206 c93a 6595 253d
00000340: 1d38 0f3c 3931 1e3d f9d5 d7bc e0da 0a3d
00000350: 5162 90ba 7859 053d 0995 6b3d 38a3 5a3d
00000360: f514 cf3b c085 513c 8291 d53c d768 733d
00000370: f16c b339 8db8 1b3c 6c3f 523d a4a0 3c3d
00000380: 04e1 1b3d fee1 2d3d 4d59 3d3d 721c f03c
00000390: 40ea e33c 7125 833b dd21 9fbc eae0 7fbc
000003a0: 9c84 04bc 69e5 b13d a54d 793d a9d7 6e3c
000003b0: 137b 053c a6e3 8cbc 4a3f e53c 52b1 db3a
000003c0: 5f81 f23c 3bc7 4d3c 74eb ef3a 2f0e 4e3d
000003d0: 494c fe3a 2321 6c3c d203 743d 6446 82bc
000003e0: 6065 1f3c d5bb 1f3c 9d34 b93d 78e3 523d
000003f0: 1e97 0dbd d344 cc3c 36a2 9abc 580c f23c
0.03364112 -0.018059064 0.024017507 0.05999621 0.068354994 0.019667085 0.012654002 0.06579076
0.0283147 0.0020973897 0.04229407 0.019633738 0.03589528 0.041173197 -0.0042568604 -0.009479179
0.028188579 -0.018882968 0.06483351 0.042636525 -0.017653205 -0.00640811 0.03345347 0.041201826
0.08647 0.009962431 0.0044776085 0.03479954 -0.005091252 -0.033364557 -0.018829525 -0.033160392
-0.03693625 -0.017337233 0.051680222 0.033857718 0.05892079 0.054039236 0.0047022277 0.013412972
-0.006917934 0.038051818 -0.018132156 0.00036501497 0.06457139 -0.0032078028 -0.025315061 0.04373063
0.011994848 -0.013960696 0.06253846 0.030375747 0.06339714 -0.055214886 0.0008365386 0.028079852
0.042103685 0.051953778 -0.021064788 0.0039987005 0.013335403 -0.024544202 0.045162935 0.010830994
0.014390027 0.04119936 -0.009562793 0.048501104 0.046319213 0.055975635 0.024574015 0.00020191536
0.08928702 0.08807555 0.05523799 0.073458746 0.010109683 0.08757247 0.008775898 0.05636124
-0.051756084 -0.0019262439 0.022287946 -0.014864483 -0.0016446447 0.038684342 -0.0003964925 0.025617138
0.04735128 0.038775206 -0.01726158 0.030593513 0.05222644 0.04921577 -0.036698468 -0.004980227
0.036023837 0.04012773 -0.010540133 0.02308102 0.009083102 0.05130497 0.0013636922 -0.050049596
-0.015739836 -0.02506721 -0.036058027 -0.039803185 0.0061581917 0.026978277 -0.019521292 -0.048507508
0.03881984 -0.03098486 0.011940788 -0.01462444 0.05686401 -0.019499391 0.06368562 0.011397056
0.08344507 0.02554153 0.05724921 0.013128814 0.03795624 0.017396856 -0.016300125 -0.017548138
0.0064523704 -0.0005676734 -0.011701208 -0.03329288 -0.022706185 0.040781606 0.058026142 0.054665532
-0.013534669 0.035174962 0.025225524 0.0887358 0.007358909 -0.0014188001 -0.00010352679 0.0692022
0.070456244 0.08614246 0.012216823 -0.015554503 0.03212877 -0.0109363245 -0.013778189 -0.023128917
-0.035436068 0.024169106 -0.011549724 0.06945833 0.12805378 -0.022893187 -0.0062180143 0.06356591
-0.018646685 0.053633925 0.005300952 0.008284305 0.0056017903 0.03669205 0.032424808 -0.018264236
0.056042638 0.05083361 0.057977147 -0.03667195 0.056929518 0.05810042 -0.05571846 -0.007247408
0.07135744 0.07523801 -0.012085125 0.057461042 -0.03843085 0.022989072 0.017390534 -0.004167255
0.012225103 -0.014681513 0.06015988 0.01842325 -0.020327957 0.043356862 -0.011744609 0.013102793
0.042545848 0.00064427685 -0.026697986 0.024274869 -0.010651425 0.009294827 -0.011123958 -4.3554774e-06
0.1028322 -0.008939324 -0.013753968 0.011430689 0.06658179 0.019523289 0.0015336873 0.040425677
0.008741406 0.03862116 -0.026347147 0.03390014 -0.0011015629 0.032556027 0.057515178 0.053378314
0.006319637 0.012788236 0.02607036 0.059426155 0.00034222708 0.00950445 0.051330015 0.046051636
0.03805639 0.04245185 0.046227742 0.029310439 0.02782166 0.004002266 -0.019425327 -0.015617589
-0.008088257 0.08686335 0.060865063 0.014577785 0.008147019 -0.017198395 0.02798428 0.001676122
0.029602705 0.012559707 0.0018304423 0.050306495 0.0019401397 0.014412197 0.059573956 -0.015902705
0.0097287595 0.0097493725 0.09043238 0.051486462 -0.034567945 0.024935162 -0.018876176 0.029546902

weight f4 [32]
00000000: 6ab0 743f d802 1f3f 8109 833f a115 1b3f
00000010: 59da 093f 8cc4 813e a79d 8c3e c9da 253f
00000020: 6283 b73f a52f 6b3f 2d61 a53f 5b63 093f
00000030: 78c1 153f 9adc 373f 96a0 3d3f 957d 8f3f
00000040: b601 a73f 3f2a 823f fe11 8b3f 6651 053f
00000050: 949f de3f cc80 3f3f c6a0 7a3f 9ed2 563f
00000060: 5f14 0f40 e541 213f a737 3a3f cd75 3d3f
00000070: af00 a83d 7a19 5e3f 18b3 bb3e bbdb d63e
0.95581686 0.62113714 1.0237275 0.6057988 0.538488 0.25345266 0.2746403 0.64786965
1.433697 0.91869575 1.2920281 0.5366723 0.58498335 0.71820986 0.7407316 1.12102
1.3047397 1.0169142 1.0864866 0.5207733 1.7392449 0.74805903 0.9790157 0.83915126
2.2356184 0.6299117 0.7274117 0.74007875 0.082032554 0.86757624 0.36660075 0.41964516

bias f4 [32]
00000000: bf04 c13e 741d 98b8 8cae 6d3d c11c 013e
00000010: c8b3 4c3c 2b6b 513d ff45 0d3e b265 bcbd
00000020: 1765 08bb a141 513e 7362 123d 0424 ca3c
00000030: d63b 573d 5df4 d53e 7286 123d e173 273e
00000040: 258b 06bc 14c7 0f3e 3726 853d cb3f 983e
00000050: 4c4c 26bb 680b ba3d c744 0ebc 665b 683d
00000060: f2bc c0bb 91c2 623f cc13 643f bf81 193f
00000070: a503 953d abc2 533e 4412 f13c 683e 75bd
0.37698933 -7.253411e-05 0.05802779 0.12608625 0.012494035 0.051127594 0.13796233 -0.09199084
-0.0020812207 0.20435192 0.03573842 0.024675377 0.0525473 0.41787997 0.03577275 0.16352798
-0.008211886 0.14040786 0.065014295 0.2973617 -0.0025375066 0.09084207 -0.00868339 0.05672779
-0.005881899 0.88578135 0.8909271 0.599636 0.07276086 0.20679729 0.029427655 -0.05987397

running_mean f4 [32]
00000000: 4d7b 9ebe 12e3 df3e f33e 91be 5c6a 663e
00000010: c78c 953d bdaa db3e 4eef dfbc 4f69 68be
00000020: 00aa 10bf 2430 82be ab78 ce3e 7c86 6c3e
00000030: 7069 94bd 5dfe 62bc 89a8 10be c1f7 043f
00000040: e1bd 8fbe a8f9 453d 8bbe fe3d b50a 1cbe
00000050: 6b30 e53e 0cf1 1abc a844 193d 6465 12be
00000060: 076a 173f 84b2 e4bd 3cf7 aabe a78c cdbe
00000070: d0bb c5be 9bbf d6be 49bd ac3e 2385 84be
-0.30953446 0.43727928 -0.2836834 0.2250151 0.07302242 0.429037 -0.027335789 -0.22696422
-0.565094 -0.25427353 0.40326437 0.23098177 -0.07246673 -0.01385459 -0.14126791 0.5194054
-0.28074554 0.048333794 0.12438687 -0.1523846 0.44763502 -0.009456884 0.03741899 -0.1429649
0.5914616 -0.11166862 -0.3339175 -0.40146372 -0.38619852 -0.41943058 0.33738163 -0.25882825

running_var f4 [32]
00000000: ac43 653f 6f3f f43f aeef e440 97db 1b40
00000010: 2326 bb3f f2e7 0e40 bef0 4240 eb7d 3b40
00000020: 1229 f340 d4c8 1940 d0ee 9840 a298 2540
00000030: 12c5 6b40 520e af3f bc30 2d41 244f df3f
00000040: 4186 fc40 354a fa3f f032 583f 80ae 0e40
00000050: a31d bb42 cc1b f13f 278c 0c40 13e4 d33f
00000060: aa9f 2943 7bc4 0340 dbd1 3840 df27 7d3f
00000070: 3d82 1b40 48ed 1c40 319b 2340 75bc 0040
0.89556384 1.9081858 7.154258 2.4352777 1.4621013 2.2329068 3.0459437 2.9295604
7.5987635 2.4028826 4.779152 2.587441 3.6839032 1.3676245 10.824398 1.7446027
7.8913884 1.9553896 0.84452724 2.2294006 93.557884 1.8836608 2.1960542 1.6553978
169.62369 2.0588672 2.8878086 0.98888963 2.429824 2.4519825 2.5563471 2.0115025

weight f4 [64]
00000000: 0ce7 ac3f 1d7b 5c3f ca93 d63f 5cbc 8b3f
00000010: 9565 7e3f 691e 943f 6c6a 243f 0a7d 853f
00000020: 5a94 593f 17f1 b63f cdc0 793f 8035 593f
00000030: f7bc 453f e8c6 833f afdb 463f 7983 833f
00000040: 7f46 703f 3450 813f 3bd2 1d40 258e 563f
00000050: eed5 ac3f e609 823f b6d2 9e3f 13cb a53f
00000060: 271b 813f e0a4 8f3f d90f 813f cad2 683f
00000070: 703a a53f 8fe2 5e3f 8b72 623f 7d3a 653f
00000080: 2149 a93f fe40 8a3f 59d6 663f 3249 933f
00000090: 7fc9 6d3f d1fc a03f f9c2 4f3f 82a3 b73f
000000a0: e2dd 873f f1a0 9d3f 24a2 6a3f a391 9b3f
000000b0: 5637 5c3f 696e 1a3f 179a 623f 214e 6f3f
000000c0: 1ff1 d63e 02de 813f b06f 883f 300f 8c3f
000000d0: aa90 183f c3ee 433f 8953 303f dcb8 263f
000000e0: 83ca c43f 07a6 153f df18 f03f cc82 7f3f
000000f0: 265d 6c3f 1e73 6d3f 57be 7f3f 1193 af3f
1.350801 0.86125356 1.6763852 1.0916858 0.9937375 1.157178 0.64224887 1.0428784
0.8499199 1.4292325 0.97559816 0.8484726 0.7724146 1.0295076 0.7767896 1.0274497
0.9385757 1.0102601 2.4659564 0.83810645 1.3502786 1.0159271 1.2408054 1.2952598
1.0086411 1.1222191 1.0082961 0.9094664 1.2908459 0.8706445 0.8845603 0.8954237
1.3225442 1.0801084 0.9017082 1.1506712 0.92885584 1.2577153 0.8115688 1.4346774
1.0614588 1.231474 0.91653657 1.215382 0.86021936 0.6032472 0.8851637 0.9347859
0.41980836 1.0145876 1.0659084 1.0942135 0.5959574 0.76536196 0.68877465 0.65125823
1.5374302 0.5845646 1.875759 0.99808955 0.92329633 0.9275378 0.9989981 1.3716756

bias f4 [64]
00000000: 0d20 73be 3047 e73d 0a25 edbd 2872 d3be
00000010: abfb 33be fa08 80bc 13b2 f5bb 2410 2ebe
00000020: ba89 60be 8aed 13be 64a3 1bbe 1afa 77bd
00000030: 0260 07be 5a74 72be 74b4 963d 7dcb d8be
00000040: c281 6abe 9644 3cbe 43c3 8cbe 4ce2 b4bd
00000050: 7b0a 7abe 4453 d9bd bfd1 9fbe e80e e4bc
00000060: d2fd 24bd 0846 a7be 72cd 42be 43f7 d7bd
00000070: 5ce1 12bd d844 30be 4b83 88be 608e 81bd
00000080: 9525 e8bd 84b3 1e3d c0dd 92be 5045 dfbe
00000090: 799b afbe 0009 c7be 81a0 02be 280e efbe
000000a0: 56b0 bcbb 6b46 eabd c34d 5cbe d628 19bd
000000b0: ee2d ddbc 5cd7 04be ed36 b7bd 7f91 123e
000000c0: 93bf cb3c d07a 60be 9e23 6cbe b075 7abc
000000d0: 4937 4bbe e0aa 65bd a802 26be f00a b7be
000000e0: 3ef6 c9be f711 e4bc 77a0 e0be 431b 94bd
000000f0: 0f1a 9cbe 68c7 37be 2851 6abe e0f9 31be
-0.23742695 0.11292875 -0.1157933 -0.41298032 -0.17576472 -0.01562928 -0.0074980347 -0.16998345
-0.21927539 -0.14446083 -0.15199047 -0.06054125 -0.13220218 -0.23677197 0.073586375 -0.4234275
-0.22901061 -0.18385538 -0.27492723 -0.08832225 -0.2441806 -0.10611585 -0.3121471 -0.02783914
-0.040281124 -0.32670617 -0.19023684 -0.10545208 -0.03585945 -0.17213762 -0.2666267 -0.06325984
-0.11335293 0.03874542 -0.28684807 -0.4360757 -0.34298304 -0.38874054 -0.1275654 -0.46690488
-0.0057583256 -0.114392124 -0.21514039 -0.03739246 -0.02699944 -0.12972778 -0.08946023 0.14313315
0.024871623 -0.21921849 -0.23060462 -0.015286848 -0.19845308 -0.056071162 -0.16211951 -0.35750532
-0.3944568 -0.027840598 -0.43872425 -0.07231762 -0.3048863 -0.17947161 -0.22882521 -0.17380476

running_mean f4 [64]
00000000: 59dc a6c0 8e39 0ac0 cb9e 34c0 2dd2 40c0
00000010: d8d3 4abf 0bdd 74c0 29f8 6ac0 33b4 13c0
00000020: 9022 29c0 360f e9bf 700a 9ec0 6702 aac0
00000030: a66f 6ac0 607a 5bc0 1ddf 30c0 9187 6cc0
00000040: b77e 38c0 922e 22c0 3d7c 27c0 3a89 c83f
00000050: 400d 52c0 003b 41c0 c19a 71c0 4d52 69c0
00000060: 9c68 63c0 0479 a4c0 5891 39bf cf16 07c0
00000070: af62 2ac0 82dd 55c0 c5a3 45c0 9941 363e
00000080: f420 35c0 767b 17c0 3adb 64c0 2158 3bc0
00000090: 5e4c 6fc0 b832 63c0 b885 123e e0ac 10c0
000000a0: e8d1 97bf 1c57 3dc0 f75d 81c0 cf21 14c0
000000b0: db7b e0be 911d 983b 8096 67c0 4fa8 32c0
000000c0: 8c9c 2d40 f5ce 6fc0 ca41 66c0 6fa5 9bc0
000000d0: 4638 853f 8fed c1be 4f73 d0bf cee4 7e3f
000000e0: a02d 33c0 c89c d6be 7cf2 19c0 ede7 29c0
000000f0: 87e0 27c0 4beb a3c0 7fa1 3bc0 f2bf 3bc0
-5.214398 -2.1597629 -2.822192 -3.012828 -0.792295 -3.8259914 -3.6713965 -2.3078735
-2.6427345 -1.8207767 -4.938774 -5.3127933 -3.6630645 -3.4293442 -2.7636178 -3.6957743
-2.882734 -2.5340924 -2.616958 1.5666878 -3.2820587 -3.019226 -3.7750704 -3.6456482
-3.5532598 -5.1397724 -0.724874 -2.1107671 -2.6622732 -3.3416448 -3.0881207 0.17798461
-2.8301363 -2.3669105 -3.5758805 -2.927254 -3.739036 -3.5499706 0.14308822 -2.2605515
-1.1860933 -2.9584417 -4.0427203 -2.3145635 -0.43844494 0.0046421965 -3.6185608 -2.7915227
2.7126799 -3.7470067 -3.5977654 -4.8639445 1.0407798 -0.37876555 -1.6285189 0.9956788
-2.7996597 -0.4191649 -2.405425 -2.6547806 -2.623079 -5.1224723 -2.931732 -2.9335904

running_var f4 [64]
00000000: f831 9441 52fb 1141 845e a141 2358 d640
00000010: 38d9 0641 304a d041 554c 8741 6854 0141
00000020: e5f5 a040 7e47 6441 38a6 7e41 6adb c640
00000030: ced8 1641 2ba1 9d40 691f df40 221a 0741
00000040: 0bd5 ce40 4fb6 5f41 d9ca dd41 752f b540
00000050: feef 5341 d93f 5c41 c854 9941 c1a0 4541
00000060: 5774 4641 2292 a741 f899 6b41 575f 5a41
00000070: 2142 4b41 cca3 0841 d030 e140 10cb 5b41
00000080: 89fc e041 9835 b541 bf31 2141 083a f940
00000090: a541 1641 3106 f440 0362 1041 7500 0241
000000a0: f481 9f40 0a73 9f41 fed3 5541 dad3 1b41
000000b0: ff24 2941 ca5b 8540 ed60 8f40 3a1a 4b41
000000c0: 0269 0941 a83a b740 0b5a 7941 eb15 ba41
000000d0: 035e b440 7e98 ec40 c3d9 0f41 0ca6 eb40
000000e0: a00c 9941 e0fa 9a40 bf50 8841 708e 4141
000000f0: ffd4 4c41 a12d 0641 5b47 0541 6ed2 bd41
18.524399 9.1238575 20.17115 6.698259 8.428032 26.036224 16.912271 8.083107
5.0300164 14.267454 15.915581 6.214284 9.427931 4.925924 6.9725842 8.44388
6.463506 13.982009 27.724047 5.662043 13.246092 13.765588 19.166397 12.351747
12.403403 20.946354 14.72509 13.648276 12.703645 8.539989 7.0372086 13.737076
28.123308 22.651169 10.074645 7.788334 9.3910265 7.625756 9.023929 8.125112
4.9846134 19.931171 13.364256 9.739222 10.571532 4.1674547 4.4805818 12.693903
8.588137 5.72591 15.584483 23.260702 5.636476 7.393615 8.9906645 7.3640194
19.131165 4.8431244 17.039427 12.097275 12.802001 8.38614 8.329921 23.727749

weight f4 [128]
00000000: 7c6a 6a3f c116 733f b2ce 863f 04a9 5c3f
00000010: c1d8 643f 5999 1f3f e8e9 993f 1b10 503f
00000020: 521f 9a3f b1e1 623f 2705 653f aac4 1c3f
00000030: 017b 913f b9b9 623f 8b6a 803f c555 433f
00000040: 10fa 323f 114b 3d3f e109 793f 7a0c 583f
00000050: 06f4 503f 8eb9 453f c655 713f 3546 5a3f
00000060: 3aa4 633f 99f0 803f 8981 193f 7bb9 823f
00000070: f1e9 943f 141a 6f3f 9b48 6e3f 52f3 6b3f
00000080: 237a 973f 1733 683f 2419 8b3f 4d57 663f
00000090: 87de 7f3f 3c2b 433f 0957 1c3f 1bf0 8f3f
000000a0: faee 423f ab45 3e3f e129 363f 40c7 8b3f
000000b0: c3a4 563f b850 803f a2c3 403f 1c2c 583f
000000c0: b6a8 343f 3eeb 813f 8f40 723f 4696 473f
000000d0: eaaa 473f a106 713f 2fd3 733f 119d 233f
000000e0: f022 5b3f dbf2 643f e88c 8b3f 1816 8f3f
000000f0: 23ed 793f d21c 3c3f 5f8c 463f a68c 583f
00000100: d515 673f da28 893f 5d7b 4c3f 6e2e 273f
00000110: c837 653f 51df 533f a0a4 4a3f 47ea 683f
00000120: f88d 713f b284 873f edfb 833f 7bd7 6a3f
00000130: 94ec 4a3f 4db3 443f 5c7b 893f 5c63 683f
00000140: 0e4a 543f 4640 5a3f 07ab 4f3f 51e2 8d3f
00000150: 4669 7e3f 88f8 783f 06e2 8d3f c672 843f
00000160: 77d6 a23f 6577 903f 2ba3 6d3f 7d2a 4e3f
00000170: c651 393f 24cb 653f fc6b 543f ba0a 7c3f
00000180: 9378 493f 4bbb 773f 5a6e 563f 204f 7c3f
00000190: 561b 543f 1b47 573f 32e8 803f 0a43 3b3f
000001a0: 5bc9 3d3f 6bd4 5c3f 5d5b 963f 9992 563f
000001b0: 55c9 703f e84a 783f e3e2 9d3f 880e 903f
000001c0: d5f5 623f 30e5 353f c6af 7a3f e1ef 3f3f
000001d0: 93ac 493f 3ea5 703f 13f9 3c3f 4de8 6c3f
000001e0: 0622 513f 3f86 673f 0f85 4f3f a0d2 6d3f
000001f0: d179 843f 065d 4d3f 2f16 533f 18b9 a93f
0.9156873 0.94956595 1.0531828 0.861954 0.8939324 0.62343365 1.2024508 0.81274575
1.2040808 0.8862563 0.89460987 0.61237586 1.1365663 0.8856464 1.0032514 0.7630275
0.69912815 0.7394267 0.972807 0.8439404 0.8162235 0.7723626 0.94271505 0.8526338
0.88922465 1.0073425 0.5996328 1.0212854 1.1633893 0.9339917 0.9307954 0.9216815
1.1834148 0.90702957 1.0867047 0.8997696 0.99948925 0.76237845 0.61070305 1.1245149
0.761459 0.74325055 0.7115765 1.0920181 0.83845156 1.0024633 0.7529851 0.84442306
0.7056993 1.0149915 0.9462976 0.77963674 0.7799517 0.9415074 0.95244116 0.6391154
0.85600185 0.8943307 1.0902376 1.1178617 0.97627467 0.73481476 0.7755794 0.8458961
0.9026769 1.0715592 0.7987574 0.6530522 0.8953824 0.8276263 0.7915745 0.9098248
0.9435725 1.058737 1.0311257 0.9173505 0.7926724 0.7683609 1.0740771 0.9077661
0.829255 0.85254323 0.8112034 1.1084691 0.99379385 0.9725423 1.1084602 1.0347526
1.27217 1.1286436 0.928271 0.8053358 0.723904 0.89763093 0.8297727 0.9845387
0.78699607 0.9677016 0.83762133 0.98558235 0.8285421 0.84092873 1.007086 0.7314917
0.7413537 0.86261624 1.1746632 0.8381744 0.9405721 0.969893 1.2334865 1.1254435
0.8865636 0.7105284 0.9792446 0.749754 0.7877895 0.9400214 0.7381756 0.9254196
0.8169254 0.9043922 0.81062406 0.92899513 1.0349675 0.8022007 0.82455724 1.3259611

bias f4 [128]
00000000: 6237 02bf b11f fbbe f880 30bf 4c3d 23bf
00000010: 04fc febe 538f cfbe 30b2 1fbf 8451 20bf
00000020: e8f8 3ebf 8467 40bf 7620 19bf 50e3 13bf
00000030: 9b3d 1dbf 8332 20bf 4a7b 6ebf fff7 22bf
00000040: 5597 1abf d952 8ebe b182 07bf b38f 0fbf
00000050: 9c3e 17bf 6151 2ebf a29d 58bf c54b 61be
00000060: e470 e7be 9b9d 4ebf f735 f6be 6da6 edbe
00000070: 7425 64bf 3054 f5be f44b 09bf 27a8 2dbf
00000080: 8322 7dbf 97b0 12bf 0139 80bf be18 50be
00000090: 8671 08bf f185 11bf 9ded dabe 8680 67bf
000000a0: cc4c b2be ee7c 12bf 8d96 06bf 8a78 86bf
000000b0: 54d5 3ebf de44 1abf 7cb5 ccbe 8e78 a3be
000000c0: a2a2 3ebf 60cc 46bf cb04 0bbf 9638 eabe
000000d0: 07f7 01bf 600d 31bf 887e 4abf 5f2e f4be
000000e0: 565e 8dbf 61fb 16bf 9cb8 21bf 171f 23bf
000000f0: a7a0 48bf 3b30 20bf 78ee b7be cdc5 b3be
00000100: e364 0fbf 0b8b 89bf 4c7a 2ebf 539d 29bf
00000110: bd7d 21bf a2fa 09bf 828e 3dbf b8d0 13bf
00000120: d486 f4be a0d1 23bf 24e8 48bf a3ea 1cbf
00000130: 0a47 0abe 5977 67be 1337 59bf feb4 26bf
00000140: 38ec e9be 6c37 1abf a4c2 41bf dac1 56bf
00000150: 2d04 47bf c42e 28bf 41e6 5ebf 7573 39bf
00000160: 9810 87bf 31e8 eabe 7d17 e4be bf89 fbbe
00000170: 6b1c 06bf c75e bdbe 3fd1 38bf ca26 2bbf
00000180: 721f 04bf 0574 1cbf 432f 1dbf c3c3 13bf
00000190: d38b 47bf 1e42 40bf c424 b3be 74f3 34bf
000001a0: d90a 06bf 4e72 54bf a76f f9be 56c0 fbbe
000001b0: 7d19 fcbe c2dc c0be e391 86bf 0b90 d8be
000001c0: d45a 2dbf 7fd6 0abf 1c6a 2abf 66d8 09bf
000001d0: d073 05bf 9c86 2dbf baaf f0be 7501 5dbf
000001e0: 49b9 7fbe a122 ffbe c2c5 debe 5c52 10bf
000001f0: 3b66 32bf 3e1e 20bf 334c 04bf 5ca2 54bf
-0.5086576 -0.49047616 -0.6894679 -0.63765407 -0.49801648 -0.40539035 -0.6238127 -0.6262438
-0.7459855 -0.7515795 -0.59815156 -0.57768726 -0.6142213 -0.62577075 -0.93156874 -0.6365966
-0.60387164 -0.27797583 -0.52933794 -0.5607864 -0.5907991 -0.68092924 -0.8461553 -0.2200156
-0.45203316 -0.80709237 -0.48088047 -0.46416035 -0.8911965 -0.47915792 -0.5363152 -0.67834705
-0.98880786 -0.57300705 -1.0017396 -0.20321938 -0.53298223 -0.56845003 -0.4275941 -0.90430486
-0.34824216 -0.5722188 -0.5257347 -1.0505536 -0.7454426 -0.60261333 -0.39982212 -0.31927913
-0.7446691 -0.776556 -0.5430419 -0.45746297 -0.5076756 -0.69161034 -0.7909932 -0.47691628
-1.1044414 -0.58977324 -0.63172317 -0.63719314 -0.78370136 -0.62573594 -0.35924125 -0.35111848
-0.56013316 -1.0745558 -0.6815536 -0.6625568 -0.63082486 -0.5389806 -0.74045575 -0.57740355
-0.47759116 -0.6399174 -0.7847922 -0.6129553 -0.13503662 -0.22604121 -0.8484966 -0.6511992
-0.45688033 -0.6024082 -0.75687623 -0.83889544 -0.77740747 -0.6569636 -0.8707009 -0.724418
-1.0551939 -0.45880273 -0.4454917 -0.4912853 -0.5238711 -0.36986372 -0.72194284 -0.6685606
-0.5161048 -0.6111453 -0.6140024 -0.57720584 -0.7794773 -0.75100887 -0.34988987 -0.7068398
-0.523603 -0.82986915 -0.48717996 -0.49170178 -0.49238196 -0.37668425 -1.0513271 -0.42297396
-0.6771672 -0.54233545 -0.6656816 -0.5384582 -0.5212984 -0.6778352 -0.4700907 -0.8633035
-0.24973024 -0.49831107 -0.43510252 -0.5637567 -0.6968724 -0.62546146 -0.5167877 -0.8306024
