model-base.pth (torch, 548216 bytes, 26 tensors)

weight f4 [32, 2, 3]
00000000: f168 ec3e 5908 8bbe 475c 6fbc 0572 4ebf
00000010: b825 6dbe 46f5 823d a460 89be 1c72 87be
00000020: 698d 913e bcbe 31be 2abb 3cbf bbdc 70be
00000030: 36cd 83be 77d4 c33e 00a4 363d c982 16bf
00000040: da60 a23e d214 133d 7b23 1f3f a2e5 22bf
00000050: a891 cebe 1fd5 04be 3778 893d 2723 143e
00000060: e281 01be d131 1cbf 882e 33bf e6fc 0ebc
00000070: 1831 ad3c b1a3 f83e 2f22 80bc 003d 88b6
00000080: 264a b7bb 5199 e93e b146 d43d 190b 16bf
00000090: 4cc6 acbe 1ee9 05be a5db 06be 3e34 5e3d
000000a0: 2e34 a73d 17c3 413f 09fe ed3e b7b3 c1be
000000b0: 7bad d0be 8e44 8ebe a06d 093f c21b 023e
000000c0: bcdd adbf 0d9d 9bbf fe44 36bf 41e7 143d
000000d0: e38c 7ebd 814c c5ba 95bb 2cbe 656e 223f
000000e0: 146e a9be 801e 0e3e 33a6 ce3e c474 453d
000000f0: a0e7 d5be 1542 2abf e3d8 c23e 498a 3cbe
00000100: c697 69be 023c 013f c0f1 473f f4ba a73d
00000110: faf7 52bf 8bec 5d3c bbc8 efba a1fa 2f3c
00000120: cf97 d4bd 2422 f63e 1421 3bbf c912 a7be
00000130: 9cee 27bd 8c88 283e cb71 57be 1f88 323f
00000140: 0b6c 02bf fd65 913e cda4 a83c b20e b7be
00000150: ce55 34be f1ef 17bf 934e 503f d15e 493c
00000160: 32db 39bb 2e13 583c 905c 223f 0616 0dbf
00000170: d87f 93be 2afc af3e 7387 9ebe 823b 3c3d
00000180: b71e 36be 3784 dbbd 1b67 713c 2907 4bbf
00000190: 5b58 b93e 943b ae3d 9708 b6ba ec2b 9dbc
000001a0: 4c8b 2bbc 0fa0 10bf 2784 8ebc 64f7 0f3f
000001b0: b94e 60bf 0823 35bd 4d62 423f 31ea ca3c
000001c0: c5a0 10bd 4ab7 f3bc ad18 b7be d896 463c
000001d0: 632d c63e 5fbe d73e e110 cc3d 3cb6 15bf
000001e0: b972 04bd a317 1fbf 9a23 163f 7fe2 74be
000001f0: d75c 16bd 81c3 853e 5f84 a5be 2b69 213f
00000200: 4be6 aebe 4964 a2be e750 a93e cc6b 803e
00000210: a755 bebe 6702 053f 307a 043f 89f9 ba3e
00000220: 6bda 293e 1061 03bf 53ce d93f 802f d73d
00000230: 39f3 063e e285 52be 8690 973e 0290 d1bc
00000240: 3a45 8abe cb64 a03e b253 d73e 74ba a03d
00000250: 301a 1abf f217 073e d51f ffbd 0efe 72be
00000260: e6e5 c03e 2198 983e 9b8c 1dbf 1806 8e3d
00000270: 357f c63e 8136 5d3e 1eee 31be 7906 2bbf
00000280: 07ff 3b3e e184 f13d 5e30 073f 9861 a3be
00000290: ac58 38be 4160 1abf 584b 2b3e 508b 963e
000002a0: fcb7 313c c01f a8bd 7d7e f93e fa23 acbe
000002b0: 5672 043f ab61 963e e70d 483f a260 fdbc
000002c0: 55dd 50bf 5589 db3c ed1b 7f3d 8f62 c7bd
000002d0: 76f5 b7be 233c c9be b143 26bf fb43 ab3e
000002e0: ef14 8b3a 52f7 8ebe 87f3 063f 361e 873e
000002f0: 0bc1 03bf aae4 9dbe 9a37 683d 8489 4c3e
0.46173814 -0.27154806 -0.014609403 -0.8064273 -0.2315892 0.063944384 -0.26831543 -0.26454246
0.284282 -0.17357916 -0.7372309 -0.23521702 -0.257425 0.38248035 0.044589996 -0.5879331
0.31714517 0.035908528 0.62163514 -0.6363164 -0.40345502 -0.12971924 0.06712382 0.14466535
-0.12647203 -0.61013514 -0.69992876 -0.008727288 0.021141574 0.48562387 -0.0156413 -4.060217e-06
-0.005593556 0.45624784 0.10365046 -0.58610684 -0.33745039 -0.13077208 -0.13169725 0.05424904
0.08164249 0.7568831 0.46482876 -0.37832424 -0.40757355 -0.27786678 0.536829 0.12705901
-1.3583293 -1.2157303 -0.71199024 0.036353353 -0.06214608 -0.0015052707 -0.16868432 0.634497
-0.33091795 0.13878822 0.40361175 0.04820706 -0.41778278 -0.66507083 0.38056096 -0.18412127
-0.22811803 0.5048219 0.78103256 0.08189955 -0.8240963 0.013545166 -0.0018294075 0.010740907
-0.10380518 0.48072922 -0.7309735 -0.3263152 -0.04099904 0.16458338 -0.21039502 0.69738954
-0.5094611 0.28398123 0.020586396 -0.357534 -0.17610857 -0.59350497 0.81369895 0.012290672
-0.002835941 0.013188167 0.6342249 -0.5511173 -0.28808475 0.34372073 -0.30962715 0.04595519
-0.17785154 -0.10718577 0.014734055 -0.793078 0.36200222 0.085074574 -0.0013888058 -0.019185983
-0.010470223 -0.5649423 -0.017397 0.56236863 -0.8762012 -0.04422286 0.75931245 0.024769874
-0.03530957 -0.029750485 -0.35761014 0.012120925 0.38706502 0.4213743 0.09964157 -0.5848119
-0.03233597 -0.6214544 0.58648074 -0.23914526 -0.036709633 0.2612572 -0.32327554 0.630511
-0.34160075 -0.31717137 0.33069536 0.25082242 -0.37174723 0.5195679 0.51748943 0.36518505
0.16587226 -0.5131998 1.701609 0.10507107 0.1317872 -0.20558885 0.2960245 -0.025581364
-0.2700594 0.313269 0.42056042 0.07848063 -0.6019621 0.13192728 -0.12457243 -0.23729727
0.376754 0.29803565 -0.6154267 0.06934756 0.38768926 0.21602823 -0.17375991 -0.6680675
0.18359004 0.11792923 0.5280818 -0.31910396 -0.18002576 -0.6030312 0.1672796 0.29403162
0.010847088 -0.08209181 0.48729315 -0.33621198 0.5173696 0.2937139 0.78146213 -0.030929867
-0.81587726 0.026798883 0.06228249 -0.097355954 -0.3592946 -0.39303693 -0.6494704 0.33450302
0.0010611097 -0.27923065 0.52715343 0.26390237 -0.51466435 -0.3083852 0.05669365 0.19974333

bias f4 [32]
00000000: 474a 9b3e 7126 f93e 782a 3c3e 32de dd3e
00000010: 25e1 4b3d d901 f73b 26f4 993e f825 f83d
00000020: f759 213e bc11 2d3e 9226 093e fbdb ffbc
00000030: 4767 3ebd 26d1 41be a4a7 ef3e 527a a3be
00000040: 1f04 ab3e ba72 e2be c137 c63c d48e 9cbe
00000050: f714 59be bd55 193e 17af a53e c673 313e
00000060: 23c7 c93e 6384 fd3d 123d 853d eb26 4c3c
00000070: e9f0 423e 9e53 b4be bea0 733e 21af 823e
0.30330107 0.4866214 0.18375576 0.43333584 0.04977526 0.007538062 0.30069083 0.12116617
0.15756975 0.16901296 0.1339362 -0.031232825 -0.04648521 -0.1892744 0.46807587 -0.3192926
0.33401582 -0.44228154 0.024196507 -0.3057772 -0.21199404 0.14974113 0.32360145 0.1732932
0.39409742 0.123787664 0.06505789 0.012460451 0.19037212 -0.35220045 0.23791787 0.25524238

weight f4 [64, 32, 3]
00000000: ab5a 60bd b9d5 4cbe b70d 313f ffb0 cabb
00000010: 32f5 2cbd 81f9 4a3e 8456 c2be 42e5 c4bb
00000020: 4965 2cbf 1f38 b93d 742e 08be b7c4 11bf
00000030: d696 ea3e dbeb 25bd 0c51 9abe 4173 803e
00000040: 76b3 263e 57c9 0abd b508 a43c 1916 693b
00000050: e448 9a3d 9bcb 08bd 6620 833e 0e92 2ebf
00000060: 98c7 ac3e 3a9f f73c f729 c53d 68d7 0bbe
00000070: b5e4 2f3d 8218 34be 0832 2bbe 6921 ebbe
00000080: 5180 89bf c879 0dbe 4120 a03e fcae 733d
00000090: 6b3a 62ba 7c31 ae3d b367 f93d bfae d3be
000000a0: 7d31 f13e e15b 1bbf fb3c 303e d941 f7be
000000b0: 6b2e 633e 2de6 89be 1af2 f2be b38f 81bd
000000c0: 45fb 25be a5d3 9fbc fb5a 25bf 823c 583e
000000d0: c051 a13d 242f 663d 87d7 5abf fef8 b8bd
000000e0: 81b5 58be be1e 58be 3798 5fbe 0bda cdbd
000000f0: c7cb af3d f6d3 07bf e97c 2c3e 6399 2fbd
00000100: 054a d13d 7aad 49bf 58b2 84be 5913 d5be
00000110: b9f3 2bbf 1cb7 9a3e 5129 4abe 2b14 d23d
00000120: 1db5 b5bd c6aa 38be 721b e3be 6233 98be
00000130: b004 913b 8d16 95be 80fe 32be c1e1 2d3c
00000140: 2903 a53e 36f4 a9bc 3c69 0dbe 7715 2bbe
00000150: 444d 263d 3736 6ebe b96e 53be 43dd dbbd
00000160: 8234 933e 122f 1a3e d52d 45bf 43ee 9cbe
00000170: 7694 843d 7139 05be e7a8 893e baa3 fabe
00000180: 36e1 71be 1c8e 88bd a9a2 323e 038b f1bd
00000190: faba e63d ab7c 12be 489f dfbd c14b 2dbc
000001a0: f263 66be e640 b8be b14e a3bd fc78 14bf
000001b0: ea09 01bf 6243 dabe 2a3d 2fbf 764f 933e
000001c0: 8547 e33d 26be 61be 749f a53e 5422 69be
000001d0: 9802 b9be 7bb4 d13b cd3a fdbc 7cf2 82bf
000001e0: 2d46 c9bd c4ed 61bd 35fe f3bd 060e c83e
000001f0: 5c77 9b3d 303a 42bf 3033 7a3e fd1e 20be
00000200: 9c85 b1be a1d2 c3be a405 b9bc 916f 81be
00000210: 8a8d 3dbf f3c6 f43d f2cb 6d3e 523d 8e3e
00000220: 5a25 c03e 0576 d13d 95e9 e8bd 2714 bcbe
00000230: f753 093e e554 913e a74f 4e3e c54f b1be
00000240: 4af9 70be a3b9 493e 84ec 82be dac2 92bf
00000250: 0c8a 4c3b 701c 45bf a168 603e ae31 a0bd
00000260: 1aeb 233e befb dd3e 51be dd3d e56c 893d
00000270: 71d6 e6be 507b 0f3e 4bc6 1b3e bc47 213e
00000280: 1ac5 d6bd c14d adbe 8ec3 e43e 533a 113d
00000290: 8737 35bb 6b9c 203e 0d36 ecbd e482 9abe
000002a0: c8f6 8ebe 7fa6 79be 4a37 a1be 027c 7c3e
000002b0: 1fd2 493e 0606 9dbd 0f05 d5be 5745 4c3c
000002c0: 3e4e cfbe ad11 1ebf e865 323e 5439 09bf
000002d0: a28c 04be dea6 9dbe d107 27be 0a2a 853d
000002e0: 5b65 103e 54b5 883c de91 f63d a4e1 933e
000002f0: 9a30 5e3d 6050 fbbe 927d 10bd c487 11bf
00000300: b38c 313d 279b 6ebf c0dc 0ebf fc94 9abe
00000310: f89e 40bf 02da 5cbe e5af 823e 6d1e 39bf
00000320: 8fab 30bd cb97 2abe 0903 7f3e da8d 8c3e
00000330: 292e 303c 2e92 45be fc57 5ebd 3b0b d4be
00000340: 2fba fabc 3000 d3bd 9ce7 883e 3b7a 30be
00000350: b3fd 80bd 037d 83be 7144 c4be 86b4 e73d
00000360: c2c1 b33e 5a27 a7bd dc83 d53c 88b8 b0be
00000370: 1f7b edbe 5ebe 093c ccf5 a03e 71c5 183d
00000380: 489c 033e 245b a9be 00c0 d43d 7b31 573e
00000390: f69f 623f 866b 313e d6db ddbd 5feb 07bf
000003a0: 03cf 51bc 3f86 993e 20ec abbe 4c9b a63e
000003b0: 0af8 6f3e 9af0 c3be 2ded 23bf dbed 653d
000003c0: 3a6a 343f 59e6 223d 1b5f 13be 9143 d3bd
000003d0: 2f07 8cbd 5cd6 9abd 9acf 993d f59b e8bd
000003e0: fad0 723e dd61 63be 5773 e73c 3cf6 5ebd
000003f0: 22b8 fdbe ce0b 6f3a 457f ba3b 06f8 e93d
-0.054773968 -0.20003404 0.6916155 -0.0061856504 -0.042226024 0.1982174 -0.3795663 -0.006008775
-0.6734205 0.090439074 -0.1329897 -0.5694079 0.45818204 -0.040508132 -0.3013996 0.25087932
0.16279396 -0.03388342 0.020023683 0.003556615 0.07533434 -0.0333973 0.25610656 -0.6819161
0.33746028 0.030227292 0.09627145 -0.1365639 0.04294272 -0.17587474 -0.16718304 -0.45923927
-1.0742284 -0.13815987 0.31274608 0.05949305 -0.0008629921 0.08505532 0.12177982 -0.41344258
0.4710807 -0.6068707 0.17210762 -0.48292425 0.22185676 -0.26933423 -0.47450334 -0.063262366
-0.16209133 -0.0195101 -0.6459195 0.21116832 0.07876921 0.0561973 -0.8548512 -0.090318665
-0.21162988 -0.21105477 -0.21835409 -0.10051354 0.08583789 -0.530578 0.16844524 -0.04287089
0.10219196 -0.7878033 -0.25917315 -0.41616324 -0.67168766 0.30217826 -0.19742323 0.10257753
-0.08872435 -0.18033895 -0.44356877 -0.29726702 0.0044256076 -0.29118767 -0.17479897 0.010612906
0.32228974 -0.020746332 -0.13809675 -0.16707407 0.04060103 -0.23262869 -0.20647706 -0.10735562
0.28750998 0.15057018 -0.7702306 -0.3065053 0.06473629 -0.13010193 0.26886675 -0.48953038
-0.23621067 -0.0666773 0.17444862 -0.117940925 0.11266132 -0.1430537 -0.10919052 -0.010577143
-0.22499064 -0.35987014 -0.079739936 -0.5799711 -0.5040575 -0.42629534 -0.68452704 0.2877156
0.11097626 -0.22045192 0.32348216 -0.22767001 -0.3613479 0.006399689 -0.030911827 -1.023025
-0.09827838 -0.05515839 -0.119137205 0.390732 0.07591125 -0.7587004 0.24433589 -0.15636821
-0.34672248 -0.38246635 -0.022585697 -0.2528043 -0.74044096 0.11952009 0.2322233 0.2778116
0.37528497 0.102275886 -0.11372677 -0.36734125 0.13410936 0.28385082 0.20147572 -0.34631172
-0.23532596 0.19699721 -0.25571072 -1.1465714 0.0031210212 -0.7699652 0.21914913 -0.07821976
0.16007653 0.43356127 0.108273156 0.06710223 -0.4508548 0.14011884 0.15212362 0.1575002
-0.10486813 -0.33848384 0.44680446 0.035456013 -0.0027651505 0.15684669 -0.11533747 -0.30177987
-0.27922654 -0.2437992 -0.31487495 0.2465668 0.19709061 -0.076671645 -0.41605422 0.012467704
-0.40489382 -0.6174572 0.17421687 -0.536031 -0.12944272 -0.30791372 -0.16311575 0.06502159
0.14101164 0.016688026 0.12039541 0.28883088 0.05424557 -0.4908476 -0.035276003 -0.56847787
0.04334707 -0.93205494 -0.5580559 -0.3019179 -0.7524257 -0.21567538 0.25524822 -0.7231205
-0.04313236 -0.16659467 0.24903502 0.27451974 0.010753193 -0.19294044 -0.054283127 -0.41414818
-0.030606357 -0.1030277 0.26739204 -0.17234127 -0.06298389 -0.25681314 -0.38333467 0.11313729
0.35108763 -0.081618026 0.026063852 -0.34515786 -0.46382996 0.0084072035 0.31437528 0.03729767
0.12852585 -0.33077347 0.103881836 0.21014969 0.8852533 0.17326173 -0.10832946 -0.5309352
-0.012805703 0.29985234 -0.33578587 0.32540357 0.23434463 -0.38269502 -0.64033777 0.05613504
0.7047459 0.039770458 -0.14391749 -0.10315622 -0.06837308 -0.07560417 0.075103 -0.113578714
0.2371253 -0.222053 0.02825324 -0.054434046 -0.49554545 0.00091188855 0.0056914412 0.1142426

bias f4 [64]
00000000: b093 053e 0cb8 47bd 0c2e 833d fc17 0abd
00000010: 7672 c93c e77f 85bd c041 393e 51fb f83c
00000020: b778 7f3d e42b c3bd b2a7 a93d 5423 933c
00000030: 8255 a33d 89fb 1d3e 2b37 7abd a673 93bd
00000040: 606a fe3d 2355 21bc ba41 0a3e 4208 1cbd
00000050: 81f1 d8bd 7871 04bd b4ac 86bd 5835 bb3c
00000060: cd7e cf3d 0607 2f3d 2277 b43d d336 01be
00000070: a86e f43d d196 a7bd 2a2c de3c f8b6 93bb
00000080: 09df 51bd ddd3 343d 526f ea3d efea 92bd
00000090: 4f44 16bc 7b03 a03d 5505 bc3d 59bc a2bd
000000a0: c9d1 7cbc a395 f43d 8299 64bd 6c58 47bc
000000b0: ad35 743c f625 f03d 2e07 b53c f584 65be
000000c0: 3fc2 933d 0f55 0f3e ded1 f03c 7ee0 003e
000000d0: 76e5 573e 5ed1 e9bc 0b91 9bbc 8feb 81bd
000000e0: 4104 bcbc b945 2ebd f09d 1b3d b380 de3d
000000f0: 24c7 36bd eab3 cbbd 26cf a73d fa92 453d
0.1304462 -0.048759505 0.06405267 -0.03371428 0.024590712 -0.06518536 0.18091488 0.030393275
0.062370982 -0.09529856 0.082839385 0.017961182 0.07975294 0.15427984 -0.06108777 -0.071997926
0.12422633 -0.009846958 0.13501635 -0.038093813 -0.10592938 -0.032334775 -0.06575909 0.022852585
0.10131607 0.042731307 0.08811785 -0.1261857 0.119351685 -0.08183063 0.027120668 -0.0045078956
-0.051238094 0.04414736 0.11447014 -0.07173716 -0.0091715595 0.07813164 0.091807045 -0.07946081
-0.015430876 0.119426034 -0.05581046 -0.0121670775 0.014905375 0.117259905 0.02209815 -0.22414
0.07214784 0.13997291 0.029396947 0.12585637 0.21083626 -0.028542217 -0.01899006 -0.06343757
-0.022951247 -0.04254696 0.037992418 0.10864391 -0.04462351 -0.09946425 0.08193807 0.04823587

weight f4 [128, 64, 3]
00000000: fb5a 433e 5566 09be dbaf 04bc 2e7f 9b3e
00000010: 9698 4d3e 90b5 bc3d f472 31be ee2f e63d
00000020: 4ff6 ca3e b67d f23d eb8e 523e 0e74 3ebe
00000030: c824 1c3e c3c1 83bd c13c adbc 3fe9 85bc
00000040: f195 8b3c 1b5c f33e e06e 3bbf 14f2 f9be
00000050: 4fd1 bebe d44f bcbe 3caf ab3e 89a6 a4bc
00000060: 84e4 853f 2e67 a7be 24fb 11bf 1e82 cb3d
00000070: 6763 87bd b3f5 edbd d363 06be 33d6 0cba
00000080: e3f0 29be e068 3f3e d277 133d cfdc 9b3e
00000090: baab d9be 2dd3 c6be cf87 073d 0d38 b13d
000000a0: 775c 2abe 7dd3 a4be b08a afbe d920 89be
000000b0: 7550 513e 5c69 9fbe 68fd 5cbd 5e27 5b3d
000000c0: 3c8a 37be 21c9 d6ba ac96 d43c 5e6c 293e
000000d0: f063 633e bb35 62be 6210 333c ee18 513f
000000e0: de73 9c3f 560c 04bd 1fc6 40be 235f bdbd
000000f0: b926 053e d145 f53d d82e b93b 86b7 b3ba
00000100: 205b 10bd 7d27 593f 8d7a 173e 1f01 8cbe
00000110: 34e9 48bd b169 75be 4cab b2be ed87 12be
00000120: 9486 c3be 8940 b6be f395 90be e4da 21be
00000130: 92a5 1e3f 4838 843e b980 973e 68d3 533e
00000140: 8b89 593d f037 eb3e 796e 933e 1c15 be3e
00000150: 913e 2dbe 75dd 8abe a354 9b3d cc71 df3e
00000160: 9d3c fe3e 6047 503f f843 853e 2a68 e9bd
00000170: 90b9 dc3d 8c2f 8a3d 5832 28bf d0fd 22bf
00000180: fc1e 923d 428d 073d 6b0d 153d 9726 043d
00000190: 4ecb c2be c23e f0bd df5b 883d 1d91 1c3b
000001a0: d135 0fbe 64b7 27be cffa 1cbd 20b6 88be
000001b0: 669d 67be a3f7 d8be fb85 49bf cc0e 203f
000001c0: 6dda 263f 4d80 ce3e 58a1 573b f54c b33c
000001d0: 27ee 08be 0ce0 873e 7a18 1a3e 359a a43d
000001e0: 5ca7 1d3e 6cb7 103e 50bd 99bc 2986 223e
000001f0: b1d7 2a3f 5afa 773e 6fe3 97bd 29f8 633e
00000200: 3a50 833e bb1a 83bd 5ffb aa3e b6f6 a2bd
00000210: e7b1 563e 5f7e 1e3d 87b3 c23e 13eb ee3c
00000220: b5b6 bcbe d61f b63e ba6d 1abe 6372 983e
00000230: 307a 293e d203 c4be 34a4 07be c49d 843e
00000240: 1dc6 c43e 1411 623e f469 683e 13b8 1cbe
00000250: a7be 6ebf ad50 07bf 25f6 abbc 2c55 5abe
00000260: 7d1c 8fbe 5194 083e 2383 933e 7fb0 573d
00000270: 5d49 783d 5518 e8bd cfc2 d4bd 21d0 7dbd
00000280: d2bc 21bf 31c2 ee3d 36a4 263e fd33 ccbe
00000290: 7211 2abe 7a89 73be 4140 91be 500b 87be
000002a0: 8149 873c 0818 8b3e ec2d d6bd b6fc 8dbc
000002b0: 37d1 b8bd 2866 4a3e eefc e0bd e629 c5bb
000002c0: 859e febe 4710 2ebe f236 913d 4302 f1bd
000002d0: 2ced 82be e082 aa3e 706c 803e 52ca a73d
000002e0: 0749 633d 3afc 76bc 8cdf e2be efd4 0ebf
000002f0: 010d b23e 72b6 893e 8d23 5bbe 6c39 6c3e
00000300: aa03 05bf cb20 dabe 94a8 1bbe 1f93 8e3e
00000310: b37b 3b3e 32a7 7d3e 9d79 46be 768b 1cbe
00000320: dceb b6be c36f e4be 6a35 b4bd ac0f 843e
00000330: 5f2b 0bbc ad50 403f 397a 6d3e 4cd6 98be
00000340: 041a dabd 2ac9 e1be 0669 8fbc c4b2 9f3d
00000350: 70f5 a1be c50f fa3b 49dc ca3c c6cc 3abe
00000360: 3d70 80be a2d9 c43d bb70 d53d 5265 5b3e
00000370: b08a 293f 38e4 a7bd 8ac8 8c3f 324b bb3e
00000380: bf81 893e 2f8c 89be 3aea 45be 35a9 1c3e
00000390: 9c37 de3b 4578 36ba 46c1 823d 79be 0ebe
000003a0: 21e6 673e 400d 09be 51c2 9c3e 7b5a 983e
000003b0: 332b bf3e 9e4b 80bc 0a72 a03c 290f 933c
000003c0: ec01 133f bf0c 643e 5307 7d3e 0cbd 1f3d
000003d0: 457f c83e 5249 c93e 8b88 91be 8dbd 963d
000003e0: ef77 3d3e 853d b43e 0604 fc3e 275b 20bc
000003f0: 98b2 a23f 1161 4c3f 7c38 013f f00a 4dbe
0.19077675 -0.13417943 -0.008098568 0.30370468 0.20077738 0.09214318 -0.17329007 0.112396106
0.39641044 0.11840384 0.20562331 -0.18598959 0.15248406 -0.064334415 -0.021147134 -0.016346572
0.017039271 0.47531208 -0.73216057 -0.48817503 -0.37269065 -0.36779654 0.3353213 -0.020098941
1.0460362 -0.32695907 -0.57023835 0.09936927 -0.06610756 -0.11619129 -0.13124017 -0.00053724943
-0.16595797 0.1869235 0.03600294 0.304419 -0.4251383 -0.3883299 0.0330885 0.08653269
-0.16636835 -0.32192603 -0.34285498 -0.26782873 0.20440848 -0.3113507 -0.053952605 0.05350434
-0.17923826 -0.0016386845 0.025950752 0.16545245 0.22206092 -0.22090809 0.010929199 0.81678665
1.222286 -0.032238327 -0.18825577 -0.092466615 0.13003053 0.11976207 0.005651336 -0.001371131
-0.035243154 0.8482588 0.14792843 -0.27344605 -0.049050525 -0.239661 -0.34896314 -0.14309664
-0.38188612 -0.3559611 -0.28239402 -0.15806156 0.6197139 0.2582419 0.29590395 0.20686114
0.053109687 0.45941114 0.2879522 0.3712548 -0.16918398 -0.27122083 0.075845025 0.43641508
0.4965562 0.8135891 0.2602842 -0.11396821 0.10777581 0.0674735 -0.6570182 -0.6366854
0.07134816 0.0330937 0.03638975 0.032263365 -0.38045734 -0.1173072 0.06658148 0.0023890205
-0.13985373 -0.16378552 -0.038325127 -0.2670145 -0.22618636 -0.42376432 -0.7872006 0.6252258
0.6517704 0.4033226 0.0032902565 0.021887282 -0.13372098 0.26538122 0.150484 0.08037225
0.15395874 0.1413247 -0.018767029 0.1587149 0.6673537 0.24216595 -0.074164264 0.22262634
0.25647146 -0.06401583 0.33394906 -0.079572126 0.20966302 0.038694736 0.38027593 0.029164826
-0.36858144 0.35571164 -0.1508092 0.2977477 0.16550517 -0.38284165 -0.13246232 0.25901616
0.38432398 0.22076827 0.22696668 -0.15304594 -0.9325966 -0.52857476 -0.020991394 -0.21321553
-0.27951422 0.13337828 0.28810987 0.052658554 0.06061684 -0.11332766 -0.10388719 -0.061966065
-0.6317874 0.11658133 0.16273579 -0.39883414 -0.16608217 -0.23782912 -0.28369334 -0.26375818
0.016514542 0.27166772 -0.10457978 -0.017332416 -0.090242796 0.19765532 -0.109857425 -0.0060169576
-0.49730316 -0.16998397 0.07090558 -0.117680095 -0.25571573 0.33302975 0.2508273 0.081928864
0.055489566 -0.015074784 -0.44311178 -0.5579366 0.34775546 0.26897007 -0.2140028 0.2306878
-0.51958716 -0.42603144 -0.15201026 0.2784662 0.18308906 0.24770811 -0.1938233 -0.15287575
-0.3572682 -0.44616517 -0.087992504 0.25793207 -0.008494227 0.751231 0.23191155 -0.29850996
-0.10649493 -0.44098788 -0.017506134 0.07797769 -0.31632566 0.0076312744 0.024763243 -0.18242177
-0.2508563 0.09611823 0.10421892 0.2142537 0.66227245 -0.08197826 1.09987 0.36580807
0.268568 -0.26864764 -0.19327632 0.15298922 0.0067815315 -0.00069606706 0.0638452 -0.13939847
0.22646381 -0.1338396 0.30617002 0.2975653 0.37337646 -0.015661057 0.019585628 0.017951565
0.5742481 0.22270487 0.24709825 0.03899865 0.391596 0.3931375 -0.28424487 0.07360373
0.18502782 0.35203186 0.4922182 -0.009787357 1.2710752 0.7983561 0.50476813 -0.20023704

bias f4 [128]
00000000: 18d1 243c ba8a 00be f559 bf3c a665 2bbb
00000010: 66d3 ff3d 1496 10bd 8634 d03d 645b 883d
00000020: cfac f73d 48bd 8a3d 2ccc b6bc 6b53 193d
00000030: bb3f 103d a081 7f3d ff76 38bc 5a1c b23d
00000040: 593b 063c f2d3 57bd 9458 aa3d 105d e73d
00000050: a221 743d 4bd7 cebb 2425 78bd 1f64 a83d
00000060: 4080 113d 4f2a 393d 2ccc 5dbc 7bd1 f33d
00000070: db2d 0f3d 1a58 653d f041 f83d a959 ee3c
00000080: 14a7 b23d d32c 133d 39ed 61bc 10ed 16bd
00000090: ef6e 6e3d 4279 663d 72c6 ae3d 758a a13c
000000a0: cafa 3dbc a61c e53d 4610 9e3b 0573 0dbc
000000b0: 7208 cd3c 93d0 a43d f335 973d 4512 8d3d
000000c0: aa21 d73d c4b9 313d b8f9 ab3d d397 333d
000000d0: 074b 2f3d 682b a93d 690b 8dbd 0279 57bc
000000e0: 40b0 cdbc 8d96 d93d 2d9c 19bd d187 2ebc
000000f0: 55e3 a93d f87f 2b3d f0b2 30bd b852 b5bc
00000100: c6dd f23c b812 263d 2725 963d 9727 c3bc
00000110: f652 333e 1bdc acbd e403 b53c bc44 e5bb
00000120: f392 873d 830e 3e3d 4d7c f2bc 1913 923c
00000130: 14ae b93d 10b1 6f3d abee a13d 802c 993d
00000140: 3864 943c 0d9b 263d d41b bd3c 4d3c c83c
00000150: cbfe b23d bf99 80bb 2d02 003e 4c2c 873c
00000160: 996e a03b 7bb8 ccbc 321f cf3c 7157 0cbd
00000170: 8a7c 4d3c f875 593d 00a5 fe3c b94b 593d
00000180: bb73 f538 7b7e 81bc eb43 ad3d 31bd d13b
00000190: 9183 8e3d 5c0e 253d 8170 993d c9bb cb3d
000001a0: 5620 bfba dee4 223d 1204 9dbd a5b3 e5bb
000001b0: 0c14 873c 6b30 a33d 1d5d 143d 5786 4e3d
000001c0: 55e7 833c 33cb e9bc 99a1 6a3d 7973 993c
000001d0: e149 ec3d 2a3d dbbc 979c 013e b211 573d
000001e0: c325 5fbc 9cd7 113d 357f 093e 9967 653d
000001f0: 67cc bbbc c4ae 443d df50 2fbc 6702 ca3c
0.010059617 -0.1255292 0.023358325 -0.0026153116 0.12491493 -0.035299376 0.10166268 0.066580564
0.120935075 0.06774384 -0.022314154 0.03743307 0.035217028 0.06237948 -0.01125884 0.08696814
0.0081928605 -0.05269236 0.08317676 0.11297047 0.059602387 -0.006312286 -0.060582295 0.082222216
0.0355227 0.045206364 -0.013537448 0.119051896 0.03495584 0.055992223 0.121219516 0.029095488
0.08723274 0.03593142 -0.013789468 -0.036847174 0.058211263 0.056267984 0.08533944 0.019719342
-0.011595437 0.11187105 0.0048237173 -0.00863338 0.025028441 0.08047595 0.07383337 0.0688825
0.10504468 0.04339005 0.083972394 0.043845963 0.04279616 0.08260232 -0.06886942 -0.013151409
-0.025108457 0.106244184 -0.037502456 -0.010652498 0.08295313 0.041870087 -0.043139398 -0.02213417
0.029646765 0.040545195 0.07331305 -0.023822589 0.17512116 -0.08440419 0.022096582 -0.006996719
0.06619825 0.04640056 -0.029600287 0.017831372 0.09066406 0.05851847 0.079068504 0.07479191
0.018114194 0.04067521 0.023084559 0.024442816 0.08740004 -0.003924578 0.1250083 0.016500615
0.004895997 -0.02499031 0.02528343 -0.034263078 0.012541899 0.05309102 0.031084538 0.05305073
0.00011704067 -0.01580738 0.0846022 0.006400727 0.06958688 0.040296897 0.074921615 0.099479266
-0.001458178 0.039769046 -0.07666792 -0.0070099407 0.016489051 0.07968219 0.036221612 0.050421085
0.016101519 -0.028539276 0.057283018 0.01873182 0.11537529 -0.026762564 0.1265739 0.05250711
-0.013619843 0.03560601 0.13427432 0.056007 -0.022924615 0.048018232 -0.0107004335 0.024659349

weight f4 [256, 128, 3]
00000000: a3bb e4be 7154 23bf cf3d 1dbf 2c59 2e3d
00000010: 4891 4a3e 33cc bd3d d3cc c2bd 9539 d23d
00000020: 257d 14bd 61c7 c9bc b1ba 603d bfb5 94bd
00000030: 5939 14be 2756 bebe 21e4 09bf f754 723d
00000040: 0a89 3c3e a797 45bd cd8b 78be 963c a8bc
00000050: c2f8 e43d d5c5 0a3e f926 92be 3ac6 9dbe
00000060: c36f c33e 5c56 043f 78b7 df3e 5394 87be
00000070: 1712 75be b932 3ebe 13de 203e b16a 733d
00000080: fa18 55be b0af 4b3e 11a9 5fbd 6906 d8bd
00000090: cee0 eebe 790d 25be d640 973c 9bf8 ddbe
000000a0: 56a9 35be 9854 29bd b085 393e ed31 b93e
000000b0: 68fb 923e daf2 24be ced0 693e 2fa6 3a3e
000000c0: e986 d1be 8a6a 313c 510c b53d 705e edbe
000000d0: cd34 5fbe 8b10 f4be d7fe e8bb 7e38 9f3e
000000e0: 5110 843d a839 05bd d3ad 173e d866 1e3e
000000f0: 7a3c 1c3f 394e 383f a0ae 523f 7745 813e
00000100: 6ab7 883e d767 2d3e cf07 d2be 8b65 58be
00000110: 6f71 8bba 70a9 f3bd 3d34 b13d 163b 183e
00000120: 979c 513e 570f 893e 8c23 bb3e 717c b9be
00000130: 861b 8bbf 0781 8abf ebce 133e 6d12 60bc
00000140: 132b 5ebc c482 21be 257d 803d eba5 c9bd
00000150: 6693 4f3e 97a9 833e aae4 07be e2ed b6bc
00000160: 75ac ab3e e31f ba3d 0414 bebe c89b 28bf
00000170: c251 c2be 7897 c6bd 5955 40be d57d 74be
00000180: 93df 903d f4e2 1e3d cf79 053e 4eaa babe
00000190: 9fe2 e6be f946 e6be 9725 5ebd e530 69be
000001a0: f5f9 88be 88ac 253e 57f6 b2bc 10f9 133e
000001b0: 1a70 f63d 71d2 0c3e f298 563e dfa4 95be
000001c0: d7bc 1cbd 6320 88bd 3290 0e3e 0fa0 f73e
000001d0: 3589 7a3e 9009 e6be a95e 9abe 1263 babd
000001e0: bd38 4c3e 5e04 8dbc 22df b13d 8271 bc3e
000001f0: 1ae7 393f d994 563f ddd2 813e 54d2 013f
00000200: 6c43 273f 70fd 2b3f 85ba a73e f2c8 603e
00000210: b1a9 4ebe 7c2f efbe 50b3 15bf 80eb 213d
00000220: 8009 4fbe 9566 96bd edf5 cf3e 8a4b 183f
00000230: 6f5b 1f3f 278e 25bd 8d44 a53a a99c 8b3d
00000240: dfc0 e5be 4adb 00bf 4ae3 e6be 7942 b7bd
00000250: 4a15 7fbd 065c 373e 7da5 623d 682b e4be
00000260: 38aa febe 26bc 823e 9299 733e e0cd d93d
00000270: bcae 86be c8b4 abbd 7b4f bebd 9151 593e
00000280: d015 443e 55d5 833e 2f86 c33e 9815 b13e
00000290: cd2b 793e 962a 85be 0e47 05bf 3367 c7bd
000002a0: 13c5 19be cc8d 3d3e 160c 56be ba06 943e
000002b0: 2790 063e cdc5 0a3e 226b 683d ce95 0a3e
000002c0: 9cb9 96bb 074f 32be 8175 1e3c fb90 b4bd
000002d0: 1482 74be b421 89bd 8bbd 84bd c151 c0bc
000002e0: 5a42 313e 32c3 f93e 7e1d 533c 268a 91be
000002f0: c837 03bf a7ac 7bbe dc13 aebe f828 d5be
00000300: 5290 3bbd 42fe 1c3e f393 343e a245 a53e
00000310: 6e0f d63d f132 b5be 2f37 bd3d 35cf 413e
00000320: 4858 e23d 3292 9ebe c676 0bbe 76c5 69bc
00000330: 78a2 91be 7d9f 3bbe 0be6 8fbe 8fa1 e43c
00000340: 2932 38bd 31d4 dbbd 7207 a8bd 337b 67be
00000350: c609 6ebe 97da 8cbc e59c 893e c4b2 423e
00000360: efee f43e 5233 f03e 205d 063f 2759 7bbc
00000370: d3ec 543d f36e 1abc 7111 80be 3636 89be
00000380: f247 efbd f38a 933d 4507 7e3e e3e3 b23e
00000390: f40a d13e 9423 d83e 997b f53e a526 17bd
000003a0: a24a bebd d030 8b3c 949b 9a3d 4733 d13d
000003b0: 6c77 64be f31a b13e 1bde 973e facd 433e
000003c0: c66b d5bc d69e cabd 3849 a6be 2ca9 7cbe
000003d0: 9bc5 d7be d4a2 65be 4fdc 9c3c 83ac 673a
000003e0: 2276 e6bd b903 b03e ca00 b93e a4b7 8f3e
000003f0: 620d d23c e858 8fbc 147c 933d 1939 0abd
-0.44674405 -0.6380072 -0.6142244 0.04256551 0.19781983 0.092674635 -0.09511723 0.10264889
-0.03625216 -0.024631204 0.054865543 -0.07261228 -0.14475001 -0.37175104 -0.5386372 0.05916306
0.18411651 -0.04824033 -0.2427208 -0.020536702 0.11180259 0.1355203 -0.2854536 -0.30815297
0.38171205 0.51694274 0.43694663 -0.2648035 -0.23932682 -0.18574037 0.15709715 0.05942792
-0.20810309 0.19891238 -0.054604594 -0.10548098 -0.46655887 -0.1611842 0.018463533 -0.43353733
-0.17740378 -0.04134044 0.18117404 0.36170903 0.28707433 -0.16108266 0.22833559 0.18227457
-0.4092324 0.010828624 0.0884024 -0.46361113 -0.21797486 -0.4766887 -0.0071104574 0.31097788
0.064484246 -0.03252569 0.14812402 0.1546892 0.6102978 0.7199436 0.82297707 0.2524831
0.26702434 0.16934143 -0.41021582 -0.21132486 -0.0010638664 -0.11897552 0.08652542 0.1486629
0.2046989 0.26769516 0.36550558 -0.36227754 -1.0867774 -1.0820626 0.14434402 -0.013676268
-0.013560074 -0.1577254 0.062738694 -0.098460995 0.20271072 0.25715324 -0.13270822 -0.022330228
0.33530012 0.09088113 -0.37124646 -0.65862703 -0.37953 -0.09696859 -0.18782558 -0.23876126
0.070738934 0.038790658 0.13034748 -0.36458057 -0.45094773 -0.44976023 -0.054235067 -0.22772558
-0.26753202 0.16179097 -0.02184598 0.14450479 0.120331004 0.13752152 0.20956782 -0.2922735
-0.03826603 -0.06646802 0.13922194 0.48364303 0.24466403 -0.4492917 -0.30150345 -0.091009274
0.19943519 -0.017213996 0.08685137 0.3680535 0.7261826 0.83820873 0.25356188 0.5071156
0.6533725 0.6718359 0.3275949 0.21951655 -0.2018192 -0.46715915 -0.58476734 0.03953123
-0.20218468 -0.07343785 0.40617314 0.59490263 0.6224889 -0.04041877 0.0012608931 0.0681699
-0.4487371 -0.5033461 -0.45095283 -0.089482255 -0.062276162 0.17906198 0.055333603 -0.44564366
-0.49739242 0.2553417 0.23789051 0.10634971 -0.26305187 -0.08384091 -0.092925034 0.21222521
0.19148946 0.25748697 0.3818831 0.34586787 0.24333115 -0.26009053 -0.52061546 -0.097364806
-0.15016584 0.18511122 -0.20903048 0.28911382 0.13140927 0.13552018 0.056742795 0.13533708
-0.004599763 -0.17412959 0.00967157 -0.08816715 -0.23877746 -0.066958815 -0.06481465 -0.023476483
0.17310467 0.48781735 0.012885449 -0.2842571 -0.5125699 -0.2457758 -0.33999527 -0.4163282
-0.04579193 0.15331367 0.17634563 0.32279688 0.10452162 -0.35390428 0.09239041 0.189267
0.110519946 -0.30970913 -0.13619527 -0.01426827 -0.28444266 -0.18322559 -0.28105196 0.027909068
-0.04496971 -0.10733832 -0.08204545 -0.2260559 -0.23245916 -0.017194076 0.26877514 0.19013506
0.47838542 0.46914154 0.5248585 -0.01534108 0.051983666 -0.009425866 -0.25013307 -0.26799172
-0.11683644 0.07204237 0.2480746 0.3493949 0.4082867 0.42214644 0.4794586 -0.03690209
-0.09291579 0.016991049 0.075492054 0.102148585 -0.22311181 0.34590873 0.2966164 0.19121543
-0.026052367 -0.09893577 -0.32477736 -0.24673909 -0.42142949 -0.22425395 0.01914802 0.0008837657
-0.11253001 0.3437784 0.36133415 0.28069794 0.025641147 -0.017498448 0.072014004 -0.03374586

bias f4 [256]
00000000: 4892 e4bc 6df8 7cbc d717 5e3d def0 55bc
00000010: 1ef7 88bc 4981 483d 5f69 1e3d 9dd4 f8bb
00000020: c21e 373d e900 91bc be04 683c 7da9 a5bc
00000030: aaa1 423d e6a4 d33c 1b83 f3bc 7e0f bbbc
00000040: 880c fabc 14ab b33c 74c1 533d e76f fabc
00000050: b42e 4f3c f7d9 3a3d f04b 5a3d 9836 bcbb
00000060: 7f58 813c 7576 073d 3b9e 1abc 1c53 f63b
00000070: 4bf2 93bb 2c77 2dbd c4c8 25bc bf0e 8fbc
00000080: 92e2 5dbc d484 9d3b 31a2 8ebc 4aa4 3a3d
00000090: e86c d33c 556f 7f3c d3bd 843c b97e c6bc
000000a0: c5c3 bebb e6bb 6c3c 8356 023c 246f 54bc
000000b0: 5409 c8bc 2639 1abd 3b75 603d 95e0 193c
000000c0: 01bf 19bc c819 bb3b cc93 283c d515 92bc
000000d0: 8f62 d23c ef25 19bd ac0a a9bc 2623 3bbc
000000e0: 68a1 ea3c c56b 2b3d 4e4a de3c fc17 81bc
000000f0: ef82 673d 7512 8ebc 2d28 35bc 85c7 4cbc
00000100: d305 96bc 3f0e 07bd f8a6 f5bc 8409 1b3c
00000110: b449 363d 12d0 ebbb c3ed 103d 3a48 0d3c
00000120: 794d 5e3d 6108 5a3d b524 383d 30d8 333c
00000130: 436b 7e3c d2fd 353d c6d3 783d 3064 1d3d
00000140: aafd e3bb 4f44 12bd c39d 1dbd 5e87 c7bc
00000150: 8bea 06bd 59f5 1dbd 9c6e 34bd 9c22 35bd
00000160: ed1f 523a 7ad8 393c 7054 203c 989e 963c
00000170: e518 adbc be03 f4bc 12b6 f53c 39c0 34bd
00000180: 7592 07bd c8b4 9bbc 2c6f 5b3d b082 113d
00000190: 5bf2 3cbc 18e6 c2bc 1c33 debc d29c c9bc
000001a0: a01c 1cbd 84a0 90bc 3c53 c8bc 25c0 f03c
000001b0: 382d 573b 87e9 803d 8631 36bb a026 033d
000001c0: 5eb0 c83c ca8a 203d 0ef9 d53c 68be 833d
000001d0: 7651 c33c 314d 633d 39e5 c4bb 6e3f 7f3b
000001e0: 0208 683d 87ea ba3c 79cf c7bc 6590 0d3d
000001f0: d25d 06bc d749 3cbc a9ed 023d 2190 6d3d
00000200: e1c1 cdbc bfb5 9e3c 2989 443d 4f4b 0cbd
00000210: f024 c43c 8fb0 213c 7483 ad3c d6d7 973d
00000220: 9dde 4a3d b323 973d 0766 c33c bf9c f2bb
00000230: 656c a2bc b0c1 ab3c 123d f33c 43c1 00bd
00000240: c818 2fbd d79e 293b 7152 463d 2f1a 26bd
00000250: 3f1f 00bd 0c7e 4d3d 5edc 953c 8d3c 8f3c
00000260: 5c13 9ebc de8f e03c b091 503d f7c1 01bd
00000270: 2b3d 8d3b ea48 59ba 9e1e 423c c01c 3fbc
00000280: 38bc 8b3d 1b1c 913c 8430 b0bb a252 0c3c
00000290: a836 efba ea79 1f3d 4660 a0bc d580 86bc
000002a0: caab e9bc 268f 593c 9fb8 c03c 514b 653d
000002b0: 71ba 263d c0c8 693d cc47 fb3b 505f 34bc
000002c0: 6a0e a2bc 070d 8c3c a4e1 9cbc 748b 713c
000002d0: 947b 1a3d b495 1e3d e4b3 2fbd 58ea 6f3c
000002e0: 7e5c 443d 27a6 cd3c df65 ce3c 6876 233d
000002f0: 9182 35bd 5182 e33c ef22 333d 0de0 bebc
00000300: f94c 2cbc 2f85 843c 2081 9ebc 53e3 743d
00000310: 4d71 023d cced 16bd 71d2 343b 23fc e1ba
00000320: 7f62 c8ba bc5b 653d 5186 823d 92a7 283d
00000330: 304f 76bb 060a 413d b2c0 6fbc 0c39 6dbc
00000340: 7a86 003c cda7 5a3d e27a df3c 7ada 513d
00000350: 20da debc 4ae1 853d 99af ad3c e0a7 373d
00000360: 1ab0 f7bc 46f2 413c 3a1e 253d ddc0 8a3d
00000370: 1aae 2cbc 400a 323d a1b8 14bd 0e4e c0bc
00000380: 3941 e53c f2be 49bd d378 39bd 0649 f9bc
00000390: be56 b5bc 7ac9 e7bc cc76 1c3d acd8 023b
000003a0: 56db 49bc 9390 bd3c 1ba9 9e3c a454 213d
000003b0: 757d 763a af66 afba bfd0 febb afde 1dbd
000003c0: f28a 5abc 947e 363d ecf2 8e3d 3d63 a8bc
000003d0: 1ad8 6e3d 62eb 8a3c 9132 09bd 91a1 f93a
000003e0: 3c07 5d3c 7620 f63b 1273 29bd f9fc f43c
000003f0: 2114 e43c c3d3 453d f8d1 acbc 3287 173d
-0.027901784 -0.015440089 0.054221954 -0.0130579155 -0.016719397 0.04895142 0.03867471 -0.007593705
0.044707067 -0.01770063 0.014161287 -0.02022242 0.047517456 0.025835466 -0.029725602 -0.022834536
-0.030523553 0.021932162 0.051698163 -0.030570937 0.012645412 0.045618024 0.053295076 -0.005743813
0.015789269 0.033071954 -0.009437139 0.0075172316 -0.0045149676 -0.04234998 -0.010118667 -0.017463086
-0.013542788 0.004807094 -0.017411323 0.045566835 0.025808766 0.0155905085 0.016203796 -0.024230348
-0.0058216774 0.014449095 0.007955196 -0.012965951 -0.02441851 -0.037652157 0.0547993 0.009391923
-0.009383918 0.0057098605 0.010289144 -0.017832676 0.025681762 -0.037389692 -0.020634972 -0.011421954
0.028641418 0.041850824 0.02713504 -0.015758507 0.056521352 -0.017342785 -0.011056942 -0.012498741
-0.018313324 -0.03297257 -0.029986843 0.009462718 0.044503883 -0.007196435 0.035382997 0.008623177
0.054273102 0.053230647 0.04495688 0.010976836 0.015528503 0.044431515 0.060748838 0.038425624
-0.0069577293 -0.035709675 -0.03848053 -0.02435654 -0.03293852 -0.03856406 -0.044050798 -0.04422246
0.00080156216 0.011343116 0.0097857565 0.01838617 -0.021130035 -0.02978694 0.029994044 -0.04412863
-0.033098657 -0.019007102 0.05357282 0.035525024 -0.011532391 -0.023791358 -0.02712398 -0.02461091
-0.038113236 -0.017654665 -0.024453752 0.029388497 0.003283335 0.06294542 -0.0027800514 0.032019258
0.02449816 0.03919486 0.026119735 0.064328015 0.023842555 0.055493537 -0.006008771 0.003894772
0.05664826 0.02281691 -0.024390923 0.034561533 -0.008201079 -0.011492214 0.03196493 0.05799878
-0.025116863 0.019373773 0.04798237 -0.034251507 0.023943394 0.009868755 0.021180846 0.07414214
0.049528707 0.07379856 0.023852361 -0.0074039395 -0.019827077 0.02096638 0.029692207 -0.03143431
-0.042748243 0.002588203 0.048418466 -0.040552314 -0.0312798 0.050169036 0.018293556 0.017484928
-0.01929634 0.027412351 0.05092019 -0.03167912 0.0043102703 -0.0008288758 0.01184812 -0.011664569
0.06823009 0.017713597 -0.0053768773 0.008564623 -0.0018250542 0.038934626 -0.019577157 -0.016418854
-0.028524298 0.013278758 0.023525534 0.05598003 0.040705148 0.057076216 0.007668471 -0.011009052
-0.019782264 0.017096056 -0.019150563 0.014742721 0.03771551 0.038716987 -0.042896166 0.014643274
0.04793977 0.025103642 0.02519506 0.039907843 -0.04431397 0.0277721 0.043734487 -0.023300195
-0.010516399 0.016176788 -0.019348681 0.059787106 0.031846333 -0.036847875 0.0027591253 -0.001724128
-0.0015288143 0.055995688 0.06373275 0.041175433 -0.003758382 0.0471287 -0.0146333445 -0.014478933
0.007844562 0.053382684 0.027280275 0.051233746 -0.02720362 0.06537111 0.021201896 0.044837832
-0.030235339 0.011837548 0.04031203 0.06775067 -0.010539556 0.043466806 -0.03630889 -0.02347472
0.027985202 -0.049254365 -0.045281243 -0.030430328 -0.022136088 -0.028294314 0.03819923 0.0019965572
-0.01232036 0.023140227 0.019367745 0.03938736 0.000940285 -0.0013382043 -0.0077763493 -0.038542446
-0.013338791 0.044554308 0.069799274 -0.020555133 0.05831156 0.016957942 -0.03349549 0.0019045343
0.013490494 0.007511194 -0.041369505 0.029905783 0.02784163 0.048297655 -0.021096215 0.036994167

weight f4 [32]
00000000: 5972 813f 09c7 743f 9100 843f 0a56 b23f
00000010: 9e73 3e3f b2f2 c43f 07ba 363f 8b72 3e3f
00000020: 7a99 8b3f e2ce 2d3f 7456 433f 151e 0840
00000030: 7265 b33f a488 a13f ffb3 ca3f ceed 6e3f
00000040: 6b45 823f 24b3 f43f 5e91 ec3f 9bfa 2a3f
00000050: c1c3 4b3f 6160 193f e5d6 0b3f e30d 463f
00000060: f21d 1d3f e1a5 823f 423e 623f 52ac 563f
00000070: ff25 083f df60 d43f 2db1 2a3f 8540 083c
1.0113021 0.95616204 1.0312673 1.3932507 0.7439517 1.5386565 0.71377605 0.7439353
1.0906212 0.67893803 0.7630379 2.126836 1.4015334 1.2619824 1.583618 0.9333161
1.0177435 1.9117169 1.8481863 0.66788644 0.7959557 0.5991269 0.5462478 0.7736494
0.6137382 1.0206872 0.8837625 0.8385669 0.5318298 1.6592063 0.666766 0.008316164

bias f4 [32]
00000000: 4e03 6bbe efef 3bbe 346a 40bd e2d2 99bd
00000010: 104d 4dbe b3eb f4bc 5ed3 e9bb e2cd 4ebc
00000020: 17da 8d3e 641c bebd 81bd 67be f19f 393e
00000030: adf7 6ebd 3c4c f43e 9660 4c3e 518d ce3d
00000040: f773 50bc 3f9e 96bc b253 103e f366 8cbc
00000050: de37 81bd e7ad 923d 304b fc3d 9501 a93c
00000060: 0267 203d ca3c 5d3c e5ed eebd 936d 24be
00000070: a8b5 45be 2432 9e3d 5603 47be 6d5a ed3e
-0.2295048 -0.18353246 -0.046976283 -0.07510926 -0.20048928 -0.029897546 -0.0071357926 -0.0126223285
0.27705452 -0.09282759 -0.22630884 0.18127419 -0.05834167 0.47714412 0.1995872 0.10085548
-0.012722961 -0.018386004 0.14094427 -0.017138934 -0.06309484 0.071620755 0.123190284 0.020630637
0.039160736 0.013503263 -0.116664685 -0.16057424 -0.19307578 0.07724407 -0.19434866 0.46358052

running_mean f4 [32]
00000000: 7b5c a83e 3055 033f fdfa 433e b1dc d83e
00000010: 3fb6 943c 22d6 9f3b 9b2f 8a3e 069f d73d
00000020: d755 f03d f48d 1f3e 5cfc fa3d 6404 04bd
00000030: 4d08 44bd 383d 40be 6ab3 f03e 1036 a6be
00000040: 3167 ad3e 00c7 e4be 3ea2 c33c f62a 9bbe
00000050: 032a 5abe 6ceb 113e 1105 aa3e cedc 463e
00000060: 2862 d23e f30c 073e e1d8 a03d 5774 733c
00000070: 03ff 3a3e b122 b5be 0a6b 603e e8c7 843e
0.32883057 0.5130186 0.19138713 0.42355874 0.018153308 0.0048778215 0.26989445 0.10528378
0.11735123 0.15581495 0.12255165 -0.03223075 -0.04785948 -0.18773353 0.47011882 -0.3246312
0.3386779 -0.44683075 0.023881074 -0.30306214 -0.21305089 0.14249963 0.3320699 0.19420168
0.41090512 0.13188533 0.07853866 0.014859281 0.18261342 -0.3537803 0.21915832 0.25933766

running_var f4 [32]
00000000: 01bd 883f 33ab 903f c438 c03e 1dc3 583f
00000010: 35db b63f 80e7 953e 284e 533f 2e4d 423f
00000020: 47e1 b740 54f7 263f 4bd6 523f 3802 823f
00000030: c461 3f3f 553f 323f 532c 503f 768d 2b3f
00000040: a4b2 f83e ea07 aa3e ae21 893f 0a19 0e3f
00000050: f67c 1a3f 0402 1d3f 5283 683f b6db 5640
00000060: 04ff 1a3f 4607 d23e bc94 103f 77d4 253f
00000070: 9a95 123f df53 7e3f d97e 903f 9e57 1e3f
1.068268 1.1302246 0.3754331 0.8467272 1.4285647 0.29278183 0.8254113 0.75899017
5.7462497 0.6522114 0.82358235 1.0156927 0.74758554 0.69627887 0.81317633 0.6701273
0.48573792 0.33209163 1.0713403 0.55506957 0.60346925 0.613312 0.9082538 3.35716
0.6054537 0.41021174 0.5647695 0.6477732 0.57259524 0.9934673 1.1288711 0.61852443

weight f4 [64]
00000000: be69 7f3f ad49 693f af24 943f f441 9a3f
00000010: 1e1e c73f 3aeb 823f 00bf b53f b826 6f3f
00000020: 3356 3140 d048 8e3f 60c9 ca3f 3520 5d3f
00000030: ec14 9d3f 7a7b 413f 5cc7 303f 2edf 843f
00000040: 481f b83f 4441 953f 0d20 d03f 2201 593f
00000050: 9e94 d83f 811a 3040 8912 3f3f e2a6 513f
00000060: f02e b43f 5dfb b23f 19ee 903f beb5 ab3f
00000070: 68a1 863f 03f3 b63f 1a2a 5f3f ae1a 333f
00000080: a7c3 5f3f a8bf 7b3f 62a8 673f 7f7a 783f
00000090: e499 b73f 9bd8 723f a127 7f3f c125 ab3e
000000a0: b51f 553f 5fba ae3f 9128 2a3f 140f 603f
000000b0: 8ccf 6f3f 5670 0d3f a4a6 5b3f ff12 783f
000000c0: d8c9 eb3e c1c4 e43f 4917 793f 78dc 8b3f
000000d0: 0942 933f 066a 7a3f e882 813f 49d5 153f
000000e0: e462 823f 994e 353f 588c 513f 99a6 163f
000000f0: 1f35 0d3f 6500 2c3f aa57 d93f 3589 743f
0.99770725 0.91128045 1.1573695 1.2051377 1.5556066 1.0228035 1.4198914 0.93418455
2.7708862 1.1115971 1.5842705 0.8637727 1.227201 0.75579035 0.690542 1.0380609
1.4384546 1.1660542 1.6259781 0.84767354 1.6920354 2.7516177 0.7463766 0.8189527
1.4076824 1.398296 1.1322662 1.3414838 1.0518007 1.4292911 0.87173617 0.69962585
0.87407917 0.9833932 0.90491307 0.97061914 1.4343839 0.94861764 0.99669844 0.3342724
0.83251506 1.3650626 0.6646815 0.8752301 0.93676066 0.55249536 0.8580115 0.96903986
0.46052432 1.7872545 0.97301155 1.0926657 1.1504527 0.9781803 1.0118074 0.5852857
1.0186429 0.70823056 0.8185477 0.5884796 0.5515918 0.671881 1.6979878 0.9552186

bias f4 [64]
00000000: 37dd 69be bf62 8bbe 74b0 79be 4d08 f7bd
00000010: b6d7 5abe 7493 f3be 87e7 4abd c791 e4bd
00000020: a6dc 84be f014 9cbe fdd5 32be 86f4 a6be
00000030: 4bc2 acbe 4a3b c3be caf0 ccbe d3e6 c23c
00000040: 4afa e0be b736 58be e943 18be 6264 19be
00000050: 1e1b cbbe ce07 0d3e dc05 7bbe 6b1c ccbe
00000060: ae0e 46be 1ce1 3dbd dbb1 8abe 13b7 67bd
00000070: c152 cebe af38 c5bc c79c 37be e53e 9abe
00000080: a2f4 80be 55df 49be 8661 86bd f3fc 84be
00000090: cfd4 9cbc 33ba 44bd 33e5 16be aa81 56be
000000a0: 623e b3be abd3 703d 6b22 a2be 901e 99be
000000b0: b6d2 b9bd 7597 59be 5e41 07be afe3 34be
000000c0: 646f e9be 1933 84be 38af 86be 211d 87be
000000d0: 1baa abbd f6ce 7cbd 1f95 46be 5b77 acbd
000000e0: 0d49 d2be 085b 98be edec 1cbf d326 79be
000000f0: 2f40 3ebe 3140 a3be 4cbc 45be 7942 7fbe
-0.22838293 -0.27223775 -0.24383718 -0.1206213 -0.2137135 -0.47573435 -0.049537208 -0.11160617
-0.2594959 -0.30484724 -0.17464443 -0.32608432 -0.33741984 -0.3813117 -0.40027457 0.023791706
-0.43940955 -0.21114622 -0.14869656 -0.14979699 -0.39669126 0.13772509 -0.24513954 -0.3986543
-0.19341537 -0.04635726 -0.27088818 -0.056571078 -0.4029751 -0.02407488 -0.179309 -0.3012611
-0.2518664 -0.197141 -0.0656157 -0.25974235 -0.019144444 -0.048029136 -0.1473587 -0.209479
-0.35008532 0.058795612 -0.31666884 -0.2990613 -0.09073393 -0.21249183 -0.1320853 -0.1766498
-0.45592797 -0.25820234 -0.26305556 -0.2638941 -0.083820544 -0.06172081 -0.19392823 -0.08421203
-0.41071358 -0.2975695 -0.6129902 -0.24331217 -0.18579172 -0.31884912 -0.19310111 -0.24927701

running_mean f4 [64]
00000000: 5b60 19c0 b612 3dc0 a21d b6bf e52c e9bf
00000010: a674 0ac0 20d1 40bf 4bba b9bf cc23 e0bf
00000020: 1381 90c0 1609 1ec0 9edf 36c0 8964 fabf
00000030: 0d8f 31c0 6b2e ff3f cda4 84be d475 a2c0
00000040: 1aa2 45c0 4385 1dc0 17ee 5bc0 9b69 aabf
00000050: 34e9 8ac0 27ee 49c0 1d8a 1cc0 3277 aebf
00000060: b130 2dc0 6752 0dc0 2016 19c0 7860 adc0
00000070: 3d28 0bc0 f668 a0c0 085b 3ac0 f8df b9bf
00000080: 41c2 3bbf 9822 25c0 52ed 59c0 eee2 0cc0
00000090: 690d 2cc0 c0d6 6cc0 8c5f 19c0 a7ba 3340
000000a0: 7c28 b2bf 2271 57c0 bcee 81bf f515 05c0
000000b0: ed97 08c0 4e2d 09c0 119f 14c0 a807 50c0
000000c0: d9a6 a33f bb3f 3cc0 45c1 94bf 6b42 cfbf
000000d0: 9d51 8bc0 0545 57c0 42cc 2dc0 3a2e 9bbe
000000e0: 164b 51c0 782b ae3f e370 f53f 88b8 1940
000000f0: c96c 96be c644 acbf c6ee 79c0 0fd5 4ac0
-2.396506 -2.954267 -1.4227793 -1.8216826 -2.1633697 -0.753191 -1.4509977 -1.7510924
-4.515756 -2.4693046 -2.8573985 -1.9561931 -2.7743561 1.9936041 -0.25906983 -5.0768833
-3.088019 -2.4612586 -3.4364069 -1.3313478 -4.340967 -3.1551607 -2.4459298 -1.3630126
-2.706097 -2.2081544 -2.3919754 -5.418026 -2.174331 -5.0128126 -2.911806 -1.4521475
-0.7334328 -2.5802364 -3.40511 -2.2013507 -2.6883185 -3.7006073 -2.3964567 2.8082674
-1.3918605 -3.36628 -1.0150981 -2.0794652 -2.1342728 -2.1433902 -2.3222086 -3.2504673
1.2785293 -2.9413898 -1.1621481 -1.6192144 -4.3537126 -3.3635876 -2.715592 -0.30308706
-3.270208 1.3607016 1.9175075 2.401888 -0.2937987 -1.3458488 -3.9051986 -3.169254

running_var f4 [64]
00000000: 77e6 2d41 017b 6241 93a5 fe40 f80e f640
00000010: e1c8 bd41 824a cf40 7aa6 8841 c10e 3e41
00000020: a3ee b242 ae31 3741 e867 b741 130a dd40
00000030: 83db e541 41fb 1841 8bda 4b41 3bb9 ac41
00000040: ad87 d041 0ab8 7641 bf34 3f42 1286 1a41
00000050: bbac 5642 5e3b 4b42 e1c6 6b41 6e97 fd40
00000060: fd7f cf41 52e8 b941 082c 3041 3a7c 2a42
00000070: 0e8d 4541 63a8 4b42 73d7 1841 2fde 0641
00000080: b7a5 d040 595e d240 e84a 5041 669a 0441
00000090: 2ac1 1242 6893 b641 89ac b241 b3b1 5a41
000000a0: bc71 7e41 d6d2 1842 20ba 7a40 c350 2941
000000b0: 4a00 c740 7dd5 d140 c2b2 9741 2a2d 4f41
000000c0: 123a 0f41 18a1 bb41 1464 ce40 2cc3 9e40
000000d0: 797d be41 8a35 b441 175b 5041 f5b9 f540
000000e0: a828 6141 aef0 0a41 e098 e240 95aa 1a41
000000f0: 0b74 7241 7358 b140 43b1 fa41 9ff3 ce41
10.868766 14.15503 7.9577117 7.6893272 23.723085 6.477845 17.081287 11.878602
89.46609 11.449629 22.925735 6.90748 28.732183 9.561341 12.740855 21.590445
26.066248 15.419931 47.80151 9.657732 53.668682 50.807976 14.736054 7.924735
25.937494 23.238438 11.01075 42.621315 12.346937 50.91444 9.5526 8.429244
6.520229 6.574017 13.018288 8.287695 36.688637 22.821976 22.334246 13.668384
15.902767 38.205894 3.9176102 10.582217 6.2187853 6.5573106 18.962284 12.948526
8.951677 23.45366 6.4497166 4.9613247 23.811266 22.526142 13.022239 7.67895
14.072426 8.68376 7.0811615 9.666646 15.153331 5.542047 31.336554 25.868956

weight f4 [128]
00000000: 381a 833f 776d 483f 171f 8b3f 5930 8f3f
00000010: 1e01 8b3f 1d40 3c3f ed6e 533f 756b 5f3f
00000020: 3e9e 3b3f c71b 503f caac ad3f 3f19 353f
00000030: 920b 863f dc38 833f 381b 123f 07f4 753f
00000040: f6a7 643f d337 5e3f 31af 643f 78cd 493f
00000050: a83e 8e3f 3358 4e3f 7a9a 603f 8b1b 873f
00000060: 53d5 853f 4e06 5f3f 4da5 373f 8f76 483f
00000070: 1c5c 053f dccb 7a3f 6b0b 783f e9f8 a73f
00000080: 2277 323f 0ee7 573f e875 f33e 6dfb 603f
00000090: eb39 2a3f c0f3 823f ed05 4b3f bf2f 813f
000000a0: 5812 6e3f a732 933f 310d 863f 4570 5a3f
000000b0: d633 7a3f 2026 7a3f 6b8c 5a3f 50dc 5d3f
000000c0: 27d6 3e3f 6cb2 683f 1af2 cd3f bdf5 ff3e
000000d0: d7c7 913f 3d70 5a3f 54b3 9b3f 38b1 883f
000000e0: 0f61 583f 3615 263f a362 323f 1d0d 7e3f
000000f0: ad12 793f db22 583f bdc1 b83f 011e 753f
00000100: 790a 773f 7de4 4c3f f2a3 6d3f 4eec 483f
00000110: 1634 6a3f 3dac 283f 4e67 873f 65ff 503f
00000120: 978e 5a3f 5793 623f b35b bd3f 2ede 1a3f
00000130: 5a59 6c3f 4a7d 743f 7124 7c3f 9a86 483f
00000140: 3fdc 323f fd9f 9f3f df68 973f edb5 6f3f
00000150: 4ba3 4d3f e7bc 923f 1469 413f 69e7 513f
00000160: 6e05 543f 5ca6 673f 1b7d fe3e 93c2 793f
00000170: 2085 5b3f 3699 303f 4132 7a3f c68d 893f
00000180: a5da 573f 6644 423f 5114 883f 5fdd 7e3f
00000190: 27ac b53f de6b 843f f335 443f 0fd6 5e3f
000001a0: 5298 433f ae78 803f d50c 793f e611 683f
000001b0: 0f59 2b3f 1dbc 9c3f 63f9 293f 8a23 e93e
000001c0: 7a18 073f a795 6b3f 6227 473f 4f27 573f
000001d0: 53f2 893f 8d36 4a3f f04b 613f b907 463f
000001e0: 7693 873f 4083 8d3f 528b 763f d9c3 0e3f
000001f0: 1183 853f bf61 4f3f 8063 283f b028 713f
1.0242376 0.7829203 1.0868863 1.118663 1.0859716 0.7353533 0.82591134 0.8727334
0.73288333 0.81292385 1.3568356 0.7074165 1.0472281 1.0251727 0.5707278 0.9607548
0.8931879 0.8680393 0.8932982 0.78829145 1.1112871 0.8060333 0.8773571 1.055528
1.0455726 0.87118995 0.71736604 0.78305906 0.5209367 0.97967315 0.9689242 1.3122836
0.6971303 0.84336936 0.47550893 0.87883645 0.66494626 1.0230637 0.7930592 1.0092696
0.9299674 1.1499833 1.0472776 0.8532756 0.97735345 0.97714424 0.8537051 0.86664295
0.7454552 0.9089725 1.6089509 0.4999217 1.1389111 0.8532751 1.2164102 1.0679083
0.845231 0.64876115 0.6968176 0.9923876 0.9729412 0.84428185 1.4434124 0.9574891
0.96500355 0.80036145 0.92828286 0.7848557 0.91485727 0.65887815 1.0578401 0.816397
0.85373825 0.8850607 1.4793609 0.6049527 0.9232384 0.95503676 0.98493105 0.78330386
0.6986732 1.24707 1.1828879 0.9363697 0.8032729 1.1463898 0.7555096 0.8199373
0.82820785 0.9048822 0.49704823 0.9756252 0.8575001 0.6898378 0.9773293 1.0746391
0.84318 0.7588562 1.06312 0.99556535 1.4193162 1.0345418 0.7664482 0.8704538
0.764043 1.0036829 0.97285205 0.9065231 0.6693277 1.2244908 0.6639616 0.45534927
0.52771723 0.92025226 0.7779447 0.84044355 1.0777076 0.7898949 0.88006496 0.77355534
1.0591877 1.1055679 0.96306336 0.5576759 1.0430623 0.81008524 0.65776825 0.9420271

bias f4 [128]
00000000: a5ea 42bf ed62 10bf 7f90 48bf 99cc 6bbf
00000010: f40d 2dbf 4149 0ebf f7fa 2abf 73b7 bebe
00000020: 41f1 32bf f2d1 ecbe 6a51 2cbf 2096 dbbe
00000030: 30b1 0abf 9d18 43bf 6356 d9be 90ba 4abf
00000040: 5465 e5be 1a6d 0fbf 3ce8 4bbf 2f7f 25bf
00000050: fc40 3fbf 7e0b 43be 603e 29bf bab3 2fbf
00000060: 3d61 95be d0ea ecbe f42d 11bf 25e1 f3be
00000070: 320f 25bf 66af 02bf 0306 2abf a254 09bf
00000080: 0ba8 adbe 2966 0ebf d149 a1be 789a 2fbf
00000090: eded 59bf a670 31bf 66c6 5abe daeb 5abe
000000a0: 94eb 07bf 299f 10bf ffd4 53bf 9070 05bf
000000b0: 2515 e4be f35a 3fbf 51b5 2abf f940 3fbf
000000c0: 8ac5 f5be 3d10 07bf 655f 43bf 8e95 013e
000000d0: c23b 2abf 8ec9 4bbf 88e1 3bbf c366 a1be
000000e0: 0894 7dbe 273d 38be c55b 74be 7fb8 c7be
000000f0: 3eac 0abf 87a4 2bbf 11a3 77be 5f6e 3cbf
00000100: 10e2 d5be 25a1 4bbe 4f80 bbbe 4cb5 91be
00000110: caad a8be 114f 2ebf 2110 19bf 5f8e 0bbf
00000120: 4e0e 29bf a3d8 a9be 1db0 17bf 1a7b b9be
00000130: 9bfa 87be 19e2 3dbf fca6 e4be d073 16bf
00000140: 40b8 ddbe d807 53bf 7bed 96bf b633 4abf
00000150: ba2c 3abf 1523 69bf a5a6 2ebf 6dc7 32bf
00000160: 6dec 0fbf 102b d0be 977b 20bf dd48 48bf
00000170: 8629 b2be 1cf0 03bf d894 b0be 2619 40bf
00000180: e9b7 3cbf 0101 32bf 1ae6 85bf 5055 1fbf
00000190: eaa7 0bbf c288 44bf 428a b6be 8e84 1bbf
000001a0: 4c98 26bf 5983 1dbf 7607 84be 4ba6 27bf
000001b0: 757a 6fbe f152 73bf 96aa 04bf faa6 e7bc
000001c0: 02b9 c9be 2524 18bf 5fe8 38bf 9285 01bf
000001d0: 8287 56bf efc1 93be 8d17 39be ecd9 0cbe
000001e0: f980 f7be adf1 87be 02d8 a9be c471 fe3d
000001f0: e862 24bf 02bd 83bd 4491 d1be bf10 4ebf
-0.7613929 -0.5640095 -0.78345484 -0.92109066 -0.67599416 -0.55580527 -0.6678919 -0.37249336
-0.69899374 -0.46253926 -0.6731173 -0.42887974 -0.54176617 -0.7620943 -0.4244872 -0.7919092
-0.4480387 -0.5602585 -0.79651237 -0.6464719 -0.74708533 -0.19047353 -0.661108 -0.68633616
-0.2917575 -0.46272898 -0.56710744 -0.4763271 -0.6447631 -0.51048887 -0.66415423 -0.53644764
-0.3391727 -0.55624634 -0.3150163 -0.68595076 -0.8512867 -0.6931251 -0.21364745 -0.21379033
-0.5309384 -0.5649286 -0.8274688 -0.5212488 -0.44547382 -0.7474815 -0.66682917 -0.74708515
-0.48002273 -0.5275915 -0.76317436 0.12654707 -0.66497433 -0.79604423 -0.7339101 -0.31523713
-0.247635 -0.17992078 -0.23863132 -0.39007947 -0.5416907 -0.67047924 -0.24183299 -0.7360591
-0.41774035 -0.1988569 -0.3662133 -0.2845863 -0.3294509 -0.68089396 -0.59790236 -0.54514116
-0.6603745 -0.33173093 -0.592531 -0.36226732 -0.26558384 -0.7417312 -0.4465865 -0.58770466
-0.43304634 -0.82433844 -1.1791223 -0.78985155 -0.727245 -0.91069156 -0.6822303 -0.6983555
-0.5622013 -0.40657854 -0.62688583 -0.7823618 -0.34797305 -0.5153825 -0.3448856 -0.75038373
-0.73718125 -0.6953278 -1.0460846 -0.6223955 -0.5455309 -0.76771176 -0.35652357 -0.6074914
-0.65076137 -0.61528546 -0.25786942 -0.6548812 -0.23386557 -0.95048434 -0.51822793 -0.028277863
-0.39398962 -0.5943015 -0.7222957 -0.5059444 -0.8380052 -0.28858897 -0.1807539 -0.13755006
-0.48340586 -0.2655157 -0.33172613 0.12424043 -0.6421342 -0.06432535 -0.4093114 -0.804943
