model_wavelet.pth (torch, 551676 bytes, 26 tensors)

weight f4 [32, 8, 3]
-0.038226623 0.13933942 -0.10760881 1.9852521 1.746089 0.86837345 -0.65182024 -1.032152
-0.66121703 -0.049573343 -0.42912322 -0.839042 -0.14671926 0.20336862 -0.1375849 0.15579404
0.34024003 0.0123320175 -0.048158113 -0.12078201 -0.036324754 -0.020702165 -0.16698503 -0.091732316
-0.11884328 -0.32957932 -0.39761183 -0.14352548 -0.0066537093 0.22538094 0.47621003 0.31731415
0.77800816 0.8726068 0.78863645 0.49487486 -0.15124942 0.007029106 0.12367006 0.04268877
0.07471179 -0.38308722 -0.12022989 -0.10957475 -0.06062231 -0.42618352 -0.6135215 -0.46647784
0.16188976 -0.15861118 0.26614252 0.16580258 -0.19957325 0.018322634 0.12455107 0.16238105
0.34149095 0.31831518 0.25453612 -0.039232213 0.070624076 0.18393697 0.26602155 -0.6489707
-0.4555211 -0.8947955 0.8519302 0.35281956 0.03158578 -0.6486453 -0.25532046 -0.28541932
-0.20849007 -0.19822337 0.012110939 0.29679552 -0.09712511 -0.88037926 -0.15649264 0.09632465
-0.22215101 -0.13612817 -1.2944766 -1.5496839 -0.14399925 0.048848864 0.025469424 -0.03786645
0.08693518 0.40143374 0.029530061 0.17838301 0.05338385 0.12542468 -0.0689931 0.4247382
-0.15563641 -0.5646999 -1.0609934 -0.25390002 -0.61591953 -0.4859916 -0.12439256 0.184283
0.4088192 0.3556962 0.12530853 -0.10849515 0.15286924 0.0033272398 -0.18350956 -0.016217567
-0.26172188 -0.05527556 0.054103583 0.05245189 -0.05242879 0.7384855 0.6262675 0.09910871
-0.24274997 -0.35739195 -0.010223141 -0.61716264 -0.57855815 -0.3274102 -1.2262388 -1.2627188
-0.894179 -0.03319739 -0.060841706 -0.0031993724 0.2246815 -0.18697008 0.08021994 -0.27880213
0.073466316 0.039942715 -0.24408807 -0.15538049 -0.13892482 0.035937376 -0.032928947 -0.15962225
-0.29871562 -0.031345427 0.27295396 -0.176729 -0.039193228 -0.005266084 -0.07101015 0.00810063
0.07019091 0.12934195 -0.17249723 0.25465003 0.10214874 -0.19694301 -0.24126577 -0.6723307
-0.6163969 -0.63171864 0.67953104 0.13644832 0.0475505 -0.004681348 0.25351602 1.0566189
-0.596144 0.23381257 0.22887959 -0.14838128 0.12929916 0.10106698 0.030909086 0.010772088
-0.29770735 0.0063357363 0.08837828 0.07516832 -0.30334395 0.04743791 0.12671666 0.3320366
0.3150288 0.39821744 -0.155135 -0.35025927 -0.24739365 -0.8648853 0.26676488 1.0079174
-0.84004986 -0.45486405 -0.73797363 0.124917746 0.17435612 0.18802328 0.32790124 -0.31921577
-0.3067804 -0.19829716 -0.22283944 -0.39549243 0.15147044 0.10833649 0.05276832 -0.24556392
-0.07823511 0.055917773 0.3383273 0.12567826 -0.0033783037 -0.5939243 -0.6342253 0.099319
0.39588648 0.16436012 0.3118864 -0.77465874 -0.77298194 -0.97257763 -0.022881491 -0.11640307
0.27415583 -0.45550263 -0.34189188 -0.33906418 0.17327622 -0.10351609 0.076932736 0.086712144
-0.1708762 -0.13462272 0.22062251 0.06500154 0.26033953 0.041844 -0.22783136 -0.12066083
0.19733575 0.06039515 -0.456984 0.6725811 -0.28997603 -0.7526673 -0.41631028 -0.3230907
0.017556388 0.3689978 0.4557306 0.4877218 0.30600518 0.15464813 -0.16626155 0.33057547
00000000: 8593 1cbd feae 0e3e 0262 dcbd be1c fe3f
00000010: d87f df3f b94d 5e3f b1dd 26bf 8f1d 84bf
00000020: 8545 29bf 6b0d 4bbd 0ab6 dbbe 75cb 56bf
00000030: 933d 16be dd3f 503e 0ee3 0cbe 7988 1f3e
00000040: f133 ae3e 3b0c 4a3c 7141 45bd 8f5c f7bd
00000050: 44c9 14bd 9697 a9bc 20fe 2abe 27de bbbd
00000060: 1b64 f3bd 9fbe a8be c793 cbbe 58f8 12be
00000070: 5c07 dabb 43ca 663e cdd1 f33e 0077 a23e
00000080: 8b2b 473f 2963 5f3f 14e4 493f 3d60 fd3e
00000090: 21e1 1abe 6a54 e63b ba46 fd3d 6bda 2e3d
000000a0: 7f02 993d 0224 c4be 173b f6bd ba68 e0bd
000000b0: 194f 78bd ba34 dabe bf0f 1dbf 2fd6 eebe
000000c0: 6ec6 253e f86a 22be d543 883e 27c8 293e
000000d0: ee5c 4cbe 5919 963c a214 ff3d 3847 263e
000000e0: e7d7 ae3e 35fa a23e 8f52 823e f5b1 20bd
000000f0: 5ba3 903d f959 3c3e fa33 883e f222 26bf
00000100: 103a e9be 5111 65bf 1918 5a3f c4a4 b43e
00000110: 1760 013d 9e0d 26bf 5db9 82be 7b22 92be
00000120: 6c7e 55be 11fb 4abe f66c 463c 95f5 973e
00000130: 88e9 c6bd 8960 61bf 9b3f 20be dc45 c53d
00000140: 8e7b 63be 2f65 0bbe 69b1 a5bf 0b5c c6bf
00000150: 8a74 13be bf15 483d 41a5 d03c da19 1bbd
00000160: 120b b23d b988 cd3e 07e9 f13c 09aa 363e
00000170: 06a9 5a3d 546f 003e 414c 8dbd 4977 d93e
00000180: 275f 1fbe 2c90 10bf a2ce 87bf 2fff 81be
00000190: e7ac 1dbf e4d3 f8be 87c1 febd afb4 3c3e
000001a0: c050 d13e d01d b63e e150 003e b532 debd
000001b0: c189 1c3e d20d 5a3b eee9 3bbe b4da 84bc
000001c0: 6900 86be a068 62bd b89b 5d3d cbd7 563d
000001d0: 92bf 56bd 630d 3d3f 1153 203f 82f9 ca3d
000001e0: 7393 78be 14fc b6be f67e 27bc 5ffe 1dbf
000001f0: 631c 14bf 4fa2 a7be 65f5 9cbf c5a0 a1bf
00000200: eae8 64bf fdf9 07bd 2735 79bd 90ac 51bb
00000210: e812 663e 1675 3fbe 5a4a a43d 27bf 8ebe
00000220: 8275 963d f99a 233d 39f2 79be 101c 1fbe
00000230: 4f42 0ebe 1233 133d 81e0 06bd 0474 23be
00000240: 41f1 98be 1064 00bd 9fc0 8b3e 72f8 34be
00000250: 1489 20bd 1d8f acbb c56d 91bd 81b8 043c
00000260: 40c0 8f3d 3772 043e 1da3 30be 7d61 823e
00000270: 5c33 d13d 6eab 49be 600e 77be dd1d 2cbf
00000280: 30cc 1dbf 50b8 21bf bff5 2d3f 1cb9 0b3e
00000290: 50c4 423d fe65 99bb dacc 813e 4a3f 873f
000002a0: e59c 18bf 906c 6f3e 695f 6a3e 43f1 17be
000002b0: 0067 043e 34fc ce3d 0d35 fd3c 697d 303c
000002c0: 196d 98be 029c cf3b acff b43d d9f1 993d
000002d0: e64f 9bbe 414e 423d 03c2 013e b400 aa3e
000002e0: 744b a13e 28e3 cb3e b6db 1ebe 2f55 b3be
000002f0: c354 7dbe 1f69 5dbf 6895 883e 7003 813f
00000300: 820d 57bf f1e3 e8be d7eb 3cbf e0d4 ff3d
00000310: 698a 323e 2d89 403e ace2 a73e 4070 a3be
00000320: 5212 9dbe 690e 4bbe 0630 64be fc7d cabe
00000330: 111b 1b3e 86df dd3d 9823 583d 1c75 7bbe
00000340: bb39 a0bd 090a 653d 3c39 ad3e cdb1 003e
00000350: 8866 5dbb 6c0b 18bf 975c 22bf c367 cb3d
00000360: a2b1 ca3e 054e 283e 93af 9f3e 0950 46bf
00000370: 25e2 45bf d9fa 78bf f771 bbbc bc64 eebd
00000380: 275e 8c3e a437 e9be 740c afbe d299 adbe
00000390: 526f 313e 3e00 d4bd e98e 9d3d 2396 b13d
000003a0: 2cfa 2ebe 8ada 09be deea 613e 871f 853d
000003b0: 394b 853e 9d64 2b3d a04c 69be 061d f7bd
000003c0: 6212 4a3e e860 773d cff9 e9be 462e 2c3f
000003d0: bd77 94be ceae 40bf 9f26 d5be 256c a5be
000003e0: 6ad2 8f3c 48ed bc3e 8555 e93e acb6 f93e
000003f0: b6ac 9c3e 145c 1e3e 7840 2abe 3041 a93e

bias f4 [32]
0.1622434 0.08160939 0.5466448 0.081680275 -0.41398677 -0.3132546 -0.3102768 -0.076075315
0.23695655 -0.15204953 0.26383492 0.19904377 0.7841269 0.4483669 0.19854379 -0.06212721
0.19684362 0.18563193 0.052498765 0.25890836 0.13091359 0.6239212 0.077335894 0.18729047
0.2529152 0.27622396 -0.32637185 0.87891644 0.10054264 0.3826007 -0.11092177 0.042003307
00000000: 2223 263e d322 a73d eaf0 0b3f fd47 a73d
00000010: 13f6 d3be e862 a0be 9adc 9ebe 60cd 9bbd
00000020: bda4 723e dfb2 1bbe 5f15 873e 21d2 4b3e
00000030: 8abc 483f 5990 e53e 104f 4b3e 1a79 7ebd
00000040: 6091 493e 4c16 3e3e f208 573d a38f 843e
00000050: 360e 063e 4db9 1f3f 4862 9e3d 13c9 3f3e
00000060: 1a7e 813e 3a6d 8d3e 361a a7be ab00 613f
00000070: 4de9 cd3d 3de4 c33e f42a e3bd a90b 2c3d

weight f4 [64, 32, 3]
-0.22885063 0.36885372 0.1666949 -0.25748858 -0.096080065 -0.08616202 0.060902417 0.26185077
0.19503012 0.5605295 0.2351287 -0.32063422 -0.3637994 -0.17907366 -0.22952217 0.30789027
0.3397693 0.19406141 -0.10959777 -0.12392823 -0.2670351 0.23629066 0.2335605 0.13829787
-1.0769432 -1.0976474 -1.2867546 -0.104013585 -0.080895916 -0.23339413 -0.2776616 -0.13190103
-0.13420014 0.06857314 -0.12963323 -0.051467054 0.28303578 0.1879089 0.012804414 0.20055239
0.47620618 0.46087298 0.33674103 0.311713 0.07925612 0.160455 0.05392263 -0.038569316
0.11467878 0.34541917 0.2967143 0.0350102 0.34781098 0.21660893 0.1664106 0.23275863
0.039101444 0.32845548 0.552991 0.43293726 -0.4780918 -0.18007652 -0.26968926 0.06912532
0.24275476 0.16503024 -0.15950514 -0.011447705 0.07432723 -0.11091966 -0.122929 -0.45742637
-0.45993927 -0.24864155 0.020003812 0.07034853 0.23292266 0.39889604 0.10408093 0.16776066
-0.20457941 0.21575171 0.3319911 0.2917031 -0.08605921 -0.25952 0.2652073 -0.14403121
-0.28249338 -0.36509496 0.68918097 0.39030954 0.36843926 0.024113784 -0.023995785 0.052731037
-0.12681128 0.27245617 0.017224206 -0.50383246 -0.2882835 0.02058841 -0.037114363 -0.2442138
-0.4227979 -0.1255535 0.032719824 0.17293914 -0.33966017 -0.07906152 0.014608641 -0.57843363
0.06873217 0.31618237 0.3304824 0.083667815 -0.6808349 -0.13128437 -0.15519802 -0.8754461
-0.28006285 -0.19654913 -0.114843145 0.17766806 0.18000737 0.063821815 -0.58172435 -0.056244932
0.59939677 0.012662763 0.10675906 -0.13189131 -0.13594365 -0.008471901 -0.43825597 0.22736631
0.1624065 -0.27902377 -0.05642055 -0.16201346 -0.22149304 -0.48118156 -0.22545652 0.06242333
0.054259304 0.022458475 0.15208882 -0.39461756 0.07089088 0.18897238 -0.023977527 0.33820868
0.23412135 -1.1534331 -0.52881116 -0.103912905 -0.7540509 -0.75657946 -0.92965853 -0.192856
-0.1652542 -0.14556548 0.08578462 0.03836321 -0.02232462 -0.57757324 0.1289131 0.40450588
-0.5561997 -0.072314866 0.037341867 0.24804516 -0.16480103 -0.9567956 -0.15500645 0.2888099
0.47388896 -0.030102905 0.019020231 0.08265259 0.39066878 0.27958292 -0.8125632 -0.028389845
0.118084915 0.06854197 -0.010703624 0.061014134 0.16524684 0.43087512 0.08617538 0.35425884
-0.25788447 -0.10429615 -0.11111195 0.07418565 0.4678646 0.67872775 0.06170849 -0.04263149
-0.1069309 0.5326978 0.32586798 0.47628537 -0.09062169 0.03737175 0.121816106 -0.6898548
-0.37388343 -0.5696457 0.011458769 -0.3534701 -0.29449752 -0.21235102 -0.0731122 0.19233441
0.057761945 -0.04784627 -0.0063812 0.12558278 -0.28591383 -0.07274836 0.1503506 0.063234106
0.552713 0.104930654 0.03897351 0.07489089 0.24532323 0.33983013 0.35953078 -0.19016379
-0.19266258 0.1295178 -0.17940469 -0.13142526 0.31661487 -0.29001844 -0.11116328 -0.3445038
-0.042116247 0.20161253 0.38515845 0.29758632 0.2141454 0.53449374 -0.0020143022 -0.089004666
0.18783145 -0.4447941 -0.67009073 -0.24224989 -0.032591052 0.029226296 0.7269058 -0.15692592
00000000: d257 6abe 65da bc3e 11b2 2a3e 8bd5 83be
00000010: a0c5 c4bd b775 b0bd d074 793d 4e11 863e
00000020: fab5 473e dc7e 0f3f 94c5 703e 2b2a a4be
00000030: ea43 babe 165f 37be dc07 6bbe cba3 9d3e
00000040: 3ef6 ad3e 09b8 463e cc74 e0bd 15ce fdbd
00000050: d3b8 88be 2ef6 713e 7c2a 6f3e f59d 0d3e
00000060: 46d9 89bf b67f 8cbf 60b4 a4bf 1305 d5bd
00000070: c2ac a5bd dffe 6ebe a929 8ebe 1011 07be
00000080: c36b 09be 1370 8c3d 93be 04be 1ecf 52bd
00000090: 11ea 903e 316b 403e 9bc9 513c 9b5d 4d3e
000000a0: 4cd1 f33e 8bf7 eb3e 5269 ac3e d998 9f3e
000000b0: 0851 a23d 514e 243e fadd 5c3d dcfa 1dbd
000000c0: b5dc ea3d c8da b03e f0ea 973e db66 0f3d
000000d0: 4814 b23e bbce 5d3e 8a67 2a3e 4758 6e3e
000000e0: d628 203d 512b a83e d190 0d3f f4a9 dd3e
000000f0: 73c8 f4be fb65 38be b614 8abe 9391 8d3d
00000100: b494 783e b0fd 283e 5155 23be 288f 3bbc
00000110: e038 983d d929 e3bd 33c2 fbbd ca33 eabe
00000120: 297d ebbe e49b 7ebe 09df a33c e412 903d
00000130: 4783 6e3e 1a3c cc3e 6228 d53d 73c9 2b3e
00000140: 447d 51be 04ee 5c3e bdfa a93e 1c5a 953e
00000150: d03f b0bd cedf 84be 40c9 873e eb7c 13be
00000160: f9a2 90be baed babe 2a6e 303f a7d6 c73e
00000170: 12a4 bc3e 458a c53c cf92 c4bc 80fc 573d
00000180: d1da 01be 607f 8b3e c719 8d3c 2afb 00bf
00000190: e599 93be 06a9 a83c 3b05 18bd 2f13 7abe
000001a0: f778 d8be 1991 00be 3905 063d f516 313e
000001b0: f0e7 adbe 02eb a1bd 1559 6f3c 3a14 14bf
000001c0: 74c3 8c3d a8e2 a13e fd34 a93e 085a ab3d
000001d0: 324b 2ebf 696f 06be 3bec 1ebe 3c1d 60bf
000001e0: 6664 8fbe 2d44 49be e232 ebbd 9eee 353e
000001f0: da53 383e 03b5 823d e3eb 14bf 1661 66bd
00000200: 1172 193f 7a77 4f3c 7ea4 da3d 840e 07be
00000210: d034 0bbe bacd 0abc 1663 e0be b7d2 683e
00000220: e44d 263e 34dc 8ebe 3c19 67bd dbe6 25be
00000230: 12cf 62be 6e5d f6be 13de 66be 9baf 7f3d
00000240: 013f 5e3d d6fa b73c 2cbd 1b3e 500b cabe
00000250: 3d2f 913d fa81 413e 856c c4bc b029 ad3e
00000260: 82bd 6f3e b2a3 93bf 2b60 07bf 4ad0 d4bd
00000270: 7b09 41bf 31af 41bf 1afe 6dbf 0b7c 45be
00000280: 6638 29be 1e0f 15be d9af af3d be22 1d3d
00000290: 1fe2 b6bc d7db 13bf cc01 043e 651b cf3e
000002a0: 1b63 0ebf d119 94bd c9f3 183d 8dff 7d3e
000002b0: 9ac1 28be 8ef0 74bf 03ba 1ebe e4de 933e
000002c0: 93a1 f23e 5e9a f6bc 51d0 9b3c c345 a93d
000002d0: bd05 c83e 7e25 8f3e 2404 50bf d291 e8bc
000002e0: 81d6 f13d bb5f 8c3d 415e 2fbc f5e9 793d
000002f0: 7836 293e aa9b dc3e b87c b03d 6a61 b53e
00000300: 6f09 84be 3899 d5bd a98e e3bd a5ee 973d
00000310: f38b ef3e 1ac1 2d3f 0bc2 7c3d 5b9e 2ebd
00000320: 96fe dabd e25e 083f 2bd8 a63e addb f33e
00000330: dd97 b9bd 1f13 193d b97a f93d 539a 30bf
00000340: a66d bfbe 4dd4 11bf 90bd 3b3c 08fa b4be
00000350: 61c8 96be 8c72 59be d9bb 95bd 50f3 443e
00000360: ca97 6c3d 73fa 43bd 6319 d1bb c698 003e
00000370: 4c63 92be 18fd 94bd 82f5 193e e280 813d
00000380: 997e 0d3f e2e5 d63d b0a2 1f3d 6560 993d
00000390: 0336 7b3e 37fe ad3e 6b14 b83e 4cba 42be
000003a0: 5749 45be 50a0 043e ddb5 37be 5894 06be
000003b0: 581b a23e 4c7d 94be 93a9 e3bd cd62 b0be
000003c0: 1682 2cbd 8473 4e3e 7d33 c53e 3c5d 983e
000003d0: ef48 5b3e 95d4 083f 6202 04bb 1448 b6bd
000003e0: e356 403e 0dbc e3be 118b 2bbf 5b10 78be
000003f0: 327e 05bd fc6b ef3c 8016 3a3f 30b1 20be

bias f4 [64]
0.051612467 0.011326754 -0.09868779 0.04716568 -0.055811215 0.078535855 0.085489586 0.0836421
0.2769995 0.11518385 -0.036422037 -0.06639675 0.07846496 0.117153384 0.17798342 0.091193534
-0.0174024 -0.033310417 0.020876013 0.09548734 0.17366458 0.08458654 -0.11869737 0.0021444461
0.11578251 0.050135363 0.089392245 -0.14074622 0.14279862 0.07764604 -0.062299114 0.036755744
-0.021135934 -0.00985192 0.0884836 -0.030930547 -0.071219705 0.15672463 0.07959109 -0.04233984
0.22218755 0.10563925 -0.2968438 -0.14699739 0.14069398 -0.035903186 0.007761873 0.094605014
-0.10366047 0.008674091 0.013831773 0.0068922346 0.041806858 0.035859972 0.3185776 0.093753755
-0.06348649 0.11756204 -0.03758342 0.025039122 -0.064643204 0.05829245 0.001817891 -0.003146819
00000000: 9867 533d d993 393c d31c cabd cd30 413d
00000010: 4d9a 64bd 68d7 a03d 2a15 af3d 8d4c ab3d
00000020: e1d2 8d3e 83e5 eb3d 462f 15bd 05fb 87bd
00000030: 3db2 a03d 1dee ef3d 4941 363e adc3 ba3d
00000040: 7a8f 8ebc 8170 08bd 2c04 ab3c de8e c33d
00000050: 21d5 313e b53b ad3d 9b17 f3bd d689 0c3b
00000060: 611f ed3d bd5a 4d3d 4813 b73d c71f 10be
00000070: cd39 123e e304 9f3d 5b2d 7fbd 318d 163d
00000080: 4425 adbc f369 21bc e436 b53d 0f62 fdbc
00000090: a3db 91bd 6c7c 203e a700 a33d 8a6c 2dbd
000000a0: 2285 633e 6459 d83d e9fb 97be 7c86 16be
000000b0: 1512 103e 380f 13bd 4f57 fe3b 46c0 c13d
000000c0: f14b d4bd c61d 0e3c a99e 623c 41d8 e13b
000000d0: ab3d 2b3d e8e1 123d 9a1c a33e f801 c03d
000000e0: 3405 82bd 5ec4 f03d 12f1 19bd d81e cd3c
000000f0: a863 84bd 10c4 6e3d 4d46 ee3a dd3a 4ebb

weight f4 [128, 64, 3]
0.2595691 0.088319056 0.056407012 0.16369478 -0.0016330313 -0.23236729 0.66230714 0.47176844
0.617616 0.19556183 0.15804407 0.15986776 0.22279462 0.3921874 0.35975778 -0.89948255
-0.7462309 -0.9481919 0.010145649 -0.035661556 0.12672019 0.029081361 -0.27877223 -0.09445027
0.59794474 0.06280175 -0.08834973 0.07276885 -0.0160584 -0.10598232 0.16461545 0.107943885
0.23761636 0.03264206 -0.08006097 0.014506557 0.20649645 0.33690846 0.46752378 -0.1987107
-0.17226453 -0.12724665 -0.30762306 -0.21192524 -0.20030434 0.36266765 0.39432853 0.2737581
0.23117952 0.35950205 0.4169808 0.16078573 -0.16464658 -0.29003486 -0.03486732 0.11815094
0.10001892 0.4316571 0.19629003 0.27947506 0.36301443 0.108317345 -0.07921644 0.47437868
0.35814258 0.30434006 0.6814084 0.5635955 0.39337915 0.28159133 0.23246147 0.47883478
-0.07747064 -0.26664117 -0.638657 0.25574812 0.25481448 0.021281438 -0.0028375655 -0.09120636
0.13956982 0.20923921 0.23566604 0.37652287 0.10142346 0.22477387 0.21417604 0.33984226
0.08720943 0.0030964182 0.53536797 0.0863832 -0.01921751 0.10179618 -0.0012273957 -0.045614954
0.49022418 0.53745073 0.5479234 -0.23204115 0.070606686 0.37069914 -0.6427122 -0.84455895
-0.8879206 0.12079846 -0.21921775 -0.16578232 0.058537435 0.011868357 0.15312204 -0.015735293
-0.051837247 -0.11956588 0.54613733 0.3679798 0.55192506 -0.24988589 -0.5603346 -0.86741173
-0.99936813 -0.65790075 -0.24449146 0.031195719 -0.3159005 -0.5759261 0.22124629 0.0043381616
0.0085775945 0.0027560298 -0.03881097 -0.027226752 0.022985706 -0.37930498 -0.5867503 -0.28968537
0.0050557503 -0.105390616 0.079547465 -0.030597486 -0.057597995 -0.4011863 -0.31948477 -0.24093431
0.8859425 0.2549669 -0.07753749 0.10969545 -0.12633342 -0.39979765 0.34411865 0.32224283
0.09606901 0.06165776 0.2006648 0.15991138 -0.052728772 0.0537455 0.24175328 0.019100225
-0.05489487 0.13263664 -0.091003895 -0.29343545 -0.5235148 0.42921627 0.307015 0.09512159
0.4671832 0.34303117 0.2998243 -0.35072112 -0.0003113623 0.09203629 0.37814245 0.43031722
0.84963703 0.18834727 -0.01566587 -0.22165395 0.041540336 -0.25988248 -0.51427615 -0.2834969
-0.21659629 -0.0736289 -0.20761019 0.07541479 0.10218231 0.17722392 0.13839744 0.19786403
0.022238834 0.010872146 0.123179965 -0.04910779 -0.016638175 0.040788285 0.11834015 0.03711864
0.0024897219 0.03188932 -0.04713716 -0.149061 0.21899801 0.25738654 0.30694622 -0.2805884
-0.32723907 -0.24671645 0.061380584 -0.052980147 -0.03394646 0.02474043 0.01567992 0.22796543
0.13361499 0.20173614 0.12705725 0.08395409 0.14142513 0.12601319 -0.034758978 -0.027385002
-0.01423372 0.2914222 0.3640013 0.25712323 0.080872074 0.13873231 0.29285908 0.13858567
0.12818584 0.2522695 -0.026232107 -0.12278958 -0.0037326214 0.12946166 0.1964617 0.17002884
-0.17612204 -0.16690558 0.013768191 0.12341036 0.2132298 0.18838859 -0.24943139 -0.16250522
-0.07702992 -0.013740331 -0.058130138 0.07025702 0.037646923 0.01695094 -0.03383159 0.31773934
00000000: 3ee6 843e 9fe0 b43d 0a0b 673d 9b9f 273e
00000010: 700b d6ba b1f1 6dbe f68c 293f a28b f13e
00000020: 151c 1e3f 5c41 483e 4ed6 213e 60b4 233e
00000030: 4624 643e c9cc c83e 2c32 b83e 7d44 66bf
00000040: fd08 3fbf b4bc 72bf f039 263c da11 12bd
00000050: f0c2 013e 093c ee3c 3cbb 8ebe 256f c1bd
00000060: e812 193f 349e 803d b4f0 b4bd d607 953d
00000070: e88c 83bc 420d d9bd f490 283e af11 dd3d
00000080: b451 733e aeb3 053d 01f7 a3bd e9ac 6d3c
00000090: ce73 533e 447f ac3e 475f ef3e d17a 4bbe
000000a0: 1d66 30be f24c 02be c580 9dbe ee02 59be
000000b0: 951c 4dbe 93af b93e 6ee5 c93e 062a 8c3e
000000c0: 53ba 6c3e a710 b83e 827e d53e 04a5 243e
000000d0: 1d99 28be 737f 94be 09d1 0ebd 1ff9 f13d
000000e0: b8d6 cc3d 2902 dd3e 4100 493e 5b17 8f3e
000000f0: 07dd b93e 7cd5 dd3d 3b3c a2bd c3e1 f23e
00000100: 775e b73e 76d2 9b3e c870 2e3f cb47 103f
00000110: fe68 c93e bd2c 903e 610a 6e3e d529 f53e
00000120: eda8 9ebd 3185 88be 067f 23bf 6bf1 823e
00000130: 0b77 823e 6956 ae3c 73f6 39bb 66ca babd
00000140: 64eb 0e3e ce42 563e 7052 713e 9bc7 c03e
00000150: 1ab7 cf3d 1f2b 663e f750 5b3e ceff ad3e
00000160: dc9a b23d 47ed 4a3b e00d 093f ade9 b03d
00000170: 0a6e 9dbc 847a d03d 91e0 a0ba bfd6 3abd
00000180: aafe fa3e 5f96 093f b544 0c3f 329c 6dbe
00000190: 3d9a 903d 47cc bd3e c988 24bf 0435 58bf
000001a0: c44e 63bf 2f65 f73d 9e7a 60be d7c2 29be
000001b0: f3c4 6f3d 7f73 423c 06cc 1c3e 4de7 80bc
000001c0: 4b53 54bd f5de f4bd a8cf 0b3f d967 bc3e
000001d0: f64a 0d3f 16e2 7fbe 1772 0fbf b20e 5ebf
000001e0: 97d6 7fbf 2f6c 28bf f85b 7abe 2a8e ff3c
000001f0: b6bd a1be e56f 13bf 638e 623e 2327 8e3b
00000200: 0a89 0c3c 829e 343b 40f8 1ebd a30a dfbc
00000210: 854c bc3c 4334 c2be 4535 16bf a451 94be
00000220: b5aa a53b 09d7 d7bd c8e9 a23d 94a7 fabc
00000230: e0eb 6bbd 4a68 cdbe 8293 a3be 7cb7 76be
00000240: 21cd 623f 068b 823e facb 9ebd 02a8 e03d
00000250: 8c5d 01be 47b2 ccbe 5230 b03e 03fd a43e
00000260: d4bf c43d d98c 7c3d 137b 4d3e cfbf 233e
00000270: 20fa 57bd 3e24 5c3d 2c8e 773e 1378 9c3c
00000280: 71d9 60bd e6d1 073e 4060 babd 2c3d 96be
00000290: 1105 06bf 3cc2 db3e 1231 9d3e 1ccf c23d
000002a0: a332 ef3e c8a1 af3e 9282 993e b891 b3be
000002b0: 573e a3b9 867d bc3d e39b c13e 8a52 dc3e
000002c0: d081 593f 1bde 403e b655 80bc 41f9 62be
000002d0: 3326 2a3d 510f 85be 9aa7 03bf 8126 91be
000002e0: 6bcb 5dbe c0ca 96bd c497 54be 1273 9a3d
000002f0: f544 d13d 307a 353e 0fb8 0d3e de9c 4a3e
00000300: 372e b63c 1621 323c c745 fc3d 4025 49bd
00000310: c84c 88bc 9e11 273d 525c f23d b709 183d
00000320: 9a2a 233b 609e 023d e512 41bd 72a3 18be
00000330: 0441 603e 2bc8 833e 0e28 9d3e 48a9 8fbe
00000340: e18b a7be 3da3 7cbe 356a 7b3d b601 59bd
00000350: 710b 0bbd 71ac ca3c 2d73 803c c56f 693e
00000360: 5ed2 083e eb93 4e3e 4c1b 023e 1ff0 ab3d
00000370: c0d1 103e 9a09 013e 6e5f 0ebd 8356 e0bc
00000380: 8c34 69bc 4a35 953e 615e ba3e a8a5 833e
00000390: 42a0 a53d d80f 0e3e a0f1 953e 67e9 0d3e
000003a0: 2643 033e 7829 813e b7e4 d6bc 1a79 fbbd
000003b0: ff9e 74bb 9991 043e 422d 493e 0a1c 2e3e
000003c0: 5659 34be 4ce9 2abe fb93 613c 92be fc3d
000003d0: ea58 5a3e f0e8 403e f16a 7fbe c567 26be
000003e0: ddc1 9dbd 201f 61bc de19 6ebd eae2 8f3d
000003f0: a933 1a3d b3dc 8a3c fe92 0abd bbae a23e

bias f4 [128]
0.047404755 -0.0027972523 0.015111694 -0.011129228 0.04928697 -0.034508057 0.122085 0.10635393
0.09017043 0.05438403 -0.022066219 -0.047116723 0.12772919 0.06970755 -0.06293419 -0.0018259556
0.00044346676 0.07808456 0.03123467 -0.013265696 0.07474911 0.13246769 0.012416266 0.008714269
0.03209872 0.15465488 0.061534762 0.061378866 -0.06266638 -0.031553615 0.037915006 -0.061623517
0.1263247 -0.017239714 0.031892538 -0.0060630953 0.10674456 0.07012311 -0.013056776 0.05898895
0.037048135 0.08475941 0.07431109 -0.057997942 -0.028941805 0.0023091955 0.04648898 0.06701385
0.07120222 0.07783894 0.038950305 0.009919299 0.067248955 0.021760453 -0.044819 -0.019005835
0.23414224 -0.011924902 0.14684832 0.14557548 0.10128362 0.020243477 -0.03198914 -0.03719211
0.008899562 0.03010057 -0.040123068 0.031316645 0.034250945 0.13965088 0.009562695 0.049567703
0.036953602 0.07380425 0.077141985 0.048824947 0.03606978 0.028022463 0.04146835 0.0656938
0.007027445 -0.039214946 -0.008394426 0.13196139 0.015860219 0.07610921 0.014477859 -0.026415486
-0.018362857 0.057644833 0.02394 0.16861399 0.10814539 -0.05061031 0.069956295 0.08925098
0.16207308 -0.026605465 0.016052948 0.012374755 0.06391134 -0.010231589 0.06019344 0.05556034
0.07441873 0.048575953 0.085807525 0.0604253 -0.003306164 -0.08048686 0.09506991 -0.015000437
0.08485761 0.037108317 0.089426674 0.015428956 0.16269359 0.03412333 0.042002134 0.031217191
0.059642944 0.02752695 0.07879362 0.0438255 0.06647275 0.053910244 0.020514123 -0.016632618
00000000: 7d2b 423d 1b52 37bb 0a97 773c 5e57 36bc
00000010: 22e1 493d 5258 0dbd b307 fa3d 17d0 d93d
00000020: 46ab b83d cac1 5e3d 37c4 b4bc 77fd 40bd
00000030: 71cb 023e d5c2 8e3d a4e3 80bd e754 efba
00000040: 1a81 e839 ccea 9f3d dadf ff3c 5d58 59bc
00000050: 1016 993d 9ca5 073e 986d 4b3c 4bc6 0e3c
00000060: f379 033d d95d 1e3e e00b 7c3d 6868 7b3d
00000070: 3b57 80bd 5d3e 01bd c44c 1b3d f168 7cbd
00000080: 435b 013e 4d3a 8dbc c0a1 023d eeac c6bb
00000090: e49c da3d b59c 8f3d 16ec 55bc 669e 713d
000000a0: c9bf 173d 5796 ad3d 6a30 983d 408f 6dbd
000000b0: 5d17 edbc df55 173b 3b6b 3e3d 8f3e 893d
000000c0: 78d2 913d 066a 9f3d 5b8a 1f3d 8e84 223c
000000d0: d2b9 893d fa42 b23c 2194 37bd 20b2 9bbc
000000e0: fcc2 6f3e aa60 43bc 685f 163e bd11 153e
000000f0: c96d cf3d a6d5 a53c 0b07 03bd c156 18bd
00000100: 78cf 113c 7895 f63c 1658 24bd e245 003d
00000110: b84a 0c3d a400 0f3e daac 1c3c 8107 4b3d
00000120: a95c 173d af26 973d 9efc 9d3d abfc 473d
00000130: e8bd 133d 5d8f e53c b7da 293d 798a 863d
00000140: 7b46 e63b da9f 20bd c688 09bc e320 073e
00000150: 4aed 813c 25df 9b3d 8b34 6d3c 4a65 d8bc
00000160: b46d 96bc fd1c 6c3d d21d c43c 25a9 2c3e
00000170: 557b dd3d c24c 4fbd 3f45 8f3d 38c9 b63d
00000180: 7cf6 253e b4f3 d9bc 7981 833c 7cbf 4a3c
00000190: f3e3 823d 65a2 27bc 668d 763d 3d93 633d
000001a0: d968 983d 94f7 463d dbbb af3d 8580 773d
000001b0: 3aac 58bb 4bd6 a4bd 03b4 c23d 65c4 75bc
000001c0: d4c9 ad3d e4fe 173d 5525 b73d bbc9 7c3c
000001d0: 2699 263e e8c4 0b3d 6e0a 2c3d 32bb ff3c
000001e0: 294c 743d 3380 e13c 8d5e a13d 5e82 333d
000001f0: dd22 883d fdd0 5c3d 3c0d a83c 2141 88bc

weight f4 [256, 128, 3]
0.024547629 -0.18572195 -0.17946811 -0.09859094 -0.5499487 -0.28899336 0.25601786 0.2327171
0.4521366 0.16249049 0.39604995 0.4796259 -0.4151084 -1.1013075 -0.64897054 -0.6295068
-0.4325202 -0.42487743 -0.62766904 -0.65771645 -0.42786255 -0.31340972 -0.22756083 0.047631543
-0.110558406 -0.11682265 -0.047841996 0.1542634 0.14563866 0.14672484 0.051200733 -0.052630354
-0.16362035 0.061079975 0.0986064 -0.02866495 -0.17640167 0.13782068 0.2596609 0.089732684
-0.19306335 -0.32661372 -0.15471373 0.03776912 -0.008101275 0.41017863 0.5212854 0.4853997
0.31075737 0.029385678 0.020033263 0.104019724 0.3178753 0.4499334 0.12407652 0.3131054
0.17442688 0.30151886 0.2589303 0.20556268 -0.10227837 -0.18157853 -0.12370376 -0.4648658
-0.84595984 -0.38704255 -0.054359835 -0.46025884 -0.2794475 -0.37317428 -0.71213144 -0.9296581
0.10073693 0.1235564 0.028959079 0.32581836 0.19743206 0.27094454 -0.040959075 0.032781206
-0.000834868 0.05156067 0.07252757 -0.06939231 0.3456309 0.24252251 0.15390411 0.2422492
0.2717274 0.23149833 0.017581562 0.035089977 0.066762835 0.652704 0.5650905 0.36505368
-0.2474628 -0.078149885 0.03838722 -0.04505054 -0.016832553 -0.09658203 -0.45934787 -0.24651186
-0.1616291 -0.011465359 -0.09483092 0.006337895 0.18529554 0.055113006 -0.19593245 0.31838676
0.085023955 -0.09131951 -0.26937795 -0.21826924 -0.13869072 -0.09298483 0.028216539 0.01484619
0.042581476 0.22031099 0.22552288 -0.051945996 -0.09264212 -0.17833757 0.48511273 0.3823703
0.24496771 0.1839959 -0.09129231 -0.14664683 -0.03129828 -0.46049562 -0.17380325 0.6058379
0.51485234 0.3002457 -0.38137326 -0.08543246 -0.06967141 -0.02941419 0.07858102 0.054811835
-0.07368739 -0.21151778 -0.326346 0.2249369 0.17664362 0.14861484 -0.24339516 -0.22764057
-0.056351412 -0.11282385 -0.1294568 -0.25030386 0.018666083 0.14430372 0.26794666 -0.11726716
-0.2476147 -0.07054734 -0.880508 -0.79708046 -0.98021704 -0.12550664 -0.23391983 0.09458825
0.019742383 -0.44796997 0.10482393 -0.13567862 0.12903671 -0.0033560544 0.13547672 0.014431002
0.23081094 0.52843696 0.5942351 0.8190596 -0.1210127 -0.07110107 -0.05820687 -0.09387982
-0.034542732 0.17914288 -0.15948202 -0.055652738 0.04701904 -0.30090377 -0.22401316 -0.018788366
-0.30620292 -0.45867962 -0.3136443 0.12647799 0.14642124 0.32269648 0.2987678 0.38229796
0.35365662 -0.07821421 -0.15788579 -0.055770587 0.16860081 0.14938079 0.21343395 -0.033383947
-0.23538227 -0.31333217 -0.2337511 -0.2664903 -0.0479282 -0.11533183 -0.6005984 -0.12451391
-0.261862 -0.24148916 -0.25409323 -0.38580674 -0.2742092 -0.1110785 -0.004784388 -0.24533655
-0.3198322 -0.28584924 -0.32694578 -0.28612703 0.3426315 0.13802391 0.36977106 -0.069488294
0.14847106 0.21025051 -0.38143325 -0.27326456 -0.1684972 -0.71051645 -0.5694228 -0.29116338
0.09828552 0.014814056 0.04275584 0.2802695 0.01170594 -0.07923573 -0.30521667 -0.21262622
-0.053202424 0.7267531 0.47441006 0.37256038 -0.31800213 -0.16968828 -0.32682186 0.28376785
00000000: 1c18 c93c e52d 3ebe 7dc6 37be 0cea c9bd
00000010: 70c9 0cbf f0f6 93be c614 833e 644d 6e3e
00000020: 737e e73e e863 263e 0fc7 ca3e 8791 f53e
00000030: 1789 d4be a5f7 8cbf ef22 26bf 5c27 21bf
00000040: 4a73 ddbe 8989 d9be ebae 20bf 1b60 28bf
00000050: cd10 dbbe 3d77 a0be b505 69be 4b19 433d
00000060: 726c e2bd b740 efbd f8f5 43bd 3af7 1d3e
00000070: 4d22 153e 093f 163e dcb7 513d ed92 57bd
00000080: 188c 27be ff2e 7a3d 27f2 c93d c2d2 eabc
00000090: a4a2 34be dd20 0d3e 46f2 843e c5c5 b73d
000000a0: 66b2 45be ea39 a7be 476d 1ebe cbb3 1a3d
000000b0: 36bb 04bc ef02 d23e f672 053f 4f86 f83e
000000c0: 971b 9f3e 3cba f03c cc1c a43c 4b08 d53d
000000d0: 8dc0 a23e ac5d e63e d51b fe3d 5a4f a03e
000000e0: f69c 323e ae60 9a3e 8392 843e 067f 523e
000000f0: 5277 d1bd b9ef 39be 6658 fdbd e402 eebe
00000100: d390 58bf 712a c6be 6ba8 5ebd 0ca7 ebbe
00000110: be13 8fbe b310 bfbe 3f4e 36bf 13fe 6dbf
00000120: 2a4f ce3d 230b fd3d 973b ed3c aad1 a63e
00000130: a12b 4a3e 3eb9 8a3e b4c4 27bd 9645 063d
00000140: 0bdb 5aba 4831 533d 5689 943d 8e1d 8ebd
00000150: 89f6 b03e d257 783e 0a99 1d3e 2d10 783e
00000160: db1f 8b3e e60d 6d3e 3507 903c 82ba 0f3d
00000170: f4ba 883d 9c17 273f c5a9 103f 51e8 ba3e
00000180: e366 7dbe 0c0d a0bd eb3b 1d3d ea86 38bd
00000190: 6ce4 89bc cdcc c5bd a52f ebbe 9b6d 7cbe
000001a0: 1982 25be 33d9 3bbc b736 c2bd 1eae cf3b
000001b0: 1dbe 3d3e 2dbe 613d 84a2 48be 9703 a33e
000001c0: 0a21 ae3d b905 bbbd e8eb 89be f981 5fbe
000001d0: f104 0ebe d56e bebd 5f26 e73c 6f3d 733c
000001e0: ea69 2e3d 3499 613e 78ef 663e 53c5 54bd
000001f0: 27bb bdbd 209e 36be b260 f83e 0ac6 c33e
00000200: d1d8 7a3e 6c69 3c3e 76f7 babd 962a 16be
00000210: a032 00bd 15c6 ebbe 7bf9 31be 3118 1b3f
00000220: 5dcd 033f ceb9 993e 5b43 c3be 37f7 aebd
00000230: e2af 8ebd 07f6 f0bc 16ef a03d 6082 603d
00000240: 6ae9 96bd 1e98 58be d316 a7be dc55 663e
00000250: 11e2 343e 7d2e 183e 953c 79be 9c1a 69be
00000260: bdd0 66bd 3110 e7bd 5390 04be d427 80be
00000270: 9de9 983c 5bc4 133e 4e30 893e c429 f0bd
00000280: b58e 7dbe 207b 90bd f968 61bf 770d 4cbf
00000290: 81ef 7abf d084 00be ae88 6fbe 7cb7 c13d
000002a0: c7ba a13c 525c e5be eead d63d 56ef 0abe
000002b0: 3322 043e 40f1 5bbb 69ba 0a3e 0270 6c3c
000002c0: b459 6c3e a547 073f cb1f 183f e4ad 513f
000002d0: 82d5 f7bd 709d 91bd 546a 6ebd 1044 c0bd
000002e0: ae7c 0dbd 3b71 373e 414f 23be 20f4 63bd
000002f0: 0997 403d 0f10 9abe b563 65be 0fea 99bc
00000300: a1c6 9cbe 0ed8 eabe fc95 a0be 7283 013e
00000310: 73ef 153e 7938 a53e 18f8 983e 8fbc c33e
00000320: 7b12 b53e c62e a0bd d0ac 21be b36f 64bd
00000330: b1a5 2c3e 47f7 183e 6e8e 5a3e 9bbd 08bd
00000340: 0d08 71be 136d a0be 735c 6fbe 6b71 88be
00000350: 5c50 44bd 1833 ecbd d1c0 19bf 2601 ffbd
00000360: c712 86be ef48 77be 8218 82be 7688 c5be
00000370: 2665 8cbe 207d e3bd 5bc6 9cbb 8139 7bbe
00000380: 0cc1 a3be d55a 92be 7065 a7be 3e7f 92be
00000390: 656d af3e 2456 0d3e a252 bd3e e14f 8ebd
000003a0: cc08 183e e94b 573e 384b c3be 55e9 8bbe
000003b0: 888a 2cbe 68e4 35bf b1c5 11bf 5e13 95be
000003c0: eb49 c93d a8b6 723c bf20 2f3d 7c7f 8f3e
000003d0: 45ca 3f3c 5846 a2bd 5c45 9cbe b0ba 59be
000003e0: c9ea 59bd 7e0c 3a3f e0e5 f23e 3cc0 be3e
000003f0: 2dd1 a2be c4c2 2dbe 3255 a7be 054a 913e

bias f4 [256]
0.024218693 -0.015326149 -0.006511724 -0.0032468273 0.033081662 0.054841653 0.04505955 0.043823034
0.041034043 -0.022800472 -0.020197969 -0.034072213 -0.026258128 0.0292855 -0.0022004372 0.055056933
0.009745313 0.034117404 0.09566574 0.02132868 0.055831302 -0.020511098 0.032748863 0.060192324
-0.0113132335 0.014537393 0.048320558 0.020753128 -0.028853174 0.011100346 -0.011868444 0.051793598
0.013593002 0.016138747 0.015049958 0.044146474 -0.042402446 0.0044960007 0.029527761 -0.015087842
-0.03336735 0.0025589599 0.06666896 -0.02085761 0.015937738 0.0050509665 0.032313418 0.03848134
0.06414896 0.036210038 0.009902145 -0.01735952 0.017942276 -0.020684343 0.050758634 -0.0026036636
0.07418999 0.023594042 0.009703571 0.03831236 0.057572685 0.03212082 -0.029794939 0.027815294
0.028303582 0.06853074 0.06856079 -0.0049232966 0.045083363 -0.022337614 0.010153675 0.023406826
0.0026672843 -0.015515725 -0.04334139 0.023039421 0.0039549964 0.026603421 -0.021910086 -0.0075722765
0.056037676 -0.033497874 0.01673292 -0.037973966 -0.004529535 -0.029620377 0.08197893 -0.0055907574
-0.022315567 -0.0053645335 -0.019270761 0.002605236 0.13818511 0.040637404 -0.0230676 0.02697652
-0.047181446 -0.030178914 0.058013164 0.024983568 -0.0051475368 0.053300466 -0.014191116 -0.013971676
0.02858139 0.022047957 -0.022575349 -0.02677983 -0.023429772 0.01569438 0.011744977 0.018828843
-0.030726155 0.06361797 0.05368221 0.03139059 -0.012802191 0.017492535 -0.02173215 0.010052025
-0.0153685855 -0.022371775 -0.034544233 0.05945859 0.051695593 0.06947996 0.00032073964 0.034367777
-0.009930418 0.058455393 0.07963734 -0.014279136 0.03251358 0.036630906 0.031040503 0.024189416
0.046973497 0.047176532 0.012120813 -0.024565246 -0.020463377 0.0024258345 -0.04215377 -0.007530889
0.01902219 -0.030003985 0.048313018 0.039237604 0.009397985 0.058121976 -0.01351381 0.046658747
0.003822831 -0.016633578 -0.013331677 0.01938101 0.03294457 0.021240186 0.05934149 0.060987826
-0.001433187 -0.00836143 -0.030684289 0.0005410224 0.06433503 -0.017964099 -0.023833657 -0.0059768595
-0.029556869 0.024943955 0.04403184 0.00042748492 0.031015258 0.024214337 0.03933048 -0.023000406
-0.0029907613 -0.023830755 -0.0022137351 0.028097846 0.0125251515 0.013801832 -0.01669976 -0.010672836
0.000704829 0.04073527 0.019379906 -0.032664068 0.0002470034 0.03991412 -0.0238598 -0.0033242812
0.035942763 0.05678881 0.02833294 -0.023386715 0.010191968 0.025255822 3.4691486e-05 0.033882394
-0.018744253 0.036530465 0.0058843386 0.07796315 0.0074694115 0.0010606165 -0.01536779 0.027969588
-0.015697654 -0.023560816 0.029896896 0.0067340313 0.017997568 0.016778065 0.0326759 0.045363747
-0.036820505 0.07320057 0.016563402 -0.023718225 0.027046755 -0.03193658 0.046188924 0.03634126
0.008039453 0.0065795677 -0.002431252 -0.019570777 0.03212489 0.050188717 0.03968931 0.055534333
-0.024084102 -0.028656572 -0.0315185 0.017668394 0.06267423 0.031044291 -0.0029376738 0.00025768054
0.036425445 -0.0055780285 0.0032064149 0.036390413 0.0010357468 -0.0134357335 0.023611322 0.014964944
0.05220969 -0.039012488 -0.015794229 0.0149835935 0.039587643 0.04388015 -0.016296567 -0.018367788
00000000: 4866 c63c 871a 7bbc 4d60 d5bb b9c8 54bb
00000010: a380 073d a4a1 603d 5d90 383d c87f 333d
00000020: 5013 283d 0ec8 babc 3676 a5bc 4e8f 0bbd
00000030: 491b d7bc 25e8 ef3c 3635 10bb 6183 613d
00000040: ceaa 1f3c b1be 0b3d 66ec c33d 7cb9 ae3c
00000050: 5daf 643d e406 a8bc ac23 063d 3a8c 763d
00000060: 245b 39bc 3f2e 6e3c c7eb 453d 7702 aa3c
00000070: 7e5d ecbc 3ade 353c dd73 42bc 8625 543d
00000080: 2fb5 5e3c 6835 843c 1994 763c efd2 343d
00000090: 30ae 2dbd 3053 933b 34e4 f13c ff32 77bc
000000a0: 34ac 08bd 39b4 273b bc89 883d 94dd aabc
000000b0: dc8f 823c 9482 a53b 135b 043d 9c9e 1d3d
000000c0: 8860 833d fa50 143d 9b3c 223c 8d35 8ebc
000000d0: aefb 923c 3672 a9bc 49e8 4f3d 3aa2 2abb
000000e0: ecf0 973d 4b48 c13c bafb 1e3c 6ced 1c3d
000000f0: 56d1 6b3d 1f91 033d 8414 f4bc e6dc e33c
00000100: eadc e73c d859 8c3d 9969 8c3d 9b53 a1bb
00000110: 55a9 383d 5ffd b6bc 9a5b 263c acbf bf3c
00000120: 9bcd 2e3b ab35 7ebc be86 31bd 2bbd bc3c
00000130: ea98 813b 6bef d93c c87c b3bc dc20 f8bb
00000140: c387 653d 1135 09bd 7a13 893c 978a 1bbd
00000150: 7e6c 94bb 6fa6 f2bc 92e4 a73d ac32 b7bb
00000160: 23cf b6bc f8c8 afbb b7dd 9dbc 9bbc 2a3b
00000170: 6680 0d3e 6873 263d 43f8 bcbc ddfd dc3c
00000180: 5541 41bd c539 f7bc 369f 6d3d 57aa cc3c
00000190: abac a8bb 9751 5a3d db81 68bc 75e9 64bc
000001a0: 8523 ea3c eb9d b43c f0ef b8bc 6061 dbbc
000001b0: cbef bfbc 8091 803c 016e 403c f23e 9a3c
000001c0: 6bb5 fbbc 234a 823d e1e1 5b3d 6b93 003d
000001d0: 48c0 51bc 814c 8f3c 9f07 b2bc 40b1 243c
000001e0: 85cc 7bbc 0345 b7bc 417e 0dbd da8a 733d
000001f0: c2be 533d 824b 8e3d f228 a839 3ac5 0c3d
00000200: 31b3 22bc ec6e 6f3d e718 a33d 0af3 69bc
00000210: f62c 053d 4a0a 163d a748 fe3c e228 c63c
00000220: 4867 403d 2e3c 413d 6096 463c 0e3d c9bc
00000230: d0a2 a7bc c0fa 1e3b 6ea9 2cbd adc5 f6bb
00000240: 6cd4 9b3c ebca f5bc dfe3 453d 9cb7 203d
00000250: 02fa 193c 4f11 6e3d 0769 5dbc 3e1d 3f3d
00000260: 7688 7a3b 2443 88bc 1b6d 5abc edc4 9e3c
00000270: e3f0 063d e6ff ad3c 1010 733d 5fce 793d
00000280: c7d9 bbba 61fe 08bc 9e5d fbbc 66d3 0d3a
00000290: 16c2 833d 7229 93bc cd3e c3bc 88d9 c3bb
000002a0: 3f21 f2bc 4457 cc3c bb5a 343d 0e20 e039
000002b0: b613 fe3c 255d c63c ff18 213d 596b bcbc
000002c0: a600 44bb b738 c3bc 5014 11bb 742d e63c
000002d0: 4b36 4d3c 1421 623c efcd 88bc 1edd 2ebc
000002e0: 46c4 383a 07da 263d 9cc2 9e3c c2ca 05bd
000002f0: 3c80 8139 fd7c 233d a175 c3bc 2fdc 59bb
00000300: b838 133d 629b 683d 7b1a e83c 7f95 bfbc
00000310: 36fc 263c 4ce5 ce3c b381 1138 44c8 0a3d
00000320: 8c8d 99bc f8a0 153d 69d1 c03b 25ab 9f3d
00000330: f7c1 f43b 6204 8b3a 2fc9 7bbc 7a20 e53c
00000340: 5e98 80bc 9d02 c1bc 56ea f43c 26a9 dc3b
00000350: a36f 933c 2772 893c 2ad7 053d 56cf 393d
00000360: 19d1 16bd 2eea 953d f9af 873c b94c c2bc
00000370: 2891 dd3c eecf 02bd 9930 3d3d 93da 143d
00000380: e9b7 033c 6a99 d73b a455 1fbb e552 a0bc
00000390: 6395 033d af92 4d3d 4291 223d f877 633d
000003a0: 064c c5bc 30c1 eabc 8b19 01bd 4fbd 903c
000003b0: 595b 803d 9950 fe3c fd85 40bb 4c19 8739
000003c0: d932 153d e5c7 b6bb b722 523b 1d0e 153d
000003d0: e5c1 873a 8d21 5cbc 886c c13c 862f 753c
000003e0: d4d9 553d 8fcb 1fbd e662 81bc bf7d 753c
000003f0: a726 223d acbb 333d 6180 85bc 0b78 96bc

weight f4 [32]
0.94535774 0.80136704 0.8151467 1.1978955 1.3300757 1.2562948 1.2118602 0.95308536
0.95950204 0.8226687 0.8733699 1.1133803 1.1842879 0.8026252 0.89462906 1.0921558
1.3658649 0.7422941 0.99909425 0.96915036 0.8074919 0.5839298 0.8568837 0.7528351
0.97920525 0.7949468 1.2795463 3.4934244 1.7123739 0.57480884 1.11397 1.7225182
00000000: f702 723f 6426 4d3f 74ad 503f a454 993f
00000010: ec3f aa3f 45ce a03f 3c1e 9b3f 67fd 733f
00000020: eda1 753f 6a9a 523f 2b95 5f3f 3f83 8e3f
00000030: bf96 973f d878 4d3f 6906 653f c3cb 8b3f
00000040: a9d4 ae3f fc06 3e3f a4c4 7f3f 3d1a 783f
00000050: cab7 4e3f 6c7c 153f bb5c 5b3f cdb9 403f
00000060: 32ad 7a3f a281 4b3f 2cc8 a33f 4494 5f40
00000070: 112f db3f ac26 133f 9296 8e3f 7a7b dc3f

bias f4 [32]
0.033872608 0.2546768 -0.0856873 -0.021622412 0.26901644 0.045320913 0.27951247 0.11505681
0.2742287 0.16632305 -0.17301585 0.09742279 -0.41923797 -0.04115866 -0.030278265 0.07320199
-0.005846263 0.09023724 0.5886846 -0.19728644 0.27428687 0.08415472 -0.08533309 0.16469921
-0.03153719 0.11740715 -0.2485429 0.006043619 0.0017460937 0.25051326 0.0020915093 -0.019942094
00000000: 01be 0a3d ff64 823e d37c afbd 7c21 b1bc
00000010: 86bc 893e 6ca2 393d 421c 8f3e e8a2 eb3d
00000020: b467 8c3e 9750 2a3e 112b 31be 9a85 c73d
00000030: 5ca6 d6be fc95 28bd 200a f8bc edea 953d
00000040: 0292 bfbb 4dce b83d 09b4 163f 7505 4abe
00000050: 546f 8c3e 4f59 ac3d 1dc3 aebd e9a6 283e
00000060: 242d 01bd 2973 f03d 0882 7ebe 8d09 c63b
00000070: 2fdd e43a 4643 803e b411 093b 9a5d a3bc

running_mean f4 [32]
0.1665094 0.07259869 0.5538777 0.07284999 -0.4375755 -0.31959382 -0.31320027 -0.07998842
0.21145678 -0.14186566 0.26536047 0.20053506 0.77830654 0.45687312 0.18520223 -0.06764392
0.18794473 0.18333569 0.054137427 0.2669814 0.13009587 0.6464176 0.08138855 0.18684113
0.254224 0.28551754 -0.32670173 0.86781365 0.10262187 0.3892222 -0.1117311 0.040918868
00000000: 7181 2a3e 9fae 943d eeca 0d3f 6032 953d
00000010: e509 e0be cda1 a3be c95b a0be f8d0 a3bd
00000020: 2088 583e 3b45 11be 54dd 873e 1059 4d3e
00000030: 193f 473f 46eb e93e a7a5 3d3e e588 8abd
00000040: 9574 403e 5abc 3b3e 35bf 5d3d c9b1 883e
00000050: da37 053e a07b 253f 0aaf a63d 4853 3f3e
00000060: a629 823e 5b2f 923e 7345 a7be 0929 5e3f
00000070: 6a2b d23d 2248 c73e 46d3 e4bd 8b9a 273d

running_var f4 [32]
3.7881114 1.0781629 0.6807592 1.1352094 1.4446133 1.8635497 0.5154428 0.2347129
1.5205362 1.292305 0.61765504 0.5583259 0.5542713 1.0350808 1.298972 0.74713564
10.395417 1.8955058 1.6144383 0.68919915 0.849937 1.0330479 0.5699443 0.5981889
0.5056592 0.66079247 0.019924005 55.748417 3.457864 1.6250304 1.5746368 3.2036083
00000000: 6b70 7240 3e01 8a3f 3c46 2e3f 8b4e 913f
00000010: 17e9 b83f cc88 ee3f 0ff4 033f 9458 703e
00000020: eea0 c23f 406a a53f a41e 1e3f 72ee 0e3f
00000030: b9e4 0d3f 877d 843f b744 a63f 4844 3f3f
00000040: a153 2641 ef9f f23f eaa5 ce3f 5b6f 303f
00000050: 7995 593f ea3a 843f dfe7 113f e822 193f
00000060: e272 013f b229 293f ab37 a33c 61fe 5e42
00000070: a54d 5d40 ff00 d03f b38d c93f eb07 4d40

weight f4 [64]
0.72500336 1.0606277 1.2574586 1.0722773 0.815524 0.9614517 0.9641505 1.1745586
1.4061664 0.9292467 0.60931647 0.9854582 1.2862008 0.7839303 1.0055652 0.87947965
0.71503884 0.89252263 1.3911166 0.6803801 0.7991089 0.86296856 1.2577549 1.0285416
0.7942942 0.98436487 0.6599795 1.277705 0.9613572 0.76622146 1.1370618 0.9971216
0.68113273 0.9941807 0.7776869 0.967012 0.96549696 1.0021248 0.9120325 0.78235984
1.5991211 0.94282734 0.73122424 0.6713281 2.5186322 1.0485883 0.65329534 0.8287532
1.0239679 0.9422563 0.9559333 0.8541278 0.91719323 0.73375326 1.6980504 2.1217175
0.9390837 0.84024334 0.7787062 2.3477006 0.9220532 1.0469642 1.025577 0.8183729
00000000: d299 393f a6c2 873f 67f4 a03f 6240 893f
00000010: 2ec6 503f b321 763f 91d2 763f f057 963f
00000020: 43fd b33f 1de3 6d3f 2afc 1b3f fd46 7c3f
00000030: 3aa2 a43f a8af 483f 5cb6 803f 9425 613f
00000040: c90c 373f 5d7c 643f 1c10 b23f 642d 2e3f
00000050: 6792 4c3f 82eb 5c3f 1dfe a03f 40a7 833f
00000060: dd56 4b3f 56ff 7b3f 6bf4 283f d68b a33f
00000070: 811b 763f 1727 443f 3e8b 913f 5c43 7f3f
00000080: b75e 2e3f a082 7e3f 7d16 473f 198e 773f
00000090: cf2a 773f a045 803f f67a 693f bc48 483f
000000a0: 00b0 cc3f 225d 713f 8331 3b3f 29dc 2b3f
000000b0: 4531 2140 2438 863f 5d3e 273f 2b29 543f
000000c0: 6111 833f b537 713f 0bb8 743f 1fa8 5a3f
000000d0: 2dcd 6a3f 41d7 3b3f b759 d93f 38ca 0740
000000e0: ca67 703f 301a 573f 4a59 473f ba40 1640
000000f0: ae0b 6c3f ec02 863f 1b46 833f e380 513f

bias f4 [64]
-0.38592982 -0.31450388 -0.48506212 -0.084972054 -0.35392135 -0.011327151 -0.095689826 -0.29533032
-0.5497945 0.062002208 -0.09045243 -0.02243227 -0.21651086 -0.18868835 -0.30775332 0.11453431
-0.2998371 -0.36923853 -0.18950236 -0.32979944 -0.35524347 0.012586869 -0.56418115 -0.3863385
-0.33071265 -0.05485898 -0.0046993936 -0.09733054 -0.1398471 -0.34979394 -0.39271453 -0.1451847
-0.21390599 -0.20776385 -0.50204754 0.043733515 -0.31423756 -0.047891904 -0.1738097 -0.63387364
-0.35995924 -0.6173826 -0.19622394 -0.17724672 -0.5122792 -0.18720987 -0.20911299 -0.58868283
-0.520818 -0.40199414 -0.50363153 -0.3902698 -0.11492311 -0.6129196 -0.5280061 -0.24779597
-0.12714255 -0.17837861 -0.32649288 -0.28658614 0.028103225 -0.24069715 -0.0379441 0.12070396
00000000: 9898 c5be a706 a1be 105a f8be d405 aebd
00000010: 2e35 b5be 8495 39bc 07f9 c3bd 8935 97be
00000020: 55bf 0cbf 07f6 7d3d 203f b9bd e1c3 b7bc
00000030: 06b5 5dbe 8537 41be d891 9dbe f790 ea3d
00000040: 4084 99be d50c bdbe e80c 42be 79db a8be
00000050: 79e2 b5be 2839 4e3c 2d6e 10bf 29ce c5be
00000060: 2b53 a9be cfb3 60bd 5ffd 99bb 3c55 c7bd
00000070: 1434 0fbe 3118 b3be e111 c9be 4cab 14be
00000080: 2c0a 5bbe 0cc0 54be 3086 00bf ea21 333d
00000090: bfe3 a0be 4d2a 44bd 2cfb 31be 8b45 22bf
000000a0: 944c b8be c90c 1ebf eeee 48be 2a80 35be
000000b0: bb24 03bf f2b3 3fbe b721 56be ebb3 16bf
000000c0: 5454 05bf 2dd2 cdbe ffed 00bf 71d1 c7be
000000d0: cf5c ebbd 4de8 1cbf 682b 07bf 3abe 7dbe
000000e0: a831 02be e2a8 36be 132a a7be 6bbb 92be
000000f0: bc38 e63c 5079 76be 466b 1bbd a333 f73d

running_mean f4 [64]
0.04057912 -2.9229164 -2.6153224 -3.6331544 -1.4448048 -3.316881 1.939928 -1.1247334
-3.9007704 -6.2745323 3.7359397 -2.6265185 -2.4999409 -3.94194 -4.565553 -3.507609
-0.7006187 -2.5556602 -3.429953 1.9528655 -0.45341367 -5.9774466 -3.8986523 -2.937428
-2.6029456 -1.565684 3.341956 -2.1610503 -3.729215 -1.3400676 -1.7591764 -2.241471
-3.3456264 -3.1932304 -1.261327 -3.0402102 -2.0339463 -6.0878053 -1.3090055 1.1344504
-4.0816026 -0.84623843 5.329256 5.2349906 -12.326432 -3.2968369 -1.4189872 -0.13307218
-4.451116 -2.928013 -1.3316317 -5.341083 -2.5893414 1.6280538 -7.6274714 -9.64573
-3.814483 -0.64242524 -1.3646692 -11.055019 -2.7359424 -4.8295503 -2.202147 0.04741139
00000000: 4b36 263d 1011 3bc0 7161 27c0 9a85 68c0
00000010: 5def b8bf c747 54c0 904f f83f 44f7 8fbf
00000020: 39a6 79c0 f8c8 c8c0 a319 6f40 e118 28c0
00000030: 08ff 1fc0 bf48 7cc0 0319 92c0 aa7c 60c0
00000040: bf5b 33bf f08f 23c0 5a84 5bc0 7ff7 f93f
00000050: d625 e8be 3e47 bfc0 8583 79c0 d2fe 3bc0
00000060: a996 26c0 5568 c8bf 9be2 5540 a64e 0ac0
00000070: 75ab 6ec0 5687 abbf b12c e1bf 4374 0fc0
00000080: be1e 56c0 e35d 4cc0 2a73 a1bf ce92 42c0
00000090: 2d2c 02c0 4dcf c2c0 7e8d a7bf ac35 913f
000000a0: 7d9c 82c0 15a3 58bf 4489 aa40 0b85 a740
000000b0: 1139 45c1 60ff 52c0 5fa1 b5bf 1344 08be
000000c0: 8b6f 8ec0 9164 3bc0 e872 aabf 27ea aac0
000000d0: c5b7 25c0 1164 d03f 3f14 f4c0 e954 1ac1
000000e0: 7d20 74c0 fb75 24bf 7bad aebf 5ce1 30c1
000000f0: ae19 2fc0 ad8b 9ac0 faef 0cc0 7232 423d

running_var f4 [64]
14.934792 10.144338 20.265072 14.214488 16.031528 10.680134 16.45755 6.259119
47.157032 23.70934 12.428841 27.543459 20.135347 23.280386 19.944767 8.121712
7.628834 6.986113 34.70195 14.01803 13.688428 23.935133 113.147385 16.345327
7.73607 7.5260653 18.600266 22.475513 19.46261 6.385762 13.695299 13.114535
12.816058 12.56459 11.760311 15.151295 7.032567 42.755005 13.467799 13.2112665
31.81932 7.55801 14.759085 13.335096 981.6475 11.976294 13.35306 5.1802006
21.101938 50.129177 9.774929 19.690304 11.217471 12.328956 153.38821 496.9053
11.394869 8.771449 8.742086 725.14703 18.709486 33.466812 10.904749 9.699233
00000000: e8f4 6e41 354f 2241 de1e a241 8b6e 6341
00000010: 9240 8041 d4e1 2a41 10a9 8341 b44a c840
00000020: cda0 3c42 baac bd41 88dc 4641 0159 dc41
00000030: 3115 a141 3b3e ba41 e28e 9f41 88f2 0141
00000040: 681f f440 3d8e df40 ccce 0a42 da49 6041
00000050: cd03 5b41 277b bf41 764b e242 3bc3 8241
00000060: e38d f740 87d5 f040 58cd 9441 dacd b341
00000070: 6db3 9b41 2a58 cc40 f21f 5b41 23d5 5141
00000080: 930e 4d41 9008 4941 3c2a 3c41 b46b 7241
00000090: ca0a e140 2005 2b42 1b7c 5741 5961 5341
000000a0: f88d fe41 38db f140 3625 6c41 8e5c 5541
000000b0: 7169 7544 e69e 3f41 22a6 5541 34c4 a540
000000c0: c5d0 a841 4784 4842 1c66 1c41 be85 9d41
000000d0: c37a 3341 6743 4541 6263 1943 e173 f843
000000e0: 6251 3641 db57 0c41 96df 0b41 6949 3544
000000f0: 07ad 9541 04de 0542 da79 2e41 0f30 1b41

weight f4 [128]
0.97193533 1.1360034 0.9190072 0.9042809 1.287271 0.8521477 1.147487 0.9954115
1.1781225 1.0818845 1.1264012 0.63085264 0.6412223 0.962136 1.027829 0.82909214
1.2036254 0.9425364 0.8119547 0.88743544 0.70458263 1.1912259 1.5030111 0.989442
0.80660397 0.85175496 0.9959014 0.83959836 0.90056753 0.7562121 0.66892165 0.708293
0.73713344 1.1953326 0.77897483 0.84047014 0.900155 1.1821666 0.71674216 0.9458892
0.7859793 0.7989055 0.96701044 1.0333673 1.1500348 0.78147346 1.0354948 0.57837075
1.1659385 1.1292305 1.0756574 1.0454719 0.91688186 1.0266687 0.8454675 0.8604448
1.3022861 0.8292568 1.0496708 1.039958 0.82648927 0.739604 0.9094403 0.81374216
0.9442703 0.97364074 0.7598781 0.8447916 0.8706638 0.6163171 0.562799 0.98234487
0.832909 0.90794355 1.1470764 0.7215333 0.75411886 0.73326254 0.965173 0.70373124
0.8143272 0.9030358 0.8779005 1.01497 1.0203193 0.8349621 1.1009688 0.8380834
0.9483491 0.82757574 0.88257635 1.085917 1.1561614 0.8829343 0.8065205 0.9671171
0.93155617 0.7249004 0.8566923 1.1669033 0.92922735 0.7573981 1.1292211 0.6300651
1.1026279 1.08214 1.0512072 0.8407204 1.1379439 0.81798613 1.1324295 0.62758607
0.9955031 0.7704906 0.9717315 0.7744441 1.2574517 0.81963044 0.88953084 1.0292344
0.7293896 0.8474868 1.0190101 0.8960387 0.6179787 0.7445853 1.1402179 0.89856064
00000000: c1d0 783f 8f68 913f 0e44 6b3f f47e 673f
00000010: 4cc5 a43f 5a26 5a3f dbe0 923f 4ad3 7e3f
00000020: b8cc 963f 317b 8a3f ea2d 903f 8f7f 213f
00000030: 2527 243f 8b4e 763f e78f 833f 623f 543f
00000040: 6610 9a3f 114a 713f 43dc 4f3f f82e 633f
00000050: 875f 343f 177a 983f ab62 c03f 124c 7d3f
00000060: 997d 4e3f 9d0c 5a3f 65f3 7e3f ebef 563f
00000070: 988b 663f 1e97 413f 733e 2b3f b152 353f
00000080: c7b4 3c3f a900 993f e56a 473f 0d29 573f
00000090: 8f70 663f 3c51 973f 6a7c 373f cb25 723f
000000a0: f035 493f 1285 4c3f ff8d 773f 6145 843f
000000b0: 5734 933f a50e 483f 188b 843f 1b10 143f
000000c0: 793d 953f a08a 903f 24af 893f 06d2 853f
000000d0: c5b8 6a3f e169 833f 8f70 583f 1c46 5c3f
000000e0: 50b1 a63f 2c4a 543f 9d5b 863f 581d 853f
000000f0: cd94 533f b056 3d3f 14d1 683f 6851 503f
00000100: b3bb 713f 8540 793f 5f87 423f 4344 583f
00000110: d3e3 5e3f f5c6 1d3f 9813 103f f47a 7b3f
00000120: 8639 553f fd6e 683f 66d3 923f 68b6 383f
00000130: ef0d 413f 18b7 3b3f 9415 773f bb27 343f
00000140: bf77 503f 5b2d 673f 16be 603f 89ea 813f
00000150: d399 823f 14c0 553f 8cec 8c3f a28c 563f
00000160: 02c7 723f 01dc 533f 86f0 613f 54ff 8a3f
00000170: 19fd 933f fb07 623f 2178 4e3f fc94 773f
00000180: 777a 6e3f 1393 393f 3050 5b3f 165d 953f
00000190: d8e1 6d3f d8e4 413f 518a 903f f24b 213f
000001a0: e922 8d3f 9083 8a3f f58d 863f 7439 573f
000001b0: 25a8 913f 8a67 513f 73f3 903f 7ba9 203f
000001c0: 4bd9 7e3f df3e 453f 65c3 783f f841 463f
000001d0: 2df4 a03f 4dd3 513f 4bb8 633f f4bd 833f
000001e0: 47b9 3a3f e5f4 583f ec6e 823f cb62 653f
000001f0: da33 1e3f 249d 3e3f a9f2 913f 1208 663f
