model_EMD.pth (torch, 552444 bytes, 26 tensors)

weight f4 [32, 10, 3]
00000000: e469 b8be 5da9 5e3e 8de2 063f 226d 3abe
00000010: dcaf 883e d0aa 533e 6089 653d 132c 8cbc
00000020: e40a 533e e2fe 773d 73ae b5bd 5090 4abe
00000030: 596c 333e 8e97 1e3d 801e b23e 3009 38bf
00000040: 3239 0bbc 4bb1 3e3e 65dc 1ebf 2db1 693e
00000050: dfa4 d03e 12f6 04be 7fc8 423d 0c06 ad3e
00000060: 245e 3c3e eec2 e63d d583 b53e 5c3b e63d
00000070: b5f7 863e dae9 583e 48c1 14bf 3166 723f
00000080: 1b6f 9cbe b8b6 dfbe cde0 893e cf26 3b3f
00000090: d86d 55be afa0 9c3e a596 333f 5a5b 963e
000000a0: 1ca4 793e c2bb 003f bd77 e93e 07aa b73e
000000b0: ddaf cb3e dbb6 823c f975 c03c 6b6a be3c
000000c0: 34b1 a73c 968c d9bc 9fe6 a33d 8c7b 983d
000000d0: f89d ed3c a0df 00b8 c49b 68bc 40eb 72bc
000000e0: 21fb 9d3d 22a8 38bd dd9a d7bd 68c8 023e
000000f0: 00bb 9c3d e4cf b3be 3276 6cbe 5bf4 45be
00000100: bfc4 3cbe 3232 af3c 9b4c 6cbe 9f0f 49be
00000110: 7827 263d 4df5 97be 973b 41be 77d5 65be
00000120: c89e 9dbe b5c3 bbbe 67ac 20be 3c75 0cbf
00000130: 7cd7 1d3f 6436 6b3f e6f3 03bf 3a5e e5bd
00000140: 2b7e e23e ec58 abbd 6d3c bc3d 1c7b 9d3d
00000150: 96db f33e 7a11 163e 61a6 683e b5e4 073e
00000160: a0db 8b3e 1532 583e acd5 9fbe 073a bebd
00000170: ee5d 1f3d 583c c1bc 25b1 a2be 0d83 de3c
00000180: d2d1 0dbe 706b a1bd 61a7 22be 2640 debc
00000190: b280 27be 8886 4c3d 3c06 90bd 9888 bcbd
000001a0: e93a b4be 5e9d a2bf f526 d8be 4588 263f
000001b0: f10c 073f a899 953d 1d7a d0bd 5ff1 9abe
000001c0: 5356 10bf f9c5 c6be 1970 a7be 4364 47be
000001d0: 6518 d2bc cf47 b6bd f21f 03be 092a 89bd
000001e0: 5d74 1abf f61a 22bf 87f4 95bf 1b41 06bf
000001f0: 0dfe 64bf 146f 13bf ac5f 44bf a581 10bf
00000200: dfb4 18bf dc8f c2be 18b9 d0be 45eb abbd
00000210: 4a42 fabd 9d53 39be e766 8cbe e98a 5e3d
00000220: 5f6d 06be 43b9 bb3d 5ff5 87ba b0f8 01be
00000230: a467 1f3e 72b5 3abe d140 363d 5597 323e
00000240: 6a03 1fbe 813f 653d bf23 373d 9bca e53d
00000250: 91eb bd3c 3c30 0ebe f94f 3c3e 7914 c8bd
00000260: 3a56 eebd bf8d 0abc c350 dfbd 01ce 04bd
00000270: b775 cdbd 5199 f4bd 4f03 823d 1bad 23be
00000280: 1c2f dc3d c184 f0bd da1a 95bd 45b6 5fbd
00000290: b501 053c 6bcf 863f 40e6 07bf edd5 773f
000002a0: 2de2 90be d787 bdbe 3b34 a0bb ac7b 4fbf
000002b0: 30a9 37bf 4017 8cbf 7316 22be ade5 8abe
000002c0: 75b5 7abe 2569 91be 8958 45be 1803 a0be
000002d0: 8c3e 993e 85c7 a73e b320 c6bc 1e39 583e
000002e0: cb54 093e 2ff2 563e f4dd 6f3e 03b2 013e
000002f0: 8107 e43d be06 5d3e 49bb 343e e175 82bd
00000300: 2153 903d be46 453e 6b5b aabd c9dd 8cbf
00000310: e76b ac3e c6a9 be3e 3852 25bf 0f25 2fbd
00000320: fc3a 803e 154d c4be be07 26bd 9475 833e
00000330: 78b2 87be 6b48 03be 3fc4 6ebe bd75 83be
00000340: 5ad1 96be 1c38 17be b950 d0bd bfc7 313f
00000350: da37 b5bd 2a04 5f3d 836b 3a3e 39dc 583e
00000360: d01c 383e 083f 1f3e 54d1 563e 8dfd 833e
00000370: d637 bb3d 7964 983e c319 463e b3e5 6ebd
00000380: aa63 813e 9976 a43e 663c 37bf 95e8 7a3e
00000390: 898e 0ebe eb67 07bf 8508 acbe d35b a4be
000003a0: 7d33 ddbe 06a3 abbe 4254 523e 031f 8d3e
000003b0: d6b7 a73e 3426 8c3e 8f8f ba3e ae14 453e
000003c0: 6a5f dfbc 7d70 ce3d 1974 91bc d87a e23d
000003d0: 12ac 04be 552f 3abd fae3 873d bd3d 2ebd
000003e0: cb80 54bd 9a66 b73d 3ea0 9dbd 09b6 173d
000003f0: e074 343e 85c4 95bd a955 a2bd 6454 213f
-0.36018288 0.21744294 0.5268944 -0.18205693 0.2669667 0.20670629 0.056039214 -0.01711086
0.20609623 0.06054581 -0.08871164 -0.19781613 0.175218 0.038718753 0.34788895 -0.7188902
-0.008497523 0.1862232 -0.62055045 0.22821493 0.40750787 -0.12984493 0.04755449 0.33793676
0.18395287 0.11267649 0.35452142 0.11241791 0.2636086 0.21182957 -0.58107424 0.9468718
-0.30553517 -0.4369409 0.26929322 0.7310609 -0.20842683 0.30591342 0.7015174 0.2936657
0.24379009 0.50286496 0.45599166 0.35871908 0.3978261 0.015956333 0.023493754 0.023244103
0.02047024 -0.026556294 0.08002972 0.0744544 0.02900599 -3.0725845e-05 -0.014197294 -0.014826596
0.07713915 -0.04508222 -0.10527585 0.12771761 0.07652855 -0.35119545 -0.23091963 -0.19331495
-0.18434428 0.02138624 -0.23076098 -0.19634865 0.040564984 -0.29679337 -0.18870388 -0.22444712
-0.30785203 -0.3667275 -0.15690766 -0.54866385 0.6165693 0.9187987 -0.51544034 -0.11199613
0.44236884 -0.0836657 0.09191213 0.07689497 0.47628468 0.14655104 0.22719719 0.13270839
0.27315998 0.21112855 -0.31217706 -0.092884116 0.038907938 -0.023588344 -0.31775776 0.0271621
-0.13849571 -0.0788182 -0.15884162 -0.027130198 -0.16357687 0.049932986 -0.07032439 -0.09205741
-0.35201195 -1.2704275 -0.42217222 0.6505168 0.5275412 0.07304698 -0.10179541 -0.30262277
-0.5638172 -0.38822916 -0.3270271 -0.1947184 -0.025646398 -0.08900415 -0.12805155 -0.06697471
-0.60333806 -0.6332239 -1.1715249 -0.52443093 -0.8945015 -0.57591367 -0.76708484 -0.5644782
-0.5965099 -0.3800038 -0.40766215 -0.083944835 -0.12219675 -0.18098302 -0.27422258 0.054331694
-0.1312766 0.09166195 -0.0010372809 -0.12692523 0.1556688 -0.18233278 0.044495407 0.17440541
-0.15528646 0.055968765 0.044711825 0.112202846 0.023183616 -0.13885587 0.18389882 -0.0976953
-0.1163754 -0.008456646 -0.10904076 -0.032423023 -0.10032218 -0.11943305 0.06348287 -0.15984003
0.10751173 -0.11744071 -0.07280512 -0.054617185 0.008118083 1.0532049 -0.5308571 0.968108
-0.28297558 -0.370177 -0.004889039 -0.81048083 -0.71742535 -1.0944595 -0.15828876 -0.27128354
-0.24483283 -0.2840053 -0.19272055 -0.3125236 0.29930532 0.3276941 -0.024185514 0.21115538
0.13411252 0.20990823 0.23424512 0.12665562 0.11134244 0.21584603 0.17649569 -0.0637014
0.070471056 0.19265267 -0.08318218 -1.1005183 0.33676073 0.37238902 -0.6457858 -0.04275995
0.25045002 -0.3834006 -0.040534727 0.25675642 -0.26503348 -0.12820594 -0.2331705 -0.25675765
-0.29456598 -0.14767498 -0.101716466 0.69445413 -0.088485435 0.05444733 0.18205075 0.21177758
0.17979741 0.15551388 0.2097829 0.2577938 0.09141509 0.29764155 0.19345765 -0.058324527
0.2527135 0.32121733 -0.71576536 0.24502786 -0.1392156 -0.5289294 -0.3360025 -0.32101306
-0.43203345 -0.33522815 0.20539954 0.27562723 0.32757443 0.27372897 0.36437652 0.1924617
-0.027267177 0.10080049 -0.017755555 0.11058587 -0.12956265 -0.045455296 0.0663528 -0.042539347
-0.05188064 0.089551166 -0.076965794 0.037038837 0.1762271 -0.07312874 -0.07926495 0.63019395

bias f4 [32]
00000000: 2433 8c3d b380 08bd 31bd 583d 6f51 423c
00000010: f447 43bd 0570 acbe 4384 25be 156c f33e
00000020: 7d20 c5bc a0a3 083e d7cc c93d 15f5 a83b
00000030: 9070 98bd abbd 193d 5ef6 bfbd 07c4 43be
00000040: 9be0 8bba ca0e 383e 0ebc b23d 9488 f2bd
00000050: 088c 9d3e 6e27 09bd 30aa b3bc f367 293e
00000060: 5704 823d 6a7b 123e d9a3 043e 890b c6bd
00000070: 9a3f 033d 6048 83bc 79e0 07bc fcea 673e
0.06845692 -0.033325862 0.052914802 0.011860236 -0.04767604 -0.33679214 -0.16163735 0.47543398
-0.024063343 0.13343668 0.09853523 0.005156169 -0.074433446 0.037534397 -0.09373163 -0.19117747
-0.0010671796 0.17974392 0.08727275 -0.118424565 0.30770898 -0.03348487 -0.021931738 0.1654356
0.06348484 0.14304891 0.12953128 -0.09670169 0.032043077 -0.016025722 -0.008293265 0.22648233

weight f4 [64, 32, 3]
00000000: dc23 ab3e cd27 c33e 2239 a53e b151 6cbe
00000010: 16e0 803e 721a 16be 52cd 173f 3197 bb3e
00000020: b004 da3e abc2 bc3d ee2d 47be 7f36 a83e
00000030: 4140 683e cd51 293e 8336 7f3d 4680 9b3d
00000040: 28d6 edbc d3f0 663d 59fd 693e c49e 95be
00000050: 208a b13e d8fa c93d d47b 483d 5d29 5d3e
00000060: d5fe ddbc 467d 973d 01cb cb3b 7c1d f4bd
00000070: 438b 4fbe d7b7 0e3e 5b18 81be 5d54 1c3e
00000080: 91a1 47be 109f 0f3e 4f69 13bf 3ac3 34be
00000090: 82d4 903d 7e5c 55be 226a cbbd 592b 99bb
000000a0: 58bb 6dbd fb0b 8ebe ef88 e6be 4b9b 963d
000000b0: eaea fa3d d489 d4be 5c09 933e 3586 4ebe
000000c0: a9b4 c7bc 8798 4abd 0a61 293e c812 fa3e
000000d0: cc80 07be 4560 863e 7a04 063f a3b9 d63e
000000e0: 2d1d 043f 86c2 b2bc db6a 11be bb54 d43e
000000f0: 0546 2fbe 4ec8 8f3e b142 713e 06b3 a73e
00000100: 35e4 9b3e 2e0a fd3d 4b35 263f 77b9 213f
00000110: 2a50 103f 0622 6d3e 3d0c fbbe 6641 a4bd
00000120: 4250 183d b5c5 0c3e a871 af3e 25d9 393f
00000130: 7e1d e83e 014c d83e 1de0 53be 6a26 743e
00000140: 496b 50be 769a 7c3e 7355 c43c a5b1 29be
00000150: 9aa0 c63e 7824 1e3e 2459 153e 40b9 bb3d
00000160: 6b48 85be 7d03 833c f16a 9b3d fb01 1b3f
00000170: 3170 c43e 02d7 1a3f f6f9 d53e 9f86 a63e
00000180: 621e 1c3e 6d4a f23d a93e 693d 03a0 d2be
00000190: 19f5 1a3c f98a 7dbf f516 47be edaf 4abe
000001a0: 4f92 e83d ff7e 613e 2002 95be 5787 5abe
000001b0: c22c 12bf 2785 7e3e 1b38 173f 31f3 3d3e
000001c0: a141 cbbd c1fd e0be bae1 fa3d 842a e93d
000001d0: 14a0 723c c38f a13d b008 cbbd 516f 05be
000001e0: ab12 593d dfb2 d03c 45ea 56bd 8a37 a23d
000001f0: 7bcb 023f 767f acbd bb4c 7bbe 85d3 e83d
00000200: 3d50 3f3e 4547 ec3e bb09 c83c 11d3 91be
00000210: 3fa5 dd3e 156f f33b a613 cbbe 8411 7a3e
00000220: f241 9fbe 48e6 5bbf 7548 e2be a935 ae3d
00000230: e774 08be c696 dd3e 4867 d13e 99f1 1fbf
00000240: ba4f 7c3e eb7a f639 8fa5 f8be 901e f2bd
00000250: 2c7e 15bb 3abc 95bc 6b05 293e e963 e5be
00000260: 1260 0dbf d074 5b3c 0d6a 34be 3d8d 0abf
00000270: 975b 843d ae67 973e 6c71 eebe 4a16 b5be
00000280: 9383 41be 86a0 cabc 8537 843d 82c3 abbe
00000290: 83e7 65be 6622 a6bd f30f f0be e2d7 16bf
000002a0: 7e65 f7be 8bd5 4fbf b82e f3be 919a 99bd
000002b0: 9159 49bd 0ecf 04be 358f 053d 6e8b 95be
000002c0: 5bf4 63be bc0c 32bd f480 0ebe 1e29 a93d
000002d0: 5bed 25be 9393 4f3e 2b3f 40bc ad4c 44be
000002e0: 017b 28be 10f8 3e3e be66 2fbd 6785 5a3d
000002f0: 549c 8bbe 8407 9ebc 8108 0b3e 4667 393d
00000300: 7774 2cbd f474 fcbd abd5 48bb 9b2a 683c
00000310: 8b88 cd3d d787 e73c ec1b fabe 5bc3 1b3e
00000320: a6d7 023f c8cb e43d 182c d43e cd1b 1abd
00000330: 78bf a03d 9058 d63c 79a5 5f3d 7bab af3d
00000340: fe24 6e3e 4eea babe 9a97 babc aae2 883e
00000350: a3c2 803e 91a0 afba a187 a23e b62a 01bf
00000360: a956 4cbf b427 ddbe 4a03 6f3f a63d 653e
00000370: c17c bdbe 509d 69bd 3239 43bd 565d d93d
00000380: c2e7 a8be d930 bbbb ac9a babc 595a f03d
00000390: ae1f 6abe 3d41 db3d 311e 713e eea6 7b3e
000003a0: f6e2 c53c 5db9 0cbe 47b4 1f3d 440d aabd
000003b0: c66f 0abc 17e1 013d 5e4b 74bd bf56 cc3c
000003c0: 3a15 3abf 00a5 c33d 1c4e c53d 82fe 6fbc
000003d0: 2594 cc3c 868b 16be 20d5 efbd 3bc8 ffbd
000003e0: 87e7 08be 8073 88be 1545 943d 5885 fabd
000003f0: 5a0d ce3e 43d5 a4bf c23e f6be 4160 1fbd
0.33425796 0.38116303 0.3227015 -0.23078038 0.25170964 -0.14658526 0.5929767 0.36638787
0.425817 0.092168175 -0.19451115 0.32854077 0.22680761 0.16535111 0.062307846 0.075928256
-0.029032782 0.05638201 0.2285055 -0.2922269 0.34675694 0.09862298 0.048946217 0.2159781
-0.027099052 0.07396941 0.0062192683 -0.11919686 -0.20267968 0.13937317 -0.25213894 0.15266557
-0.19495226 0.14025521 -0.57582563 -0.17652598 0.07071783 -0.20836064 -0.099323526 -0.004674357
-0.058039993 -0.27743515 -0.45026347 0.073538385 0.122518376 -0.41511405 0.28718078 -0.20168383
-0.024378138 -0.049461868 0.16540924 0.48842454 -0.13232726 0.26245323 0.5235058 0.41938505
0.5160702 -0.021821272 -0.14200918 0.41470894 -0.17116554 0.28082508 0.23560597 0.32753772
0.30447546 0.12355457 0.6492507 0.6317362 0.5637232 0.2315751 -0.49032775 -0.08020286
0.037185915 0.13747294 0.342664 0.7259696 0.45335 0.42245486 -0.20690961 0.23842779
-0.20353426 0.24668297 0.023966527 -0.16571672 0.38794404 0.15443599 0.14584786 0.09166193
-0.26031813 0.015992874 0.07588757 0.60549897 0.38366845 0.60484326 0.41792268 0.32524583
0.15245965 0.11830602 0.056944523 -0.41137704 0.00945785 -0.9904018 -0.19442351 -0.19793673
0.11356031 0.22021101 -0.29103184 -0.2134069 -0.57099545 0.24855481 0.59069985 0.18549801
-0.09924627 -0.439436 0.12250085 0.11385062 0.014808673 0.078887485 -0.099137664 -0.13030745
0.05299632 0.025475917 -0.05246951 0.079207495 0.51091737 -0.08422749 -0.24540989 0.11368469
0.18682952 0.46148124 0.024418702 -0.28481343 0.43290135 0.0074290135 -0.39663428 0.24420744
-0.31105 -0.85898256 -0.44195905 0.085063286 -0.13325845 0.43279094 0.4089911 -0.62478024
0.24639788 0.00047012357 -0.4856381 -0.118222356 -0.00228108 -0.01827823 0.16505973 -0.44802788
-0.55224717 0.0133945495 -0.1761858 -0.5412176 0.06462782 0.2957129 -0.4657091 -0.35368568
-0.18897848 -0.024734747 0.06455902 -0.33547598 -0.22451596 -0.0811203 -0.46887168 -0.5892316
-0.4831962 -0.81185216 -0.4749658 -0.07500184 -0.049157683 -0.1296961 0.032607276 -0.2920794
-0.22261183 -0.043469176 -0.13916379 0.082597956 -0.16203825 0.20271139 -0.01173381 -0.19169874
-0.16453172 0.18649316 -0.042822592 0.05334988 -0.27267706 -0.019290693 0.13577463 0.045264505
-0.042103257 -0.123269945 -0.0030644934 0.014170314 0.10035809 0.028263016 -0.48849428 0.15211241
0.51110303 0.11171681 0.4143989 -0.03762417 0.0784902 0.026165277 0.054601166 0.08577629
0.23256299 -0.36506885 -0.022777367 0.2673543 0.25148496 -0.0013399293 0.31744102 -0.50455797
-0.7981973 -0.43194354 0.93364394 0.22386798 -0.37009242 -0.05703479 -0.047661968 0.106135055
-0.32989317 -0.00571261 -0.022778831 0.117359824 -0.22863647 0.107058026 0.23546673 0.24575397
0.024156075 -0.13742585 0.038990285 -0.083033115 -0.0084495 0.031708803 -0.05964219 0.024943708
-0.7268864 0.095529556 0.09634039 -0.014648082 0.024972985 -0.14701661 -0.11710572 -0.12489363
-0.1336957 -0.2665062 0.07239739 -0.122324646 0.4024456 -1.2877582 -0.48094755 -0.038910154

bias f4 [64]
00000000: 900e debc 5f99 d33c 4c13 ee3d c4ae 6cbd
00000010: 8bcc c03d 92bd c8bc 9f9a 8abd dea3 fe3d
00000020: 7ce3 71bd 62e0 12bd 516c a73c da61 883c
00000030: e7b2 c13a 2f82 95bd 1ad1 493e c7d1 92bc
00000040: 72a0 f1bd 3085 1abc c985 09be 2988 043e
00000050: c637 073e d296 a63d 29cd 8abd 28ce b83d
00000060: 358f 7cbd 43b2 2d3d 3ff3 ed3d 78ef dfbb
00000070: 5b60 b53d 8423 ecbd c39c edbc f3fe c83c
00000080: 04bd 643d ec6b 953c 3ad5 d2bc 0235 84bd
00000090: 7c21 623e 2da5 253e ee61 7c3d cbc1 00bc
000000a0: ad06 243c 652c 8a3d ce39 b33d cbe3 513d
000000b0: 3e2a 8abd a3bc bfbb c27b 81bc 028c 38bc
000000c0: 852e 063e 58d7 7a3d 88b0 033e 0f4b 42bd
000000d0: c2a3 08bc 5ae2 98bb 7576 09bc e357 e13d
000000e0: eab6 6dbd 9bd5 09bd 164e 7d3d 2c2e 093d
000000f0: 0025 5b3d 15dc b3bd d6f9 343d a3b4 d33c
-0.027106553 0.025829969 0.11624774 -0.057783857 0.094140135 -0.024504457 -0.06767773 0.12433599
-0.059054837 -0.03585852 0.020437391 0.016648222 0.0014778048 -0.07300221 0.19708672 -0.017922295
-0.11798181 -0.009431168 -0.13429941 0.12942566 0.1320487 0.081342354 -0.067774124 0.09023696
-0.06166001 0.04240633 0.11618661 -0.006833967 0.08856269 -0.115302116 -0.029005414 0.024535632
0.05584432 0.018239938 -0.02573644 -0.06455423 0.22083086 0.16176291 0.06161683 -0.007858704
0.010011357 0.06746749 0.0875126 0.05124263 -0.06746338 -0.0058513447 -0.015806083 -0.011263849
0.13103683 0.061240524 0.1286031 -0.047434863 -0.008339824 -0.004665655 -0.008390059 0.11003091
-0.05803577 -0.033650976 0.061842047 0.0334913 0.053502083 -0.08782212 0.044183575 0.02584297

weight f4 [128, 64, 3]
00000000: 2e5a a93e e22d 81be 054d bcbe 5711 343f
00000010: 36d4 dabd 0583 5cbb 3682 ecbd 2610 633e
00000020: 5e54 97be f8a6 4abe 6fda 1abd 2874 ba3d
00000030: 5694 31be 970e a1be 8831 5e3e c98e 7f3e
00000040: 96d6 37be 70e8 303e 4ffd 1e3b c0eb 323e
00000050: dbc3 263e b05a 24bd 8671 86be 6cc2 89be
00000060: 1c50 b0be 3bb1 07bf 5b4d f7be 7eb2 0abf
00000070: 1c4f 733e 8556 73be ddcc ec3e 1866 08bf
00000080: 6e69 26be 237f ad3d 1f40 8c3d 0379 32bc
00000090: 8c7c 503e fabc 293e c544 8f3e 79d9 e23e
000000a0: 5e5b a1bf 7ba2 3dbf 88de bbbe 96ec cabe
000000b0: caf2 fcbe 790f d9bd b18b 0abe f023 033d
000000c0: 6d6d 01be ba31 93bd e4a7 4bbc 0dbb 9a3b
000000d0: 9d11 0a3e c3ec 8f3e 2e6a 8f3e e0df 093e
000000e0: 6568 273e ca5a 0f3e 1e48 7d3e 18e7 c03e
000000f0: 562e 00be 4521 37be 09fb a63d 46a1 59be
00000100: d56b a6bd c1f4 dc3e e417 adbb 5ee7 833e
00000110: 4bad 0c3f 5184 a7be fd47 70be 64e4 f2bd
00000120: c03c c0be 3399 e53d 2f3f a4bd 9c81 953e
00000130: eaf2 1a3e a57f e0bd a797 bebe 7c68 3cbe
00000140: 056e 183d 054e 913e 6332 063e 969c b6be
00000150: e4cd 1a3d 73ef a0be 8b0e 89be 61ad 9a3d
00000160: db06 083f 59e4 533d 4441 33be b98f aebd
00000170: acf2 7abe da78 37be a54f 473e 585d a3be
00000180: e626 8fbe 08f4 94be 36b1 8fbe cd73 7dbe
00000190: 7c85 e0bd 8532 48be ad56 803c 4654 86be
000001a0: a9ef 24bf 2a7f 5abf 5b4f f5be a66c d5be
000001b0: fbfd 4bbe 13ec 79be 613a 4c3e 8475 62be
000001c0: 3ee5 ec3d bb41 02bd a97f b9bc 9dc4 23be
000001d0: 6568 65be fb66 d33c a943 223e 9459 403e
000001e0: 025c 8d3d aff1 053d 386d e33c a7b4 b33c
000001f0: 69e0 abbe 13ce b4be b9e5 363e 0381 24bb
00000200: 5af7 07be a8e8 9c3e 7b76 2fbc f2d0 ab3e
00000210: 9de8 34be e589 98be ccde 4a3e 37ce 5a3d
00000220: cb06 18be 379d ddbd 3070 3ebc 01b1 9e3e
00000230: af77 45bf 793f 00be 7d57 6b3b 9c60 7e3d
00000240: 6ebd d3be 4c6b 36bf a669 273e 2df3 c5bd
00000250: 6f8a 99be fa43 a63e 3701 a13e 66a4 493e
00000260: 6d39 333a b790 f8bd d95b 2cbf 805b aabf
00000270: f92d 023e b837 ab3e 61ed 49be e506 383d
00000280: ee10 b03e 9bd9 21be c454 523b 730e cebe
00000290: 5239 cbbe 5a31 de3d aba4 a83e 7fdc fabd
000002a0: dc07 41be fcf9 db3d 03ea bcbe 9292 b9be
000002b0: 7332 7bbe 6691 d0be e884 833e ab56 453e
000002c0: 1ac4 f53e a913 12bf 1aa7 f73d 1966 a5bd
000002d0: b3fc af3e 5610 a9bd 7ad8 203e 9a2b f03d
000002e0: 1ac4 09bd 7ce1 b53e 6066 65be 40df bf3d
000002f0: 8fa2 aa3e a2bb 59bf 97f5 31be 0470 293e
00000300: 6f6d 68be 37ca eabd 7532 84be b329 9b3e
00000310: 38df b63e 1c2e 153e 17bd cdbe a330 69be
00000320: b371 8bbe 8e98 35be 19a9 bbbd ed8a 28be
00000330: 631d fd3c a53f 603d 92a1 63be c90d 9abe
00000340: 304b 183e 9714 993e c537 e2bd fac3 eabd
00000350: ae74 68be 51b1 0fbd 51b7 8e3d ff50 03be
00000360: 0f73 73bf 124c 7fbf 44cc 8bbf 0f61 b1be
00000370: 614c 33be 6db3 02bf 8419 85be bd7c 4cbd
00000380: 035d 5d3c 6b4b 40be ada4 acbd 4ac4 06bd
00000390: 8773 18bf 4386 61be f62c ccbe f43a d93b
000003a0: 2f12 4b3e e9d0 8ebe 1914 f6bd d3c8 3d3e
000003b0: afa7 8b3c e120 65bd d611 943d a300 ddbd
000003c0: babf 2abd 3c74 013c a7e9 76bd b0ab 71be
000003d0: 1244 1fbe c459 0bbf ef63 2d3d a63b 083e
000003e0: cf67 a3bd 7b8c 00be e1bf ab3e 94bc fe3b
000003f0: 49fa 3bbd ad3d 8c3d c51b eebd afcf f1bc
0.33076614 -0.25230318 -0.3677751 0.7033896 -0.10685007 -0.003364743 -0.11548273 0.22174129
-0.29556555 -0.19790256 -0.03780597 0.09104186 -0.17341742 -0.31456444 0.21698582 0.24956812
-0.17952952 0.17276168 0.002425987 0.17472744 0.1628565 -0.04012555 -0.26258487 -0.26906145
-0.3443612 -0.5300481 -0.48301205 -0.5417861 0.23760647 -0.23763473 0.46250048 -0.5328078
-0.16251156 0.08471515 0.06848168 -0.010893109 0.20360011 0.16575995 0.27982154 0.44306543
-1.2606008 -0.7407605 -0.36693215 -0.39633626 -0.49403983 -0.10598654 -0.1352985 0.032016695
-0.12639399 -0.07187219 -0.012430165 0.004722005 0.13483281 0.28110322 0.28010696 0.13464308
0.16348417 0.13999477 0.24734542 0.3767631 -0.12517676 -0.17883785 0.0815335 -0.21252927
-0.08126036 0.43155482 -0.005282389 0.25762457 0.54951924 -0.32718137 -0.23464961 -0.11859968
-0.3754635 0.11210861 -0.08019864 0.29200447 0.15131727 -0.10961846 -0.37225077 -0.18399233
0.037214298 0.28379837 0.13105159 -0.3566634 0.03779401 -0.31432685 -0.26768908 0.07552601
0.5313546 0.05173144 -0.17505366 -0.08523507 -0.24506634 -0.17917195 0.19463976 -0.31907153
-0.27959365 -0.2909243 -0.2806489 -0.24751206 -0.1096296 -0.19550522 0.01566633 -0.2623617
-0.6442819 -0.85350287 -0.47912106 -0.41684455 -0.19921105 -0.24406461 0.19944145 -0.22115141
0.11567162 -0.031800967 -0.02264388 -0.15992971 -0.22403105 0.02580594 0.15846123 0.18784171
0.06902315 0.03270119 0.02776204 0.021936728 -0.3356965 -0.35313472 0.1786107 -0.002510131
-0.13277951 0.30646253 -0.0107094 0.3355785 -0.1766686 -0.29792705 0.19811553 0.053419318
-0.14846341 -0.10821002 -0.011623427 0.30994418 -0.7713575 -0.12524213 0.0035910301 0.062103853
-0.4135546 -0.7125747 0.16348895 -0.09665523 -0.2998843 0.32473737 0.3144624 0.1969162
0.0006836865 -0.12136977 -0.6732765 -1.3309174 0.1271285 0.33440948 -0.19719459 0.04492845
0.34387916 -0.15805666 0.0032093981 -0.402454 -0.3969217 0.10849257 0.32938132 -0.122490875
-0.18850654 0.1074104 -0.36897287 -0.36244637 -0.24530964 -0.4073593 0.25687337 0.19271342
0.48001176 -0.5706125 0.12092419 -0.08076114 0.34372482 -0.08255069 0.1570758 0.11727066
-0.033634283 0.35523593 -0.22402334 0.093687534 0.33327147 -0.8505193 -0.17378841 0.16546637
-0.22697996 -0.11464351 -0.25819746 0.3030525 0.35717177 0.1456837 -0.40183327 -0.2277246
-0.27235183 -0.17733976 -0.09163112 -0.16459246 0.030897802 0.054748196 -0.22229603 -0.30088642
0.14872432 0.2989852 -0.110457934 -0.11463161 -0.2270076 -0.03508121 0.069685586 -0.12823866
-0.9509744 -0.9972545 -1.0921712 -0.34644362 -0.17509605 -0.5105503 -0.2599603 -0.049923647
0.013510945 -0.1877877 -0.08429847 -0.03290204 -0.5955128 -0.22023873 -0.39878052 0.006629342
0.19831155 -0.2789376 -0.12015552 0.1853364 0.017047731 -0.05593956 0.072299644 -0.10791137
-0.04168675 0.007901248 -0.060281422 -0.2360065 -0.1555331 -0.54433846 0.042331632 0.13304004
-0.07978784 -0.12553589 0.3354483 0.007773945 -0.045892987 0.06847701 -0.1162639 -0.029517977

bias f4 [128]
00000000: eb12 86bc fb55 fc3d 58ca 2e3d 9fb9 6c3c
00000010: 2f7b 7f3d 6a65 543d 6982 8dbd be0d 0e3d
00000020: cb8b 073d b675 cd3d c90d 76bc 2d05 c03d
00000030: 325d 2a3d 4fcd a03d 58e3 9d3c b214 873b
00000040: a59f 653d fe69 3bbd 0f18 043d bd65 553d
00000050: fd81 483d b7ac 123d f7b6 c83c a8dc 843c
00000060: 905b 583d 0843 e83d f895 d03d f096 973d
00000070: 3fc9 643d f948 e73c f91d a63c 40ad 0abd
00000080: bdf3 183d 506c 383c 5108 c63d 0948 0ebd
00000090: d3d7 06bc 40df 863d 3ead da3d daac c13c
000000a0: 2c4f 973d 877c 3f3b d1ed 903d 6fec 843d
000000b0: fdfb 3e3d 3209 ae3d 57eb 863c 4645 1e3d
000000c0: 9ca9 023d 3abb 783d f4b5 b93c 2af5 093d
000000d0: bfee 5fbd 4cb1 183e 969c 5e3b 577c 663d
000000e0: 022a 113d e6a0 12bd 0219 983c 8683 2d3d
000000f0: dc56 ad3d 1cc0 98bd 6ff9 353c fbc5 de3c
00000100: 0bb0 0dbd afe8 9a3c bf2f d03d 854c dfbb
00000110: bb1a 6dbd 5be3 e23d 0c9d 283d 1149 fdba
00000120: dae2 873d 79c9 a2bc 9ef9 9f3c 726f 113d
00000130: 8a9c fa3d 97cd 8bbb d5d9 9b3d 1af0 dfbc
00000140: 6252 063d 02d4 14bd fd54 803d 6f27 ff3a
00000150: 6866 e73c 9048 9c3d 604c 15bd 3221 27bd
00000160: 2598 03bd 7697 543d 253e 323d 7cb7 953c
00000170: c673 beb9 3bac 533d 03eb 9d3d c463 1b3c
00000180: e2db 58bd d597 0b3d 36f1 bc3b a87b 8c3d
00000190: 09ff a33d 95e1 a33d 4e1b 3b3c 6bf0 90bb
000001a0: d9c2 81bd ae5f 433d 0b12 6f3d a60b 0d3d
000001b0: fd23 be3d e067 c43d 90e6 0c3c 3db5 b6bc
000001c0: 95df b83c a87a 27bd f8c8 f83d 534b 81bc
000001d0: 3a44 7a3d 68cd e6bc 5547 30bd a524 123d
000001e0: 94a0 f9bc 8e02 853d 9f0a 293d cb77 f8bb
000001f0: 9065 1dbd f840 953d 2563 143d 3efb c8bc
-0.016366443 0.12321087 0.04267344 0.014448552 0.062373336 0.05185453 -0.069096394 0.034681074
0.0330923 0.10032217 -0.015017935 0.09375987 0.041592784 0.078516595 0.019273445 0.00412234
0.056060452 -0.04575538 0.032249507 0.05209898 0.04895209 0.035809245 0.024501307 0.016218498
0.052821696 0.1134091 0.10184854 0.07401836 0.055855986 0.028233038 0.020277964 -0.03385663
0.037341822 0.011256292 0.09669555 -0.034736667 -0.008230167 0.0658555 0.106775746 0.023641992
0.07388148 0.0029218511 0.0707661 0.06490409 0.046627034 0.084978476 0.01646964 0.038640283
0.031900033 0.06072543 0.02266977 0.033681072 -0.054671045 0.14911383 0.0033967844 0.056270923
0.035440452 -0.035797976 0.018566612 0.04236176 0.08463833 -0.07458517 0.011106833 0.027194014
-0.034591716 0.01890978 0.10165357 -0.0068145418 -0.05788682 0.11078521 0.041165397 -0.0019324144
0.066350654 -0.01987146 0.019528206 0.035506673 0.12236889 -0.0042664516 0.076099075 -0.027336169
0.03279341 -0.036335 0.0626621 0.0019466708 0.028247073 0.07631028 -0.03644979 -0.040803142
-0.03212752 0.051902257 0.043516297 0.018275969 -0.00036325882 0.051677924 0.077108406 0.009484235
-0.05294407 0.034080345 0.0057660593 0.06859523 0.080076285 0.08002011 0.011420084 -0.0044231913
-0.06335992 0.04769867 0.058366816 0.034434937 0.09284208 0.09590125 0.008599892 -0.022303218
0.02256755 -0.04088846 0.12147707 -0.015782988 0.061100222 -0.028174117 -0.043036778 0.03567948
-0.030472077 0.06494628 0.041269895 -0.00758264 -0.038426936 0.072877824 0.036227364 -0.024533864

weight f4 [256, 128, 3]
00000000: 4d3e 1b3d 7296 0bbe 2ce3 9cbe 321d f9be
00000010: ee0e c8be 2de2 85be 4389 89be af93 acbe
00000020: 078f 82be fa27 21be bc15 65bd c272 9bba
00000030: 7aed e3bc 3949 27bd f308 30bd ab3c 98be
00000040: b68d f7bd b9c9 82bc ee2c 09be 2407 4cbe
00000050: bd1d b8be 68f5 41bd f403 153e 16fd 253e
00000060: 6f05 07bf 6db7 37bf dadf 13bf 13b1 6e3e
00000070: 21b1 e33d 69ec 4b3e e43c 673e 25f2 6a3e
00000080: 0e1c c13e 745b 59be 2ef5 33be 06f2 29be
00000090: d96e 00bd b8a7 e5bd a665 88bd c17d 263e
000000a0: 8a43 203e 7a5c 773e 8260 99bc d67f 5dbe
000000b0: 0640 22be 1316 1a3e d29f 703d f82f 5dbd
000000c0: c5a0 e1bd 2052 8dbd 2b34 a9be 88c5 86be
000000d0: d5d0 3fbe 3816 99be 6793 453e 746a f53d
000000e0: 81b9 df3d 26ce 433d 4d25 c4bd 1773 f4bc
000000f0: 4aad 5a3e a88d 403e 3320 413e 0055 bdbd
00000100: 0272 d23b d485 423d 09aa 88be 9245 86be
00000110: eb59 b5be 47db 1fbe 6e18 78bc 9c1a d8bd
00000120: 10dd b43d 9e41 dc3d 4d9b 1c3b 1fc3 513c
00000130: 465c 66be 67bd 95bb 6b25 3c3e bf10 4c3d
00000140: dc1c ae3d 6897 8d3c d12f 7d3d 42b3 083e
00000150: b1e0 b9be d27b 8bbe 69b5 19be d7cb fdbe
00000160: 2574 cfbe 5660 0fbf 167b 313e fb38 803e
00000170: 6ad6 5c3e bac7 aebe 7323 d1be 1186 8fbe
00000180: df3e 3fbf 2087 26bf b3a8 05bf 910e 7ebe
00000190: f438 93be 3a81 86be 264d 0f3f 1c01 213f
000001a0: 8763 103f 9934 e33c 6327 b03d 1dbf 843d
000001b0: 0974 253d 61d7 003d 087e 3dbe 22f9 c0bd
000001c0: 911e 163c c854 9b3d 441c 8fbe 6f74 88be
000001d0: 3899 86be b07a 11be f5c5 6fbe 0099 07be
000001e0: a2ca fd3e 5453 cc3e 34cc b43e ece6 e4bd
000001f0: f528 5ebe 5594 76be f732 613c fa24 a1bc
00000200: 2cff 05be 675e 993e 2911 883e a172 e73e
00000210: b93e 24be 1b38 97be ffe4 72be 8b82 86be
00000220: 485a 0bbe 908c e83c 21ff babe 8db0 73be
00000230: 3e7e 79be c94a d8be e0bf 88be a0bc 5bbe
00000240: 7b89 123e cc0b d63d 756e 683d f88c 093f
00000250: 6f98 873e 0dee ab3e 9769 da3d 8a42 163e
00000260: 8407 163e 4096 ab3e 9add ac3e c904 973e
00000270: 7612 93bd 316b 1cbd 411d b7bd e1c8 443e
00000280: fffa 803e 15ed 8e3e eefe 55bd 2363 00bd
00000290: c566 1cbd 407a c8bc 74c8 da3d d8aa f23c
000002a0: 8ed7 6cbe 9205 94be be03 4dbe 4a7b 353e
000002b0: d954 163e f943 e13d f0e7 84bd 343c 50be
000002c0: c6c7 9dbe 8c83 723e 6f2a 573e bfc9 8e3e
000002d0: 2cb4 b7be 7688 7bbe 6d59 aabe 8dbc 963e
000002e0: b9c7 ca3e 7c1e 9e3e 44be 463e cd69 863e
000002f0: e81c 723e 62d1 e8be f7f8 aabe ecf6 49be
00000300: ae11 29bf 8134 48bf 6625 37bf 6de9 7c3d
00000310: 76ac 163e 0be8 913d b8b7 a5be 7df9 2bbe
00000320: 7de7 f0bd 8517 cd3e 8f34 c53e 5934 b93e
00000330: 2b46 373e 3d3c 533e e5ee ae3e cb94 743e
00000340: 5926 333e 4dcc 0e3d a2b4 a3be 2d8e 84be
00000350: 8b9d 4bbe 4965 0c3f 0b4f fa3e f980 183f
00000360: 7bd8 86be 4bc1 c8be a85f a5be f6ea 1d3e
00000370: 7ed4 eb3d e920 21bd 1f9c 1f3c f822 02bc
00000380: 2a08 4d3d e0c9 38be e1e6 edbd 21ac b7be
00000390: e3f9 c3be f9e0 b1be f179 b7be 0912 2c3d
000003a0: 1efb 243e 055b 4c3e e044 39bf 15bf 01bf
000003b0: 3f43 edbe 8f65 f13d 5474 863c 6c6f 56be
000003c0: cef1 2dbe d134 83be 4dfa e7be 3275 cf3e
000003d0: 9029 cb3e cb3a e23e e75b 0cbf 5667 0fbf
000003e0: c5b9 06bf ac15 273e 32ab 113e 94f8 653e
000003f0: 71e5 273f d626 223f fb73 353f c5bb c93d
0.03790121 -0.13631609 -0.30642068 -0.48655087 -0.3907389 -0.2614912 -0.26862535 -0.33706424
-0.25499746 -0.15737906 -0.05592893 -0.0011859762 -0.027823199 -0.040841315 -0.042977285 -0.29733786
-0.12087576 -0.01596533 -0.13396046 -0.19924599 -0.35960189 -0.04735318 0.14552289 0.16209826
-0.52742666 -0.7176426 -0.57763445 0.23309736 0.11117769 0.19914402 0.22581822 0.22943933
0.37716717 -0.21226293 -0.17573997 -0.16596231 -0.031355713 -0.112136304 -0.06660013 0.16258909
0.15650764 0.24156371 -0.018722776 -0.21630797 -0.15844736 0.15047483 0.058746167 -0.054000825
-0.110169925 -0.0690043 -0.33047614 -0.2632258 -0.18732007 -0.29899764 0.19294511 0.11983195
0.10924054 0.04780402 -0.09577427 -0.029840035 0.21355167 0.18804038 0.1885994 -0.09244728
0.006422282 0.04749091 -0.26692227 -0.26224953 -0.35420164 -0.15610991 -0.015142543 -0.1055195
0.08831227 0.10754703 0.0023896277 0.012802868 -0.22496137 -0.0045696977 0.18373649 0.049820658
0.08501598 0.01728411 0.06181318 0.13349631 -0.36304238 -0.27242905 -0.15010609 -0.4956958
-0.405183 -0.5600637 0.1733211 0.25043473 0.21566167 -0.34136754 -0.40847358 -0.28031972
-0.7470531 -0.65049934 -0.5221054 -0.24810244 -0.2875439 -0.26270467 0.55977094 0.6289232
0.56401867 0.027735041 0.086012624 0.064817645 0.040393863 0.0314554 -0.18505108 -0.09422518
0.009162561 0.0758453 -0.27951252 -0.26651332 -0.26288772 -0.14206958 -0.23415358 -0.13241959
0.4956866 0.39907324 0.35312045 -0.11176857 -0.21695311 -0.24080022 0.013745061 -0.019670952
-0.13085622 0.29954836 0.26575592 0.45204642 -0.16039552 -0.29534993 -0.23720168 -0.2627147
-0.13608658 0.028387338 -0.36522773 -0.23797818 -0.24364564 -0.42244557 -0.2670889 -0.21458673
0.14310257 0.10451469 0.056745965 0.53730726 0.26483485 0.33580056 0.10664671 0.1467382
0.14651304 0.3351307 0.3376282 0.29495838 -0.071812555 -0.038188163 -0.089411266 0.19217254
0.25191495 0.27915254 -0.052245073 -0.031344544 -0.038183946 -0.024472356 0.10682765 0.02962248
-0.23129103 -0.289105 -0.20020959 0.17722812 0.14680804 0.10999293 -0.06489551 -0.20335466
-0.30816478 0.23682994 0.21012281 0.27888295 -0.35879648 -0.24563774 -0.3327135 0.29440728
0.396055 0.30882633 0.19408518 0.26252595 0.2364384 -0.45472246 -0.3339307 -0.197231
-0.660426 -0.78205115 -0.7154144 0.06174605 0.14714226 0.07124337 -0.3236673 -0.16794391
-0.11762903 0.40057006 0.38516662 0.3617275 0.1789786 0.20628448 0.34166637 0.23884885
0.17495097 0.034862805 -0.3197375 -0.25889722 -0.19884317 0.5484205 0.4888843 0.59571797
-0.26337036 -0.3920997 -0.32299542 0.15421662 0.11515139 -0.039338026 0.009741812 -0.0079429075
0.050056614 -0.18045759 -0.11616302 -0.3587351 -0.38276586 -0.34741953 -0.3583522 0.042009387
0.16111419 0.19956596 -0.7237072 -0.50682193 -0.46340367 0.11786949 0.016412891 -0.20940942
-0.16986772 -0.25626233 -0.45308152 0.405191 0.39680147 0.4418548 -0.5482773 -0.56017053
-0.5262721 0.16316861 0.14225462 0.22458106 0.65584475 0.6334051 0.708801 0.09850267

bias f4 [256]
00000000: c9b6 3f3c cc2a 1f3d cb36 9e3d 4230 313d
00000010: 43c2 8d3b 8c4c 93bc 79bd 28bc 54bf 813c
00000020: 63f2 683c db1b 113d bf0f 773b d967 73bc
00000030: f610 563d ca67 d7bb e64c 1ebd 4816 c53c
00000040: c25c 5e3b f4bb 8bbc 881e 613d 662c 1abd
00000050: e624 123d ce4d 61bd 422e a83c efcb e83b
00000060: 65bf 653d d65f da3a b82b 4b3d a96c 9dbc
00000070: 5ada 2f3d 5428 c93b 28a6 633d 2d49 21bd
00000080: 635c bebc cbf3 3bbc 9b28 a4bc 907c 27bc
00000090: bb2f 233d e265 39bb 7ac9 09bd 4e59 67bc
000000a0: 9f3f 473d 5f5f 83bc 921e 6d3c 4f98 99bc
000000b0: 84b1 ba3c 8a5f 633d b545 cdbb 56ad 063c
000000c0: 0095 dcbb 4f3f 3a3d cce4 02bd 51e1 8e3d
000000d0: db5d c7bb 9ac6 a13c f563 d13b 5ee1 b93c
000000e0: 3e63 5d3b e6a1 2b3c 1872 75bc 2458 e53c
000000f0: d028 263c e6e9 8c3c 6415 2bbd dbe0 f4ba
00000100: a030 2abd 7207 323d b808 1fbd 907f 0e3d
00000110: b2e6 07bc 13c9 ab3c b7b7 bc3b 6a96 f63c
00000120: 5e2f 1f3d a3b5 3b3d 1bef 8fbc 406d 143c
00000130: 6e8f 33bd c842 72bb 7043 20bd 4a7b eabc
00000140: 3cee 623d 8b8c b6bc 89f9 253d ce53 7f3d
00000150: 5b22 0ebc 7292 fdbc 1250 6a3d 5643 823c
00000160: b8d1 873c f554 0f3d 770b 263d 0a8b 8b3c
00000170: 2987 823c d688 133d 8784 1cbd efbd 4e3d
00000180: 0b57 d5bc e91e 603d b69e 41bd cb62 913c
00000190: a247 62bb 8368 333c 3e34 463d 610a 6a3c
000001a0: a406 1c3d 7173 503d f1cb 523b 3986 1dbc
000001b0: c40f 803b 5adb 233d 1dff ec3c 60e5 73bb
000001c0: aada e23c c8fc 933c 0bc4 353d 1788 debc
000001d0: 2a96 543d eee6 03bd da36 5e3c b852 993c
000001e0: 2025 2e3d af7e 683c 3adf 1f3d c56e 0a3d
000001f0: f661 e7bb 7250 f6bc 2cbf 553d 8bc0 b73c
00000200: 7aa3 803d b0bc 8e3b f056 c03c 5771 89bc
00000210: f250 143c 92da 233b fffe 393d e17f 493c
00000220: 8ce1 10bd bd3b 81bb 775c 933c daf9 b83c
00000230: c86e 313c d40c ce3c cfc1 ac3c 01ba 823d
00000240: 1e3d 75bc 6c90 12bc f7ac 873c 3d9c 4cbd
00000250: 9ccf 84bc ce7c 453d cf14 5ebc 160b 0c3d
00000260: f36b e13c 53a1 94bc bd30 08bd 4b2e dabc
00000270: 1ab5 a63c 551f 753c 14bb 43bc e646 2e3d
00000280: fec9 9c3c 23a4 f23c 44d4 2e3c 1132 19bd
00000290: f34b 4dbc a9dc 433d 4e6f 8f3d 89eb 073d
000002a0: 308a 5dbd bf4c ccbc dd57 8f3c d91e d3bc
000002b0: b2b2 393d faf8 8a3d 4c5b 02bc 5f61 8fbb
000002c0: 6880 033c e19d 193d a0d6 9fbc e020 ef3c
000002d0: 0031 3d3d cb4b 583d d2a8 13bd f239 edbc
000002e0: 9be2 113d 7bb8 c5bc 33b0 de3b cda1 043d
000002f0: ae75 063d 50e2 d33c 218e cd3c 8415 163d
00000300: aa05 403d 5b75 173c 4fa6 403d 2ef2 693d
00000310: c11a d4bc f9bf fcbc 8ed3 2f3b 09b0 95bc
00000320: 58af 20bd 91b9 c9bc 7401 483d f0d6 2cbc
00000330: b769 29bc 1fc1 6f3d 0428 853c 04b7 14bd
00000340: 0836 4e3c 1d6a 10bd 540b c73c 322a 283d
00000350: 5c9f 683d 1f63 2ebd 67a3 663c d455 dcbc
00000360: 7217 533d 8bb7 093d 4aab dd3c 1f8a fcbc
00000370: 8b8c f0bc 7d95 053d 610c 7d3d bf0e fa3c
00000380: 5eea 31bc f7a0 1a3c 5ac5 3b3d 1677 2b3d
00000390: d018 a63c 8584 903a 5f42 40bb fefe 613d
000003a0: f63b 2a3d 732b 46bd ce8e 743d ce71 373d
000003b0: 9aa2 9cb8 6f04 623d 11f8 e23b 7447 95bc
000003c0: fcab 4f3d 5e3f 673d eccf 18bd 7d55 ba3c
000003d0: 4576 9bbb e68c 8e3b c06a c0bb 0b60 af3c
000003e0: 10f6 bb3c b977 0f3c 106f 2c3d 0033 93bc
000003f0: 6d6c 3f3c 278f df3b f463 13bd fec3 843c
0.011701294 0.038859174 0.07725295 0.043258913 0.0043261363 -0.017980836 -0.01029908 0.015838303
0.014217946 0.035426956 0.0037698594 -0.014856302 0.05226227 -0.006573652 -0.038647555 0.024058476
0.00339298 -0.017057396 0.054960757 -0.037639998 0.03567972 -0.05500584 0.02052987 0.007104389
0.05609073 0.0016660641 0.04960224 -0.019216852 0.042932846 0.0061388407 0.05557838 -0.039376426
-0.023237413 -0.011471699 -0.020038893 -0.010222569 0.03984044 -0.0028289487 -0.03363941 -0.014120413
0.04864466 -0.016036687 0.014472621 -0.018749384 0.022789724 0.055511035 -0.0062644132 0.008220037
-0.0067316294 0.045470532 -0.03195648 0.069765694 -0.0060841865 0.01974802 0.0063900896 0.022690471
0.0033781077 0.010475611 -0.014980815 0.02799613 0.010141566 0.017201375 -0.041768447 -0.0018682735
-0.04155028 0.04346413 -0.038826674 0.03478962 -0.008294748 0.020969903 0.005759205 0.03010102
0.038863532 0.04582752 -0.017570069 0.00905925 -0.043837957 -0.0036966074 -0.039126813 -0.028623242
0.05540298 -0.022283813 0.04052118 0.06233578 -0.008675183 -0.03095362 0.057205267 0.015901249
0.016579494 0.03499313 0.040538277 0.017034072 0.01593359 0.03601917 -0.038212325 0.050474104
-0.026042482 0.05471698 -0.0472705 0.017747303 -0.003452756 0.0109502105 0.048389666 0.014284701
0.03809227 0.050891344 0.0032165016 -0.009614521 0.0039081294 0.04000411 0.028930241 -0.0037215576
0.027692158 0.018064871 0.044376414 -0.027164502 0.05190102 -0.032202654 0.013562882 0.018716201
0.042515874 0.01419036 0.039031245 0.033797044 -0.0070612384 -0.030067656 0.05218427 0.022430679
0.06281181 0.0043559894 0.023478955 -0.016777677 0.009052502 0.0025002104 0.0454092 0.012298555
-0.03537135 -0.003943889 0.017988427 0.022580076 0.010829635 0.025152601 0.021088509 0.06383134
-0.014968185 -0.008945566 0.016561968 -0.049953688 -0.016212277 0.048214726 -0.013554766 0.03419026
0.027517295 -0.018143332 -0.033249605 -0.026633402 0.020350028 0.014961083 -0.011946458 0.042548083
0.019139286 0.029619282 0.010670725 -0.037401263 -0.012530315 0.04781786 0.070036516 0.03318361
-0.054086864 -0.02493894 0.017497951 -0.025771545 0.045336433 0.0678577 -0.007956337 -0.004375621
0.00802622 0.03750408 -0.01951152 0.02919048 0.04618931 0.052806657 -0.03604967 -0.028958295
0.0356165 -0.024135819 0.006795907 0.032380868 0.03282707 0.02586475 0.025092186 0.036641613
0.0468804 0.009244288 0.047033604 0.057115726 -0.025891664 -0.030853258 0.0026828977 -0.018272417
-0.03922972 -0.024624618 0.04882951 -0.010549292 -0.010340146 0.058533784 0.016254432 -0.03630735
0.012586124 -0.035257448 0.024297394 0.041055866 0.056792602 -0.042574998 0.014077044 -0.026896395
0.05153603 0.033622306 0.027059216 -0.03082758 -0.029363891 0.032613266 0.061779384 0.03052461
-0.0108591 0.009437791 0.045842506 0.041861616 0.020275503 0.0011025822 -0.0029336435 0.05517482
0.04156109 -0.04838128 0.0597065 0.044786267 -7.4689466e-05 0.05518001 0.0069265445 -0.018222548
0.050701126 0.056456916 -0.037307665 0.022745842 -0.0047443234 0.0043502925 -0.0058721006 0.021408102
0.02294448 0.008756571 0.042098105 -0.017968655 0.011683566 0.006822485 -0.035983995 0.016206738

weight f4 [32]
00000000: c420 2c3f d0c3 d43f 785e 6b3f 0654 3e3f
00000010: fad3 bc3f 0816 8a3f 982c 9a3f bf76 833f
00000020: 64a1 d93f 7f33 813f bd42 4a3f e082 4b3f
00000030: 6b2c 573f 9fc2 703f 62a6 8c3f 71ff 5d3f
00000040: 0cfe aa3f 273b ff3f cc02 013f 327e 5a3f
00000050: c66b 9f3f 9167 333f 27ac 3b3f 6d80 4c3f
00000060: e51c 5e3f d183 4e3f 90ae 743f 63cc 953f
00000070: 5f16 903f 6819 543f 7d27 833f 490a 483f
0.67237496 1.6622257 0.9194102 0.7434696 1.475219 1.0787973 1.2044859 1.0270613
1.7002378 1.009384 0.79008085 0.79496574 0.8405215 0.9404697 1.0988276 0.867179
1.3358779 1.9939927 0.5039489 0.8534881 1.2454765 0.70079905 0.7330956 0.7988346
0.8676284 0.80669886 0.9557886 1.1702999 1.1256827 0.82851267 1.0246426 0.78140694

bias f4 [32]
00000000: d89e 243d d5f4 153f 462d 87bd 208c bebc
00000010: b693 073f 6a36 903e 0065 cebd 0d3e 57be
00000020: e065 dd3e bdc7 b03c 7907 4a3e ba7c b03e
00000030: 62cb b43e bd9e ca3e cc0d a23e 6950 9a3e
00000040: 4a83 783e e8a1 de3e 4ab4 95be d57b 703e
00000050: c706 fdbd 0b29 61bd b634 68be 7019 c5bc
00000060: 427c 553e 9c08 af3e 4d3f 95bd 66bb 573e
00000070: 0bfc cc3e 060c 3f3e d603 abbd 7315 eebe
0.040190548 0.5857671 -0.06600432 -0.023260176 0.52959764 0.28166515 -0.10077858 -0.21019764
0.43241787 0.021579618 0.19729413 0.3447016 0.3531142 0.39574233 0.3165115 0.30139473
0.24268833 0.434829 -0.29239112 0.23484738 -0.12354808 -0.054970782 -0.22676358 -0.024059981
0.20848182 0.34186256 -0.07287464 0.2106758 0.40036044 0.1865693 -0.08350341 -0.4650074

running_mean f4 [32]
00000000: 622c 213e 9488 65bd e8c0 323c d3ac 193d
00000010: cf2d b3bd 6fa1 e6be c358 30be d7e6 033f
00000020: 6818 84be 0450 273e b252 e23b 149c 4f3d
00000030: 316e 06be 7e98 523d ba8b cfbd e1cb 63be
00000040: f011 b8bd d807 2c3e 0691 a93b a5c5 32be
00000050: 65e5 963e 5ff5 013b 3757 ac3d 16f7 183e
00000060: 1703 8e3d ba69 4e3e 3566 cc3d 8a5c aabd
00000070: 033f ba3c ae68 25bb 2c97 20bd 8e05 7d3e
0.15739587 -0.056038454 0.01091025 0.037518334 -0.08748972 -0.4504504 -0.1722136 0.5152411
-0.2579987 0.16339117 0.0069068307 0.050685957 -0.13127972 0.05141496 -0.101340726 -0.22245742
-0.08987796 0.16799867 0.005174759 -0.17458208 0.2947189 0.001983009 0.084150724 0.14938006
0.06934183 0.20157519 0.09980432 -0.08318432 0.022735124 -0.0025239396 -0.03920667 0.2470915

running_var f4 [32]
00000000: 0524 823f 930d eb3f 338e c93f f255 0b40
00000010: 3658 1540 92ee 5b40 7289 953f fbbc df3f
00000020: 99bc 0441 d591 d13f 5ef6 8440 ce28 aa3f
00000030: afab 2f3f a220 8b3f 8b1e ee3f 8531 483f
00000040: 9007 b73f 9b8e c53f e95c 0e40 f8a9 5440
00000050: 0300 833f 0742 483f d20d eb3f 2580 893f
00000060: add9 6f3f 10d9 fd3f 7c4f 963f a976 1a40
00000070: 31d1 713f 22fe 923f 1fbe bb3f f575 1b40
1.0167242 1.8363518 1.5746521 2.1771207 2.333509 3.4364362 1.168257 1.7479547
8.296044 1.637263 4.155074 1.3293703 0.68621343 1.0869334 1.8603071 0.7820056
1.4299183 1.5434145 2.2244208 3.322874 1.0234379 0.7822575 1.8363593 1.0742232
0.9369152 1.9831867 1.1743007 2.4134924 0.94459826 1.1483805 1.4667395 2.4290745

weight f4 [64]
00000000: f002 553f 7c4d a63f 4de1 a33f ed8c 833f
00000010: a7e4 a33f 1267 603f c1fe 3d3f 31ce 6c3f
00000020: b352 6d3f 7987 173f 9c70 b73f 7e91 313f
00000030: 1a41 8c3f 4b47 973f a506 a43f fc5f 083f
00000040: e0e2 8c3f 5bd8 763f b3a9 eb3f 9ce2 873f
00000050: b15c 793f bb54 5b3f b8cf b83f 6400 643f
00000060: fae0 533f e082 5a3f 2d3d 973f 961f 513f
00000070: 319d 553f 8c70 a33f d4af a73f 1df4 613f
00000080: af5d 713f 3346 363f 4a6c bf3f c677 443f
00000090: d7a2 9b3f 0e71 743f 0c1c cb3f 6c25 4e3f
000000a0: 3200 c73f ab14 fa3f a04a 843f b5c9 2b3f
000000b0: 2865 5d3f 76b4 6f3f 06db 8d3f b182 543f
000000c0: 4cf6 8d3f 32bf ac3f c743 333f 1d4b e33f
000000d0: e47b bb3f e570 9f3f 869b a13f d2e6 713f
000000e0: 952f 5c3f 857e 733f da33 9c3f c78f 873f
000000f0: b9eb a63f 4444 773f 0b4b 753f 51ce 853f
0.8320761 1.2992396 1.2803131 1.0277382 1.2804154 0.8765727 0.7421685 0.92502123
0.92704314 0.5919109 1.4331241 0.6936263 1.0957367 1.1818632 1.2814528 0.5327146
1.1006737 0.9642388 1.8411163 1.0616031 0.9740706 0.85676163 1.4438391 0.89063096
0.8276516 0.8535595 1.1815544 0.8168882 0.8344298 1.2768722 1.3100533 0.8826311
0.94283575 0.71200866 1.4954922 0.7674526 1.215907 0.9548501 1.5867934 0.8052585
1.5546935 1.9537557 1.0335274 0.67104656 0.8648248 0.93634737 1.1082466 0.8301192
1.1090789 1.3495848 0.70025295 1.7757298 1.4647183 1.2456328 1.2625587 0.9449283
0.86010104 0.9511493 1.2203324 1.0590752 1.3040687 0.9658854 0.9581763 1.0453588

bias f4 [64]
00000000: 236a acbe 5223 50be 4ce9 37be 397e 07bd
00000010: b0a6 b8bd 4ac9 98be 0fcd 79be ff35 59be
00000020: e861 22be aaae 73bd 2061 3cbe eb78 9cbe
00000030: a069 a3be 8a64 58be a110 8fbe 6819 88be
00000040: 6f30 f4bd 20bb 1abe 5d6e c3bc be3a 0abe
00000050: d600 b3bd fac2 5ebe 5e58 a7bd 5f97 15be
00000060: 9150 72bd bbe4 c9be 04a0 05be 880a 76be
00000070: 5a8f efbe 46b5 86be 6b81 cbbe ed41 2dbd
00000080: a57f a9be 750b 91be e58a a9be aa16 91be
00000090: e539 e3be d788 7cbe 9ac9 22be 5b64 a8be
000000a0: a268 6fbe a0b0 e8be 170f 0dbe 1d6e a4be
000000b0: 3ecc 65be 648f 5abe 3272 1fbe 9bfb 1abf
000000c0: 42b3 09be d2f4 b0be 3a94 04be 6589 efbd
000000d0: a410 843d dfd8 e4bd 1a61 89be 2011 1abe
000000e0: b263 ccbe 1f89 92be 9ec9 dabe 97cf 25be
000000f0: 9098 87be 2b62 99be 3f00 913d 40e7 76be
-0.33674726 -0.20325974 -0.1796009 -0.03307936 -0.09016168 -0.2984107 -0.2439463 -0.21212004
-0.15857661 -0.059492745 -0.18396425 -0.30561003 -0.31916523 -0.21132103 -0.27942374 -0.26581883
-0.119233005 -0.15110445 -0.023856336 -0.13498971 -0.08740394 -0.21754065 -0.081711516 -0.14608525
-0.059158865 -0.3943232 -0.13049322 -0.24027455 -0.46789056 -0.26310176 -0.39747176 -0.0422992
-0.33105198 -0.28329054 -0.3311378 -0.28337604 -0.44380108 -0.24661575 -0.15897217 -0.32889065
-0.23379758 -0.45447254 -0.13775288 -0.3211526 -0.22441193 -0.21343762 -0.15570906 -0.6054017
-0.13447288 -0.34561783 -0.12947169 -0.11696128 0.064484864 -0.111741774 -0.26831895 -0.15045595
-0.3991981 -0.2862024 -0.42731947 -0.1619247 -0.26483583 -0.2995771 0.07080125 -0.24111652

running_mean f4 [64]
00000000: e4ad 4f40 ff55 62c0 a029 63bf 6b02 a3c0
00000010: 44ec bec0 30ed 89c0 f584 d4bf 77bb 83c0
00000020: 078c 31bf 145a eebf d876 28c0 cef0 babf
00000030: e48a debf 4ca5 4fc0 5348 07bf a0fc 5b40
00000040: 8fa8 eabe 3c40 a6c0 54f7 a5c0 dc3f a6bf
00000050: 59a8 01c0 e6be 48c0 e3d6 abc0 bf09 72c0
00000060: e363 4a40 f8b5 d0be f71e 01c0 6550 5bbf
00000070: bde0 143f 03e3 b2c0 75d1 31c0 68c2 98c0
00000080: b54a 79c0 f78b 183f 8988 cabf 5148 d23f
00000090: 2fb7 21c0 5877 28c0 c852 64c0 f744 7abf
000000a0: ff40 8ec0 fbf0 f3bf 96f6 03c0 52f1 0040
000000b0: 50b6 3d40 be3d 52bf fa9b 23c0 5376 12c0
000000c0: af2a b6c0 e35a 8dc0 1d82 50c0 fd80 37c0
000000d0: 960b 54c0 5661 b7c0 9fad 72c0 245d f7bf
000000e0: a55f b23e fa3e 16c0 f3da 6fc0 a344 55c0
000000f0: d22b e2bf 5e98 89c0 9d32 eac0 87f5 bfc0
3.2449884 -3.5364988 -0.8873539 -5.094045 -5.966341 -4.3102036 -1.6603075 -4.116634
-0.6935429 -1.862124 -2.6322536 -1.4604738 -1.7386136 -3.244464 -0.52844733 3.437294
-0.45831725 -5.195341 -5.1864414 -1.2988238 -2.0259001 -3.1366515 -5.3699813 -3.7818449
3.1623466 -0.4076383 -2.017515 -0.8566955 0.58155423 -5.5902114 -2.7784092 -4.773731
-3.8951848 0.5958857 -1.5822917 1.6428319 -2.5268056 -2.6322842 -3.5675526 -0.9776148
-4.445434 -1.9057916 -2.0619254 2.014729 2.9642525 -0.8212546 -2.556395 -2.288472
-5.6927104 -4.4173446 -3.2579415 -2.8672478 -3.3132071 -5.730632 -3.791847 -1.9325299
0.34838596 -2.3475938 -3.7477386 -3.3323143 -1.7669623 -4.2998495 -7.3186784 -5.9987216

running_var f4 [64]
00000000: 2bdd 1f41 adb6 1d41 8ba3 5c41 89b9 ad41
00000010: c277 0442 573b 8f41 5c40 8041 b184 8341
00000020: 8f3c 8741 586b 2f41 7347 3441 2591 3f41
00000030: 8605 dd40 7dc8 4341 2d86 c240 ba1e 1c41
00000040: aa86 0841 a7dc bb41 d294 f841 0091 1541
00000050: d8a1 6541 0434 5b41 0241 d141 7e9b 6341
00000060: bbc3 5541 5d53 4141 684a 5541 77bb dc40
00000070: f81e 1c41 5feb b241 3f07 1441 0e05 4841
00000080: 97f5 3c41 649c a840 cae2 7a41 a427 3941
00000090: 6ae9 3341 2466 0341 f3c3 8941 dcb8 0341
000000a0: 4537 cd41 b0bb c441 51f0 8941 837e 3441
000000b0: a881 2041 d633 4e41 0e15 3741 06bd 4e41
000000c0: 697b b541 050a a541 3312 3841 93ed 3b41
000000d0: 28ac 4841 4d6a a541 ea15 1f41 5cd3 1241
000000e0: 4972 1141 3075 0d41 d5b0 1541 ba23 9a41
000000f0: ba38 0741 58d9 c141 a179 8e41 fd50 5a41
9.991496 9.857099 13.7899275 21.715593 33.11695 17.903975 16.031425 16.43979
16.90457 10.963707 11.267444 11.972936 6.9069242 12.236447 6.078879 9.757502
8.532877 23.48274 31.072666 9.3479 14.352013 13.700199 26.156742 14.225462
13.360286 12.082852 13.330666 6.897884 9.757561 22.364927 9.251769 12.501234
11.809958 5.2690907 15.680368 11.572178 11.244486 8.212437 17.220678 8.232632
25.651987 24.591644 17.242342 11.280887 10.031654 12.887655 11.44264 12.921148
22.685259 20.629892 11.504443 11.7455015 12.54203 20.676905 9.94285 9.176601
9.090402 8.84111 9.355672 19.267445 8.451349 24.231125 17.80939 13.644773

weight f4 [128]
00000000: 8edf 7a3f 6053 713f 922f 1c3f 7983 3e3f
00000010: 891e 7e3f dd83 853f 2dbe a03f 2aee 4a3f
00000020: 9290 6b3f 2534 ac3f 03ec 803f 410a 293f
00000030: 456e 6f3f 5ef4 903f 22cc 7b3f aedd 6c3f
00000040: 2325 673f 3469 183f 5932 1d3f 2560 7f3f
00000050: b260 8c3f 71e5 783f cece 8a3f 1ec2 8e3f
00000060: 994b 623f 95ea 7f3f 4d6d 953f 6896 7c3f
00000070: fb31 943f 82c8 893f 56b2 3e3f 11cd 873f
00000080: a422 0c3f 4f1c 923f 995d 823f 3c08 673f
00000090: d678 893f 14ca 0f3f ecf9 4a3f f5ce 803f
000000a0: ec66 603f 2355 7b3f 3914 2e3f d1aa 4d3f
000000b0: 44aa 823f 8e7b 663f d92a 8b3f 02e6 613f
000000c0: cf9f 823f 27ff 893f 641b 513f 4198 613f
000000d0: 16a3 413f 4730 513f cc45 5d3f 68b1 813f
000000e0: 0796 873f a870 893f 2d07 5d3f e4ef 4f3f
000000f0: 61db 983f b8e5 a83f fb9d a23f add5 973f
00000100: 2ecb a23f f39d 1f3f 7b73 4b3f 9a10 5a3f
00000110: 0fa2 803f df8d 733f 6ab8 7e3f a880 563f
00000120: d760 7a3f e6db 873f e19c 503f 9c63 853f
00000130: aa8d 483f 3965 873f 81a2 493f 89b8 aa3f
00000140: d481 693f 1205 9a3f 52f0 923f 5dab 263f
00000150: c887 783f 13bc 973f c672 7b3f 564d 403f
00000160: 1736 373f 611e 583f 2402 593f 1b2a 763f
00000170: e61e 843f 438f 4d3f b1a6 683f 3ee8 343f
00000180: 69e0 2d3f 74ec 3a3f 6701 cd3f 4c49 983f
00000190: fe7c 683f b1e2 693f 0d44 683f a8c8 ba3f
000001a0: 9afd a23f 3694 843f b9f0 483f 9abf 633f
000001b0: 86e3 713f f1f4 b83f b7b0 823f 2566 ab3e
000001c0: e1ec 7f3f 8e6f 7e3f 9325 4c3f ca8f 563f
000001d0: ecc8 cd3f 15c0 603f 6ce1 3b3f 68aa 853f
000001e0: a0ea 5e3f f14b cd3f 07e5 9d3f 8d08 463f
000001f0: 65b4 4a3f 363c 2b3f bec2 803f 61aa 5b3f
0.9799737 0.94267845 0.61010087 0.7441936 0.9926534 1.0430866 1.2558037 0.7926966
0.9201747 1.3453413 1.0072025 0.6603127 0.9352763 1.1324575 0.98358357 0.92525756
0.9029104 0.5953553 0.6140495 0.9975608 1.0967009 0.972251 1.0844362 1.115299
0.883966 0.9996732 1.1673981 0.98667 1.1577753 1.0764315 0.7449087 1.0609456
0.5474036 1.1414889 1.0184814 0.9024694 1.0740001 0.5616772 0.792876 1.0063158
0.87657046 0.98176783 0.6799961 0.8033877 1.0208211 0.9003228 1.0872451 0.8824159
1.020502 1.0780991 0.8168242 0.88122946 0.75639474 0.8171429 0.86434627 1.0132265
1.059266 1.0737505 0.86339074 0.8122542 1.1941949 1.3195105 1.2704462 1.1862084
1.2718256 0.62350386 0.79473084 0.8518158 1.0049456 0.95138353 0.99500144 0.83790064
0.97804016 1.0613983 0.8148938 1.0421023 0.7834116 1.0577766 0.78763586 1.3337566
0.91213727 1.2032797 1.147959 0.6510523 0.97082186 1.1854271 0.98222005 0.75118005
0.7156691 0.84421355 0.8476889 0.96158 1.032193 0.80296725 0.9087935 0.70666873
0.6792055 0.7301705 1.6016053 1.1897368 0.9081572 0.9136153 0.9072884 1.4592485
1.2733643 1.035773 0.78492314 0.88964236 0.944878 1.444975 1.0210179 0.33476368
0.99970824 0.9938897 0.79744834 0.83813155 1.6076941 0.87793094 0.7339084 1.0442629
0.8707676 1.60388 1.2335519 0.773568 0.7918151 0.6688875 1.0059431 0.8580685
